Personal/DACON/데이터·AI를 활용한 물가 예측 경진대회  농산물 가격을 중심으로/models/best_lstm_model_건고추.pth (torch, 220408 bytes, 9 tensors)

lstm.weight_ih_l0 f4 [256, 16]
000000 30 33 22 3c 81 cc 89 3d e9 bd a2 bd f6 f3 b6 3c
       0.009899899 0.06728459 -0.07946379 0.022333127
000010 7d 6d 07 be 5d 8d 05 3e 64 69 ce 3d 0e 5f f9 3d
       -0.1322536 0.13042207 0.100786954 0.12176333
000020 1b 04 6e 3c b8 dd 00 3e 9d 6a f4 3d 40 7a e6 bd
       0.014527346 0.12584579 0.11934397 -0.11253786
000030 d7 ef 36 bd f1 0c 0e 3d 18 3f ba 3d dc ce 02 3c
       -0.044662323 0.03468031 0.090940654 0.007983889
000040 bb 66 78 3d 44 6f 6d bd ca a9 91 3d 35 5b 9d 3d
       0.060644846 -0.05796744 0.07112463 0.07683412
000050 72 ae dc 3d c3 e6 25 3d 47 c0 03 3e a9 26 04 3e
       0.1077546 0.040503275 0.12866317 0.12905373
000060 d3 0f 84 3d ce ee fe 3d 54 5a 95 bd de 09 8a 3d
       0.06448331 0.12447892 -0.07292619 0.06740163
000070 b3 9d 8d 3d 3d 6a 05 3e 4a e1 9b bd c9 fd 0d 3e
       0.06914844 0.13028808 -0.0761133 0.13866343
000080 c2 7a f3 bc 31 40 6d 3b 19 df ab 3d 49 e3 af 3d
       -0.029721621 0.003620159 0.08392162 0.08588273
000090 1a dc 83 bd 19 c0 7f bd 79 a0 df bc 85 51 01 3c
       -0.064384654 -0.062439058 -0.027298199 0.007892971
0000a0 a1 14 45 3c 7d d3 9e 3d 18 a7 f5 3d c0 99 75 bd
       0.012028844 0.07755182 0.11994761 -0.05996108
0000b0 8b 27 eb 3c cc 18 c8 bd 4b 8d 9e bd cb d6 8f 3c
       0.028705379 -0.09770355 -0.07741793 0.017558476
0000c0 5a 94 bc 3d 20 83 db bd 38 4a b3 bd 5f b1 d2 bd
       0.09207983 -0.107183695 -0.087543905 -0.10287737
0000d0 91 38 de bb 89 ce 76 3d fe 8c 8a bd d8 ad 08 3e
       -0.0067816456 0.06025556 -0.067651734 0.13347566
0000e0 84 f2 b3 3d 55 7f d3 bc 51 38 04 3e b3 35 ec bd
       0.087864906 -0.025817553 0.12912108 -0.1153368
0000f0 46 26 dd 3d f2 ce fc bc 43 d7 60 3d 3a d6 3d bd
       0.10798316 -0.030860398 0.05489279 -0.04634688
000100 dd 2b 2c 3d 09 40 c3 3d 57 70 92 3c 0a 4d 47 3d
       0.04203402 0.09533698 0.017875833 0.048657455
000110 21 8f 9c 3b 81 d1 4b bb 4f e7 d1 bc 2c ff ce bb
       0.0047778045 -0.0031100216 -0.025622992 -0.00631704
000120 88 06 91 bd cd c8 df 3c d5 98 5b bd 88 e3 c0 3d
       -0.07081324 0.027317429 -0.05361255 0.09418398
000130 9d 4f 2d bd 18 9e c2 bc c2 cd 32 bd 6e 8a ac bc
       -0.042312253 -0.023757026 -0.043653257 -0.021062102
000140 bc 39 07 3e a5 e1 53 3d 22 b2 8e 3d 52 61 1b bd
       0.13205618 0.051728863 0.0696757 -0.03793461
000150 4a d4 91 bd e1 06 99 bd 5f d6 16 bd 36 98 9b bc
       -0.07120569 -0.07472015 -0.036825534 -0.018993478
000160 a4 97 ef bc d0 96 dc 3d 90 ea a7 3c 05 75 a1 bd
       -0.029247113 0.10770953 0.02049759 -0.07883648
000170 25 1a 5a bd 08 3b 9a bd 3b 49 e9 bc 25 7c a2 3c
       -0.05324759 -0.075307906 -0.028477302 0.019834587
000180 d3 0a 4b 3d 13 3e 56 3b 85 90 e4 3d ea f7 a6 bc
       0.04957087 0.0032690808 0.111603774 -0.020381887
000190 b6 ac 04 3e 64 62 ca bb fa f1 09 3e 43 87 14 bd
       0.12956509 -0.00617628 0.13471213 -0.036261808
0001a0 bd 36 01 3e e5 37 e8 3d 71 08 03 3e 3a 38 11 bd
       0.12618537 0.11338786 0.12796189 -0.035454012
0001b0 9e c8 f7 3d ad 6d 89 bc 98 26 dd bb ea 8d cd 3d
       0.120988116 -0.01677593 -0.0067489855 0.100368336
0001c0 0e 85 a5 bd 9b b9 ea 3d d6 5b e0 3c 41 c6 ad bd
       -0.08082019 0.11461183 0.02738754 -0.084850796
0001d0 35 0a d1 3b 0a 2a 9f 3d 71 ee c0 bc e6 80 aa 3d
       0.0063793906 0.0777169 -0.023551198 0.08325367
0001e0 1a 6c 80 3d 64 33 bb 3d 47 a5 ab 3d bf 20 a9 3c
       0.06270619 0.09140661 0.083811335 0.020645497
0001f0 cd 5d f6 3d 35 25 5e bd eb ab 88 3d ca 38 39 bc
       0.1202961 -0.054234702 0.06673416 -0.0113050435
000200 89 90 ad 3c c1 63 87 3c f8 35 29 bd 5c 2e 02 3e
       0.021187084 0.016527059 -0.041311234 0.12712997
000210 d1 03 c0 bd db ba 70 3d 16 50 d1 3d 36 23 09 3e
       -0.09375728 0.05877195 0.10220353 0.13392338
000220 29 1c d3 bd 6b 50 92 bd 5e 51 53 bd 6b 97 d5 bc
       -0.103081055 -0.07144245 -0.05159127 -0.026073178
000230 bf 64 e0 3c 53 ec ab 3d 1a 7f db bd c4 31 a9 3d
       0.02739179 0.08394685 -0.10717602 0.08261445
000240 4d 17 de 3c fe dc f1 bd 36 83 97 bd 5b ae 0b bd
       0.02711072 -0.11809729 -0.073980734 -0.034101825
000250 1c d2 a1 bd 48 dc 8e bd 3c 6a 95 bd b2 2c 4e b9
       -0.07901403 -0.06975609 -0.07295653 -0.00019662341
000260 0f 76 22 bc 04 31 ce bd d7 0f 57 3d bf 87 e7 3c
       -0.009915843 -0.10067943 0.05250534 0.028262971
000270 15 7f 84 3d d7 9a 03 3e 52 49 d2 3d 94 e2 af bc
       0.064695515 0.12852035 0.10267891 -0.021470346
000280 b3 c0 db 3d 46 02 93 3d 5f 17 c6 3c 76 21 ff 3d
       0.10730114 0.07178168 0.024181066 0.12457554
000290 12 90 b6 bd 2e 37 8a 3c 0b a4 0c 3d 03 f9 60 3d
       -0.08914198 0.016872015 0.03433613 0.054924976
0002a0 bb c2 57 bb 7b 02 04 bd 43 1b df 3d 06 b1 7b 3d
       -0.0032922465 -0.032228928 0.10893872 0.06144812
0002b0 24 84 bc 3d 3c 0f ac bd c2 ed c7 3c 01 92 60 3c
       0.09204891 -0.08401343 0.024405364 0.013706685
0002c0 67 07 11 3d 44 2d 90 3d ea a7 de bd 86 6a c8 3d
       0.03540745 0.07039884 -0.10871871 0.09785943
0002d0 39 2c cb bb dd f4 81 3c dd 98 01 be 20 43 45 bb
       -0.00620034 0.01586383 -0.12655969 -0.0030099824
0002e0 e0 d5 21 bd f9 7b 5c bc 78 cc 11 3d f1 61 ef 3d
       -0.039510608 -0.013457292 0.035595387 0.11688603
0002f0 79 bb 45 bd 46 88 cc bd 27 2c de bd b3 0d b7 bc
       -0.04827449 -0.099869296 -0.10848265 -0.0223454
000300 0f 83 22 3c 43 01 98 bc 47 50 b9 3d be 89 0e bd
       0.009918942 -0.01855529 0.09048515 -0.03479933
000310 86 12 0a bd 3a 63 41 3d 7f 1d 06 3e 46 ca 92 3d
       -0.03370907 0.04721377 0.1309719 0.07167487
000320 e7 4c be bd ed b1 54 bc 8c c6 00 3d c0 39 a7 3d
       -0.09292012 -0.012981874 0.03143935 0.08165312
000330 37 0c a3 bd c7 fd 56 bd 69 e7 b7 bd 49 37 75 bc
       -0.07961314 -0.052488115 -0.08979685 -0.014966794
000340 59 95 a5 bd 5b af eb 3d d1 65 b4 bd 8c dd 14 bd
       -0.080851264 0.11508056 -0.088084824 -0.036344096
000350 ca 7c a4 bc d3 d3 5d bd 62 18 7a 3d 1f ef a4 3c
       -0.020079035 -0.05415709 0.06105841 0.020133553
000360 10 a8 e8 3d 22 ac a5 bd f1 0e a8 3d 8f 7c b7 bd
       0.113601804 -0.08089472 0.08205975 -0.089593045
000370 af 5d 0a 3e 28 d7 7e 3d d4 93 05 3e d5 00 ff 3b
       0.135123 0.062216908 0.13044673 0.0077820816
000380 31 f9 bc bd 9f 90 9d bd 93 3c 91 bd 57 84 d9 bd
       -0.09227217 -0.076936 -0.07091632 -0.10620945
000390 28 2c 4c 3d d4 50 c3 3d 6f 53 5c bc 8b c8 69 3d
       0.0498468 0.09536901 -0.0134476265 0.05707602
0003a0 cd b5 7d 3c 8a 01 7e bd cc 8d f0 bc 6c a8 d0 bd
       0.015485239 -0.062013187 -0.029364489 -0.10188374
0003b0 26 2a e0 bd 02 5a 00 3c 5c d6 53 3d 99 bc ba bd
       -0.10945539 0.00783396 0.0517181 -0.091180034
0003c0 56 f5 5b bc 10 08 d2 3b 29 1c 01 3c 92 72 b8 bd
       -0.013425192 0.0064096525 0.007880249 -0.090062276
0003d0 36 e3 22 3d ca bd e9 bd 00 f7 c6 3d 8c 8b be bd
       0.039767466 -0.114131525 0.0971508 -0.0930396
0003e0 e1 4c 0c 3d 24 cf 9d bc e8 7b ec bc 8a a9 01 3e
       0.034253005 -0.019263811 -0.028867677 0.1266233
0003f0 e7 b7 87 bd 3f e6 c9 3d 87 41 6f 3d 57 2d 0b bd
       -0.066268735 0.09858369 0.0584121 -0.033978786

lstm.weight_hh_l0 f4 [256, 64]
000000 6b 7a 40 3c 04 3f 04 3e 66 be 05 be 6c 91 7a bd
       0.011747937 0.12914664 -0.13060912 -0.06117384
000010 90 63 cc 3d 2a c7 91 3d e2 d7 0d bd 2d 9a 60 3d
       0.099799275 0.07118066 -0.03462971 0.054834533
000020 87 ed a4 3d 91 13 0d bd 42 4f a3 bd ee 31 a2 bd
       0.08053117 -0.034442488 -0.079741016 -0.079196796
000030 e4 d0 b7 bd 6a 9d 01 3e 3d d5 72 bd fe 56 8a bd
       -0.089753896 0.12657705 -0.05928539 -0.06754874
000040 91 9e d8 3d 70 ce 08 be f9 27 d3 3d 5e bb 14 3c
       0.10577119 -0.1336 0.103103586 0.009077875
000050 c1 2e c0 bd 12 8a fc 3c 10 40 b6 3d 04 5a 80 3d
       -0.093839176 0.030827556 0.08898938 0.06267169
000060 2e b4 8a bc d6 3d 15 bc 34 0e ed bd 6f cb ba 3d
       -0.01693162 -0.009108981 -0.11574975 0.09120833
000070 c8 e4 bd bc 3a 94 e1 bc 12 7c 5f 3d 28 74 8a 3d
       -0.02318038 -0.0275365 0.054561682 0.06760436
000080 b0 a8 7c 3d 04 da c8 bd 2c 83 55 bd d5 f7 1e 3d
       0.06168431 -0.09807208 -0.05212705 0.03881057
000090 b2 aa b9 3d 6b b4 82 bd 50 4d 98 bd 6d ef 08 3c
       0.09065761 -0.06382068 -0.07436621 0.008357865
0000a0 c1 3d c0 bd bb da 85 bd 9b 3b fb 3d 9c 86 93 3d
       -0.093867786 -0.0653586 0.12267228 0.07203409
0000b0 f7 c2 b3 3d fa 4a 80 bd a3 d2 6f bc 52 bb d0 bd
       0.08777421 -0.06264301 -0.014637622 -0.101919785
0000c0 50 4a 1d 3d 7e 58 48 bc f0 9e ac bb 89 c3 9d bd
       0.038400948 -0.012228129 -0.0052679703 -0.07703311
0000d0 d8 e5 be bd 57 84 b4 3d a6 43 3f bc a0 7b 4c 3d
       -0.09321183 0.08814304 -0.0116738435 0.049922585
0000e0 26 b2 e8 3d 17 d2 a3 3c 60 7e db 3d 4d cd 1c 3d
       0.11362104 0.01999764 0.107174635 0.038281728
0000f0 f7 4c 2a bc 33 79 d4 3d b5 4b de 3d 48 d4 45 3d
       -0.010394326 0.103746794 0.10854284 0.04829815
000100 47 4d 96 bd 78 bd f3 3d 8d 33 7b 3d 2c 12 9c 3b
       -0.07338958 0.11901373 0.06132846 0.0047629084
000110 72 3e bb 3c da 73 93 3b 7d 52 f5 bd dd 90 43 bd
       0.022856925 0.0044998946 -0.11978624 -0.047745574
000120 5f fa 9d 3d 3f 2e d3 bd 71 cf e4 bd 27 79 af bb
       0.0771377 -0.10311555 -0.11172379 -0.0053550187
000130 66 9f 9f 3c ea 1a 4e 3d 34 b5 bd 3d fd 84 91 3d
       0.019485187 0.050318636 0.092630774 0.071054436
000140 72 2a 84 3c 6f f2 1e bd 09 27 2b bc bf 5a d0 3d
       0.01613352 -0.03880542 -0.010446318 0.101735584
000150 48 c5 c6 bd 0a 39 4c bc 25 dd 9c 3d 92 dd 5c 3d
       -0.09705597 -0.012464771 0.076593675 0.053922243
000160 5b e9 8c 3d 3a 81 07 be 94 47 a7 bd aa 9a 97 3c
       0.068804465 -0.1323289 -0.08167949 0.018506367
000170 eb eb 8d bd a4 f8 6a bd ed f3 18 bd 79 38 01 3e
       -0.069297634 -0.05736603 -0.037342 0.12619199
000180 46 53 ce bd f5 64 c7 bd 3f 66 2b bd d1 69 5b bd
       -0.10074477 -0.09736053 -0.041845556 -0.05356771
000190 a3 49 b4 bd 42 82 fb 3d 4c 7b a6 bc da 68 b6 bc
       -0.088031076 0.12280704 -0.020322464 -0.022266794
0001a0 cc 70 c3 3d 03 f8 52 3d 66 71 14 3d 18 dd c6 3d
       0.09542999 0.051506054 0.036240958 0.09710139
0001b0 79 89 e3 bd dd 7a b2 3d 83 c1 d1 bd b2 69 42 3d
       -0.11110205 0.087148406 -0.102419876 0.04746408
0001c0 8b 56 cc bd d9 5a 3f 3b 7f 17 88 3d 57 75 23 3d
       -0.09977444 0.0029198437 0.066451065 0.039906826
0001d0 59 1a a2 3d d2 c6 9e 3c 6e bf 95 bd b6 2e 31 bd
       0.07915182 0.019381914 -0.07311903 -0.043257438
0001e0 e8 60 ce 3d 35 96 4f bc 47 7b 58 3c 27 ad d1 3d
       0.10077077 -0.0126700895 0.013212985 0.10238104
0001f0 77 62 23 3d a7 ca d9 bd df ff b0 3d bf e4 d1 3c
       0.039888825 -0.10634356 0.086425535 0.02562177
000200 b5 94 c9 bd 60 f9 00 3d 6e 21 b7 ba bf 82 b5 bd
       -0.09842817 0.031487823 -0.0013971755 -0.088628285
000210 81 e6 35 bd 21 7e fc 3d 79 8b 29 3d a1 6e 17 3d
       -0.04440928 0.12328745 0.041392777 0.03697074
000220 d3 e3 58 bb 0e f3 ab bd 2c 95 fe bd 80 71 c6 3d
       -0.0033094778 -0.083959684 -0.12430796 0.09689617
000230 9a 75 a6 3c 5f 02 05 3e 71 5f 80 bd 1f e8 3e 3d
       0.020319749 0.12989186 -0.06268204 0.046608087
000240 78 0e 88 bd 8b 37 b9 bd 32 4b 4f 3d 33 3b 82 3d
       -0.06643385 -0.09043797 0.05060882 0.063589476
000250 5b 5a a4 bb 5b 92 91 bd b9 92 43 3d 9e 80 c2 3d
       -0.005015654 -0.07107993 0.047747348 0.09497188
000260 6d 08 26 bd 58 6b ad bd 67 3b d5 3d fe 53 b3 bc
       -0.04053538 -0.0846774 0.10411721 -0.021890637
000270 38 41 3d bd dc f4 51 bc d6 b1 de bd ba bc b6 3d
       -0.046204776 -0.012814727 -0.10873763 0.089227155
000280 e4 88 cf 3d b6 c1 42 3d 24 fb 5e bd 03 f2 ac 3d
       0.10133532 0.04754802 -0.054438725 0.084445976
000290 23 92 41 3d bc 96 05 3e d2 bb 59 bc 25 13 38 3d
       0.047258507 0.13045782 -0.013289409 0.044940133
0002a0 e0 ec af 3d 5f 7c a0 bd e8 83 03 3e 76 2e e1 3d
       0.08590102 -0.07836222 0.12843287 0.1099519
0002b0 4a fb 0d 3d e3 d5 02 be 68 6a 63 bc ce e4 a0 bd
       0.034663476 -0.12776904 -0.01388035 -0.07856141
0002c0 66 58 d0 bd 97 77 b7 3d 6a f1 1d bd a0 b2 cd 3d
       -0.10173111 0.08958357 -0.03856031 0.10043836
0002d0 1d 65 03 bd 03 58 49 3d 28 ef 7b 3d 23 74 8b 3d
       -0.03207885 0.0491562 0.061507374 0.06809261
0002e0 ff 95 37 3d d0 ff 9f bd 5e 9e 11 3d 1c 82 19 bb
       0.04482078 -0.07812464 0.03555142 -0.0023423498
0002f0 a4 8a 0b 3e 57 f1 7f 3d 67 51 37 bb 29 84 68 bc
       0.13627106 0.06248602 -0.0027972104 -0.014191666
000300 ea fe d2 bd 00 34 1c bd 3e 8c af 3c 36 ca 8d 3d
       -0.10302527 -0.03813553 0.021429177 0.06923334
000310 e6 8e 37 3d 06 5c 8e 3d c6 8f c6 3d 3d 24 01 bd
       0.044814013 0.06951146 0.09695391 -0.0315287
000320 42 e8 a1 3c 7d 38 29 bd 8b 68 5b 3d 60 2f d5 bd
       0.01976407 -0.041313637 0.053566497 -0.10409427
000330 dc f7 86 3d fa 4e 8d 3d 47 16 6b bd 8c 2d 22 3c
       0.06590244 0.06899829 -0.057394292 0.0098985545
000340 6c a3 8b bd db 21 1c bd 68 ce ee bd a3 d8 61 bd
       -0.068182796 -0.038118225 -0.116604626 -0.05513824
000350 53 14 42 bd fb ee 27 3d 18 17 e2 bd 4a 6f e7 bd
       -0.047382664 0.040999394 -0.11039561 -0.113005236
000360 1d 25 97 3d 39 fc 00 be 9f 54 d7 3d 13 70 ad 3d
       0.07380126 -0.12596215 0.10514187 0.08468642
000370 35 f8 8e bc ec 4e 19 3d a8 09 c3 bd e6 d8 88 bd
       -0.017452339 0.03742878 -0.09523326 -0.06681995
000380 98 e2 c2 3d 47 ab 2d 3c 57 44 8d 3d 01 bd f5 bd
       0.095158756 0.010599918 0.068978004 -0.1199894
000390 b0 a6 8c bd 9b cb 01 bd 89 f5 a5 3c 3d bb ef 3d
       -0.068677306 -0.031688314 0.020258682 0.11705635
0003a0 74 9e e4 3d 45 be d1 bd 1b 9f e4 bd f1 aa 3c 3b
       0.11163035 -0.10241369 -0.111631595 0.0028788412
0003b0 57 f0 bb 3d 52 9e 00 be 44 dc 91 3b 36 5d dd 3c
       0.091767006 -0.12560394 0.0044513065 0.027021986
0003c0 90 b9 c5 bd 2d 0c e3 bc 36 b7 7d bd 43 5a 2c 3d
       -0.09654534 -0.027715767 -0.0619423 0.042078268
0003d0 d2 00 e0 bd 42 4b a7 3d 71 e0 89 3c 6e 7a 89 bd
       -0.109376565 0.08168651 0.016830655 -0.06712805
0003e0 e8 6d 1f 3d 1e b3 3b bd ea 7a b5 3c 92 bb c0 bd
       0.038923174 -0.045825116 0.022153337 -0.09410776
0003f0 77 2a 4f bd d9 7d 28 3d 44 68 20 bd 95 e7 27 bc
       -0.050577607 0.041135643 -0.039161935 -0.010248085

lstm.bias_ih_l0 f4 [256]
000000 63 ef d7 bd ad bc 70 bd c6 82 e0 bd 31 15 b2 3d
       -0.10543706 -0.058773685 -0.10962443 0.08695448
000010 53 69 05 3e 9b e7 04 bd 3d a1 b2 bd c4 70 66 3d
       0.13028459 -0.03244744 -0.0872216 0.056259885
000020 74 ab 01 3e f2 61 00 3e 76 7c 6c 3d 02 3f 63 bd
       0.1266306 0.12537363 0.057735883 -0.05548001
000030 df 60 b1 bd 1c e6 61 bd 9a 8c b6 3d 99 b5 d5 3d
       -0.08661055 -0.05515109 0.08913536 0.10435028
000040 b7 9a e8 bb 9d 32 d4 3b 51 75 86 3d ef 2f bc bc
       -0.0070985216 0.00647576 0.06565345 -0.022972075
000050 c0 14 a5 bb c7 39 d9 bd ac bb 81 bd e9 0f 5f bd
       -0.005037874 -0.10606723 -0.06334624 -0.054458532
000060 d2 e7 cf bc 79 fb d0 3d 71 9f 19 3d 91 56 d2 bd
       -0.025379095 0.102042146 0.03750557 -0.102704175
000070 d6 4e ec 3d da e5 7a bd 7a d4 ec ba 88 ae d3 3d
       0.11538474 -0.06125436 -0.0018068694 0.103360236
000080 c8 f8 f4 3d 19 a3 3d bd 6b db fc bc 12 90 6d bd
       0.11961514 -0.04629812 -0.030866345 -0.057998724
000090 3f f7 1f bd 5b 61 58 3c f3 cb 23 3d 2e e0 b4 bd
       -0.03905415 0.013206805 0.039989423 -0.088318214
0000a0 f1 5c 8a 3d 7a 46 4a bd 83 88 8b 3d 65 62 33 3b
       0.067560084 -0.049383618 0.06813147 0.002737188
0000b0 87 fc c5 3d bf 70 62 3d 3c 35 d6 bd 59 be 05 bd
       0.096673064 0.055283304 -0.104593724 -0.032652233
0000c0 a1 bb ca bd cb d9 f5 3d 81 8e f1 3d 46 10 59 bd
       -0.098990686 0.12004431 0.117947586 -0.052994035
0000d0 7f 99 91 bd 7b fe b5 bc 5f ce e5 3d 13 f2 b3 3c
       -0.07109355 -0.022216072 0.11221003 0.021966016
0000e0 9a 22 9f 3c 78 f1 59 bd ff 45 e2 3d 28 7f b9 3d
       0.019425679 -0.0532088 0.11048507 0.09057456
0000f0 1e ca d7 bd 10 4f 7f bd cb 8c 4b bd a4 3e 08 3e
       -0.10536598 -0.06233126 -0.049694818 0.13305146
000100 14 9f 89 3d 6c 1c 9a 3d 05 a3 86 bd c1 e9 22 bd
       0.06719795 0.07524952 -0.06574062 -0.039773706
000110 2f 89 ee 3d 6c 2c f4 3b b1 be e5 3d 0d e3 92 bc
       0.116472594 0.0074515846 0.11218012 -0.017930532
000120 e9 70 01 3e b5 bf 03 3d 34 55 b0 3c 79 14 d0 bd
       0.12640728 0.032165248 0.021525003 -0.10160155
000130 1a 9a ac 3d 27 c7 b8 3d a6 e3 8f 3d 85 b3 02 3e
       0.0842783 0.0902236 0.07025842 0.12763794
000140 86 ba 1b bd 30 48 91 3d 48 17 a7 3d 57 b4 19 bc
       -0.03801968 0.07093847 0.081587374 -0.009381375
000150 51 67 a3 bd aa a5 17 bc fb af c2 bd 68 be df bc
       -0.079786904 -0.009255806 -0.09506222 -0.027312472
000160 7c b0 38 bd dd 62 e3 3c 9a 0c b4 3d ed 38 21 bd
       -0.045090184 0.027757103 0.08791466 -0.03936093
000170 58 0d 88 3d b8 a4 d1 bd 96 55 a8 3d 78 6f 00 3e
       0.0664317 -0.10236496 0.08219449 0.12542522
000180 db b9 ae 3c 9a c7 27 bd cb 45 93 bd 15 d4 dc bd
       0.021328857 -0.04096184 -0.07191046 -0.10782639
000190 ae f4 d7 bd 0f be 89 3c 79 51 3a ba 10 e1 f1 3d
       -0.10544716 0.01681426 -0.0007107477 0.118105054
0001a0 c5 41 cb 3d ba 39 6e 3c 8f 2d 80 bd af 08 99 bc
       0.09924654 0.01454013 -0.062586896 -0.018680898
0001b0 d1 7c a7 3d 09 77 ee 3d cb 0e db 3d b3 da 8c bd
       0.08178104 0.11643798 0.10696181 -0.06877651
0001c0 4c 91 8e 3d cc 06 de bd 4a 3e a1 3d fb 2f 17 bc
       0.06961307 -0.1084114 0.07873209 -0.009227748
0001d0 32 cc f3 3c 3e 66 38 bc 75 63 67 bd 8c 0a e9 3d
       0.029760454 -0.011254845 -0.056491334 0.11378965
0001e0 b3 47 a0 3d f6 e2 75 3c ee dc ab 3d 27 6d df 3d
       0.078261755 0.015007725 0.08391748 0.10909491
0001f0 79 45 52 3d df 62 44 bd 4e 92 81 bd d8 c8 a4 bc
       0.051335786 -0.047945853 -0.063267335 -0.020115301
000200 1f 9d 03 3c 51 77 c8 3d de 73 86 bd 31 c8 41 3d
       0.008033066 0.09788383 -0.06565069 0.047310058
000210 4f 55 87 bd 1b 08 09 3e 74 62 a1 3d 93 d7 94 bc
       -0.06608068 0.13381998 0.078801066 -0.0181692
000220 dd 66 43 bc ff d3 48 3d fd 17 b8 bd b7 12 8b bd
       -0.01192638 0.0490303 -0.089889504 -0.06790679
000230 fa 09 db bd 39 8a 5a 3c 97 8a e0 bd ec f9 70 3c
       -0.10695262 0.013338619 -0.10963934 0.0147080235
000240 e6 b4 e7 bd e5 11 d1 3c f7 d0 ed bd 61 0b 1b bd
       -0.113138005 0.025521228 -0.116121225 -0.03785265
000250 d7 90 ed 3c 6a a6 c0 bd 21 e9 d7 3d 68 0a 82 bd
       0.02899973 -0.09406741 0.10542513 -0.06349641
000260 a7 3a 6d 3d c1 b1 ed bd 15 c8 e0 bd c1 fd fe 3d
       0.057917263 -0.116061695 -0.109756626 0.124507435
000270 cf d2 9a bc ec 65 b6 3d 8e 4b c2 bc ad 58 cb b9
       -0.01889935 0.08906159 -0.023717668 -0.00038785246
000280 7c 5e 86 bd cd e6 04 3e 64 51 41 3d 8b 76 b4 bd
       -0.0656099 0.12978669 0.04719676 -0.08811673
000290 7f 38 03 bd 0f b7 bf 3c 87 a0 c5 bd f7 6e 90 3d
       -0.0320363 0.023402719 -0.09649759 0.07052415
0002a0 6b 48 16 bc 28 2b 8a 3d 3f a3 e8 bc d0 25 0e 3d
       -0.009172539 0.06746513 -0.028398154 0.03470403
0002b0 06 60 3a bd d7 3e 0b be 3c b7 df bd dd 1b 2c bc
       -0.04550173 -0.1359819 -0.10923621 -0.01050469
0002c0 09 53 96 3d 3e 37 6e 3d d2 ed ec bd 81 34 85 bd
       0.073400564 0.05815815 -0.11568798 -0.06504155
0002d0 af 4d 0a bc 8d 17 b1 3d 14 75 b3 bd 37 50 03 be
       -0.008441373 0.0864707 -0.08762565 -0.12823568
0002e0 39 bb 6c bb 7b bb d0 bd cb a4 7c 3c 41 14 77 bc
       -0.0036122336 -0.10192009 0.015420149 -0.0150805125
0002f0 57 d0 73 3d 63 a3 fe 3c d5 77 ec 3d df 4e 60 ba
       0.05952486 0.031083768 0.11546294 -0.00085566746
000300 a4 fb 93 bd ac 9c 59 3d 90 2a d8 3d 3e e6 93 bd
       -0.07225731 0.05312793 0.10554993 -0.072216496
000310 b5 37 2a bc 5d e9 20 bc 6f 2f da 3c 90 47 b1 bd
       -0.010389258 -0.009821263 0.026633946 -0.086562276
000320 8b 69 f2 3d 68 2b c3 3d 3a 25 4c 3d 24 3d 0c 3c
       0.11836537 0.095297635 0.04984019 0.008559499
000330 cf 36 a8 3d 25 f9 5a 3d db 39 9c 3b 5b 14 ed bd
       0.08213579 0.05346026 0.004767639 -0.11576148
000340 98 a7 8b 3c 29 d1 b4 bd 66 15 10 3d ac 07 d4 bd
       0.017047688 -0.08828957 0.035176657 -0.10353026
000350 b8 30 d2 bc a9 06 5c 3b 2c 52 1c 3d fe 36 c9 3d
       -0.025657997 0.0033573306 0.038164303 0.09824942
000360 37 10 0a 3e 82 f7 35 bd b0 24 68 3c 4d 60 2d 3d
       0.13482748 -0.044425495 0.014168903 0.042328168
000370 70 48 bb 3d 80 f9 8b 3c 6b 62 d5 3b c5 00 3a 3d
       0.09144676 0.017086744 0.0065119765 0.04541089
000380 8a c0 f8 3c 80 a9 e8 3d c1 0c e2 bd 31 63 88 bd
       0.030365247 0.113604546 -0.11037589 -0.06659544
000390 f2 72 c1 bc 46 05 a0 3d a1 ea 32 bb 41 b0 21 bd
       -0.02361438 0.07813506 -0.0027300494 -0.03947473
0003a0 71 11 7d bc 2b 68 16 3c ee 60 91 3d 60 25 82 bb
       -0.015446053 0.009180109 0.07098566 -0.0039717406
0003b0 44 11 cc 3d a2 78 44 3d e4 d6 ec 3d 7b 98 d2 bc
       0.09964231 0.047966607 0.11564425 -0.025707474
0003c0 f2 54 20 bd 06 7a a4 3d 8d 32 2e 3c 43 5f f5 3c
       -0.03914351 0.080310866 0.010632169 0.02995265
0003d0 19 02 23 bd 69 6a e5 3d 3c 40 9f 3d 9d da 71 3d
       -0.039796922 0.11201937 0.077759236 0.059046376
0003e0 95 76 d0 bd f6 39 4e 3d c7 f4 ad bc b0 2c de bd
       -0.10178868 0.050348245 -0.021234883 -0.10848367
0003f0 73 e2 83 bd a8 48 04 bd c7 eb bd bd eb 66 c5 bd
       -0.06439676 -0.032295853 -0.092734866 -0.09638771

lstm.bias_hh_l0 f4 [256]
000000 2f 67 d5 3d c1 4a fa 3d a4 7c 34 3c ab 00 9c bd
       0.10420071 0.122212894 0.011016045 -0.07617315
000010 09 58 8b bd 2e 6e e2 bc d5 ae a2 bd 68 6a 29 bd
       -0.06803901 -0.027640428 -0.07943503 -0.041361243
000020 dc c6 6d 3c d3 da 04 3e 48 8a fd 3d d2 e4 36 3d
       0.014512744 0.129741 0.12379891 0.044651814
000030 1d 8e cd bd 87 cc b0 bd f3 af 4e bd 33 78 f2 3d
       -0.100368716 -0.086327605 -0.050460767 0.118393324
000040 08 d3 b9 bd 8a ce ba 3c 38 a0 29 3c 71 bd b9 bd
       -0.09073454 0.022803564 0.0103531405 -0.09069336
000050 65 00 f6 3d bd 80 da bc 81 f4 f1 bc 37 a8 7a 3d
       0.12011794 -0.026672715 -0.029535534 0.06119558
000060 e1 92 66 3d 0c 30 4c 3d c1 01 2f bd 55 1c db bd
       0.05629242 0.04985051 -0.042726282 -0.10698763
000070 2c 2c 72 3c d9 b0 23 3d 2d c0 03 3e 9a f6 bd bd
       0.014781039 0.039963577 0.12866278 -0.09275551
000080 cc f5 2b 3d 77 9b 01 3d b5 ca fd bc 4a 52 8d 3d
       0.041982457 0.031642403 -0.030980447 0.06900461
000090 d1 7f 1d 3d 5d f6 72 bd cc cd 89 bd 10 e1 f4 bc
       0.038451973 -0.05931698 -0.06728706 -0.029892474
0000a0 d9 d9 bf bc 03 d8 97 bd 25 ef a0 3d 9a 9b 01 3e
       -0.023419308 -0.07414248 0.07858113 0.12657014
0000b0 85 74 87 bd 01 b1 e5 3d 3c f9 4f bc de 07 d4 3d
       -0.06614021 0.112154014 -0.012693699 0.10353063
0000c0 7a b8 c9 3b 43 1b 85 bd 00 b9 12 bd 8a 1f ab 3d
       0.0061560245 -0.064993404 -0.03582096 0.08355625
0000d0 f3 50 5e bd 90 42 b2 3d 22 23 43 3d be b7 88 bd
       -0.054276418 0.08704102 0.047640927 -0.06675671
0000e0 4b 3f 16 3d cf bd f6 3d 36 e4 93 3c e6 ed d8 3c
       0.036681455 0.12047922 0.018053155 0.026480626
0000f0 46 64 0d 3e a2 22 8c 3c b3 c7 2a bd ff d7 c5 3d
       0.13807783 0.017106358 -0.041694354 0.096603386
000100 20 5b 3d 3d 44 92 ef 3d 0d 10 a4 3d 87 df a2 bb
       0.04622948 0.1169782 0.08010874 -0.004970494
000110 0a 4f 4a 3d 69 00 48 bb 88 3e 57 3d 3d 03 c7 3c
       0.049391784 -0.0030517823 0.05254987 0.024293536
000120 c0 24 16 bd 92 41 39 3a 36 04 d3 3d 31 15 86 bd
       -0.03665614 0.00070669607 0.103035375 -0.06547011
000130 f0 20 d5 3d 0b 3a 84 3d 5a 0f 2d bd 6f 24 41 bd
       0.10406673 0.06456383 -0.04225097 -0.047153886
000140 cd 9e bd 3c 73 5d ac bd c9 8b 4e bd 6e a7 fa 3d
       0.023147011 -0.084162615 -0.05042628 0.12238966
000150 87 bd c4 3d 5b 4c c3 3d ce 83 49 3d 56 0c d5 3d
       0.09606462 0.09536048 0.049197964 0.104027435
000160 8d b6 bc 3d 3e fb 23 bb b4 75 52 3c 0c de 0b 3e
       0.09214506 -0.0025021578 0.012845445 0.13658923
000170 91 97 44 bc 68 a8 3e 3d b4 c0 54 3c 30 61 39 bd
       -0.011999027 0.046547323 0.012985397 -0.0452587
000180 4a c5 63 bd e2 dd 21 3d 1d 8d c5 bd 33 c4 b7 bd
       -0.05560807 0.039518245 -0.09646056 -0.08972969
000190 e6 93 f9 3d 1f eb d6 bd 31 bb 24 3d 15 e7 ba bc
       0.121864125 -0.104940645 0.040217582 -0.022815267
0001a0 24 ab a8 bc 11 d2 fe bd 53 95 f5 3d 09 20 02 3e
       -0.020589419 -0.12442411 0.11991372 0.12707533
0001b0 65 c2 21 bd 8b 51 bd bd 97 e8 a8 3d a5 a5 e8 3d
       -0.03949203 -0.09244069 0.08247488 0.11359719
0001c0 5c 11 d1 3c ed 39 de bc 50 3a 90 3c 6e 2d f1 bb
       0.025520973 -0.02712723 0.01760593 -0.007360152
0001d0 c2 ca e6 3c a1 f9 70 bd bc 52 d3 3c 31 ce 75 3d
       0.028172854 -0.058831815 0.025796287 0.060011093
0001e0 13 9d 00 3e 31 cf f8 3d de 2a 0a 3c 6c c1 7e 3d
       0.12559919 0.121488936 0.008433072 0.06219618
0001f0 0a a6 65 bc b7 76 53 bd 5b 24 be 3d ee 54 b9 3c
       -0.014016638 -0.051626887 0.09284278 0.022623505
000200 29 b3 c7 3d e4 5d 4a bc 31 99 ed bd fc 24 96 3c
       0.09750969 -0.012351487 -0.116014846 0.018328182
000210 dd e4 b5 3d 65 7b 9a 3c 9b 64 3a bd ec 15 ba 3d
       0.08881543 0.018857667 -0.0455061 0.090862125
000220 68 f3 0a 3e 65 7b ec 3d cb 4c 89 3d b3 e0 8e 3d
       0.13569415 0.11546973 0.067041 0.06976452
000230 6e ed 96 3d 1b a5 4f 3d bd 1e b9 3b 4d 80 7f 3d
       0.07369505 0.050694566 0.0056494162 0.062378217
000240 b2 08 f7 bb de 3b 83 bd c2 2b 07 3b 01 89 af bd
       -0.0075388784 -0.06407903 0.0020625447 -0.08571053
000250 ad 16 1d 3d 2a c7 b8 bd 29 15 09 3e e1 69 1b 3d
       0.038351703 -0.090223625 0.13386978 0.03794277
000260 b4 6e e2 3c a7 60 c6 bd 44 00 69 bd 44 0e 0a 3c
       0.027640678 -0.09686404 -0.05688502 0.008426253
000270 59 b5 79 3d f5 2b 80 bc 87 78 ff 3c ea f4 0a 3e
       0.060963962 -0.01564596 0.031185402 0.1356999
000280 2b 44 8c bc 0f ea ee 3c 65 d6 b6 3b 41 c7 a0 bd
       -0.017122349 0.029164342 0.005579757 -0.07850505
000290 07 6c 26 3d f7 6d 09 3e 6b f7 31 bd 39 85 9e 3d
       0.040630367 0.13420855 -0.043448847 0.07740254
0002a0 6d 33 d4 3c 6a a0 b4 3d ce f5 0f bc fa d1 4b bd
       0.025903428 0.08819659 -0.008786632 -0.049760796
0002b0 05 c9 d9 bd 85 05 f7 3c 45 af 3d 3d 8d 90 b4 bd
       -0.106340446 0.030154 0.04630973 -0.088166334
0002c0 01 47 d3 bd 4d 65 b1 bd ab 3d 8c bd e4 77 63 3d
       -0.10316277 -0.086619 -0.068477 0.05553426
0002d0 a0 c9 ec bd e6 82 53 bb 7e ed 56 3d 5f fd 74 3d
       -0.115618944 -0.0032274066 0.052472584 0.059811946
0002e0 57 93 47 3d 10 21 7b bd 5b 2f e6 3d 8b f9 92 bd
       0.0487245 -0.061310828 0.11239501 -0.07176503
0002f0 2a 5e 1d 3d eb ff 08 3c 6d b9 ca bd 2d d7 1f bd
       0.03841988 0.008361797 -0.098986484 -0.039023567
000300 9e e0 a4 bd 74 0f 0d bc 2d 34 06 3d f9 09 92 3b
       -0.08050655 -0.008609641 0.032764602 0.0044567552
000310 ef 18 10 bc 0a a5 dd bd 0b bf 2b bd 98 3f ff 3d
       -0.008795007 -0.10822494 -0.04193024 0.124633014
000320 78 e3 57 3c 83 aa cf bc 0e 87 10 bd 18 38 7c 3c
       0.013176791 -0.025349861 -0.03528505 0.015394233
000330 97 f1 27 bd e3 5e 0c 3d 10 a2 e5 bd ab 4a c8 bd
       -0.041001882 0.03427018 -0.112125516 -0.09779867
000340 56 7d c4 3c de 3a a6 bc 37 32 da bd 05 eb f6 bc
       0.023985546 -0.020291742 -0.10654109 -0.030141363
000350 7e 6e 9c 3d 2b 15 8d 3d 49 51 b6 bd e8 43 c4 3d
       0.07638262 0.06888803 -0.08902223 0.095832646
000360 52 75 aa bc e1 c4 bf bd 95 0a 39 3d ba ef 00 3c
       -0.020807896 -0.093637235 0.045176107 0.007869655
000370 1b ea 2e bd f3 39 c2 3d c1 e5 5a 3c 99 cf 09 3d
       -0.04270373 0.09483709 0.013360442 0.033645246
000380 d7 c6 4a bd 8d 96 4e bd 99 f1 a2 bd bb 8a 5e bc
       -0.049506035 -0.050436545 -0.07956237 -0.013582881
000390 06 3e e4 3c d3 f6 0d bd ca 64 02 3e c1 f0 3e bd
       0.027861606 -0.034659218 0.1273376 -0.04661632
0003a0 14 bc 34 3d c7 f8 f0 3c 00 f4 60 3c 9d c1 05 3d
       0.044124678 0.029415501 0.013730049 0.032655347
0003b0 fc 31 d7 3d 12 1a f2 3d 3e 4d cc 3d 67 2a f5 3c
       0.10507581 0.11821379 0.0997567 0.029927446
0003c0 ee ab 05 bd 5e 44 8c bd 38 58 bf bb 26 26 82 3d
       -0.032634668 -0.068489775 -0.005839374 0.063549325
0003d0 2d d5 9f bd 26 b5 a0 bc 07 3e 07 3e 56 1d 36 bc
       -0.07804332 -0.019617628 0.13207255 -0.011115393
0003e0 cd a6 81 bd 5b 3b b2 3d 90 72 09 bd 30 f0 d0 bd
       -0.06330643 0.087027274 -0.03355652 -0.10202062
0003f0 73 3e 82 bd b5 9e 56 bb b9 e2 81 bd 22 85 a3 bc
       -0.063595675 -0.0032748405 -0.06342072 -0.019960944

lstm.weight_ih_l1 f4 [256, 64]
000000 60 12 a4 3d 9f f6 69 bd fb 8b 4b 3d 03 2b 13 bd
       0.08011317 -0.05711996 0.049694043 -0.03592969
000010 33 c1 00 3e 39 59 a7 bd fa 2a 4a bd 71 da c3 3d
       0.125737 -0.08171315 -0.049357392 0.09563149
000020 d0 61 e9 3c c3 0f dc bd 44 0e af bd 16 79 10 bd
       0.028489023 -0.10745194 -0.08547643 -0.035271727
000030 03 f7 67 3d 1f be 84 3d 4e 1d af bd f4 45 75 3b
       0.056632053 0.06481575 -0.08550511 0.0037425729
000040 07 c8 87 bd a4 5e f3 bd 78 9f 6d 3d 3a c6 7a 3d
       -0.06629949 -0.11883286 0.05801341 0.0612242
000050 4b cd 8b bd 7e 13 7a 3d 37 23 e0 bd 8e 9b 00 3e
       -0.06826266 0.061053745 -0.10944217 0.1255934
000060 fd e0 55 bb 9a d1 98 bd 66 2e 58 3c ce 3e b1 bd
       -0.0032635324 -0.07461853 0.013194656 -0.08654557
000070 65 53 dc bd cf 8c e2 3d 74 f4 bb 3d ff b8 a1 3d
       -0.10758094 0.11062013 0.09177485 0.07896613
000080 9f 70 7f 3d 85 d9 b4 bd 9a 61 a5 bc 65 74 d7 3d
       0.062363263 -0.08830551 -0.020188142 0.10520247
000090 34 a8 ac 39 6e ed c5 3d bd 68 b1 3d ea e4 71 3d
       0.00032931718 0.09664427 0.08662555 0.0590562
0000a0 ac 3f d0 3d 9c 9e 88 3d 04 31 2a bb e9 a0 3f 3d
       0.101683944 0.06670877 -0.0025969157 0.046784315
0000b0 67 14 78 3d a1 d3 15 3c 9c a4 1e bd c1 e4 a1 bd
       0.060566332 0.009144695 -0.038731202 -0.079049595
0000c0 a2 f8 b1 3d d2 6b 4b bd 7e 59 ac bd c9 50 3d 3d
       0.08690001 -0.049663372 -0.08415507 0.04621962
0000d0 f8 63 32 bd 12 3a 98 3a 40 61 de 3d a8 e6 4d bc
       -0.04355237 0.0011613986 0.10858393 -0.0125672
0000e0 e4 1d 6a bd ea 4a e0 3c 3d d2 c1 3d c9 52 0a 3d
       -0.057157412 0.027379472 0.09463928 0.033770356
0000f0 fd 98 05 3d 7d 1e 98 3d 42 98 02 3e d1 10 1b bd
       0.032616604 0.0742769 0.12753394 -0.037857834
000100 69 d5 02 3e 7d b2 7a 3c 35 07 ed 3b ca 02 13 3e
       0.12776722 0.015301344 0.007233525 0.14356533
000110 28 50 ad 3c 1f 1f 2c bd b8 e2 76 bd 7f 7a a0 3d
       0.021156386 -0.042021867 -0.06027481 0.07835864
000120 6a a9 6e bd 58 3b ed bc 36 80 39 bd 8a 32 91 bd
       -0.058267035 -0.028958961 -0.045288287 -0.07089718
000130 3d ac c0 bc 18 2f c9 3d 6b ff 30 3d 16 d0 ce bd
       -0.02351963 0.098234355 0.043212336 -0.10098283
000140 37 fb 34 3d 7a f5 25 3d 03 0c 28 3d e5 12 0f be
       0.04418489 0.040517308 0.04102708 -0.13972051
000150 ba ef f2 3d 8c 94 61 bd 58 37 01 3e 17 c4 9d 3c
       0.118621305 -0.055073306 0.12618768 0.019258542
000160 99 06 e5 bd 65 ce 92 bd 65 a2 e1 bd 75 2f a5 bd
       -0.11182899 -0.07168273 -0.110173024 -0.08065692
000170 a3 b6 e1 3d fa cf 9d bc 1a 28 ea 3d ee e0 87 bc
       0.11021163 -0.01926421 0.1143343 -0.016586747
000180 87 0d da 3d 61 3f 54 bd a4 a7 a9 bd 44 f9 0a 3d
       0.106471114 -0.051818255 -0.08283928 0.033929124
000190 a2 ec c4 3c a6 18 c2 3b a8 8f 36 3d 3c f8 0a bd
       0.024038617 0.0059233485 0.044570595 -0.03392814
0001a0 b2 e7 b6 bd ba 60 f6 bc 56 77 12 3d 08 8c 27 3d
       -0.08930911 -0.03007542 0.03575834 0.04090503
0001b0 14 40 a0 3d 0c 39 47 bc 6a d3 00 be 0e af 81 bd
       0.07824722 -0.012159597 -0.12580648 -0.06332217
0001c0 91 92 94 3c e8 1f d8 bd a7 a1 c5 3d 30 f5 ad bd
       0.018136295 -0.10552961 0.09649973 -0.084940314
0001d0 2b d4 09 be 64 31 5c 3c f2 29 0e be 6f 21 b3 bd
       -0.13459842 0.01343951 -0.13883188 -0.08746611
0001e0 de 5e b0 bd 88 d2 53 3d bc 7f f1 3b 45 3f a0 bd
       -0.086118445 0.05171445 0.0073699635 -0.07824568
0001f0 4d f5 ce 3d 70 80 fd 3c 53 d1 dc 3d fa cb ee 3d
       0.10105381 0.030945033 0.10782113 0.11659999
000200 20 38 42 bd 40 dd d5 3d 31 19 9e 3d 28 99 e9 3c
       -0.047416806 0.10442591 0.07719649 0.028515413
000210 24 aa e9 bd 62 dc 9f bd 36 b1 2d bd 73 48 8f 3d
       -0.11409405 -0.078057066 -0.04240533 0.069962405
000220 1c 5e 73 bd 49 0a 4c bd 68 a0 ca 3c 4f a5 58 3c
       -0.05941592 -0.049814496 0.02473469 0.013223006
000230 55 95 f6 bc 45 bc a5 bd 1d 00 71 3c ec f6 8b 3c
       -0.030100504 -0.0809255 0.0147095 0.017085515
000240 43 eb 23 3d 23 6c ee 3d f9 a2 bc 3d 47 41 de bc
       0.040019285 0.11641719 0.09210772 -0.027130736
000250 47 75 0a bd f2 93 b6 3d e3 c1 ad bd 6c 33 7e 3d
       -0.03380325 0.08914937 -0.084842466 0.06206076
000260 c3 19 8f 3d a5 ee 08 3d 88 45 b7 3b 3b ac 11 3c
       0.069873355 0.033430714 0.0055930056 0.008891161
000270 1a 4e e8 bd b2 7b ef bc 81 65 8c bd 45 27 f3 3d
       -0.11343022 -0.029233787 -0.06855298 0.118727244
000280 ec 39 c1 3c 3f f3 9a bd d5 a5 00 3e da 7f cf bd
       0.02358719 -0.07565927 0.1256326 -0.101318076
000290 4d 0d 6d 3d 44 b5 8c ba 03 db 2d 3b ff 42 d0 bd
       0.057874013 -0.0010735174 0.0026528246 -0.101690285
0002a0 b1 a4 54 bd e1 47 74 3d 43 2f a5 bc 70 ce 97 3d
       -0.051914874 0.05963886 -0.020164138 0.07412422
0002b0 39 cf e4 3d 5e 92 07 3e 36 92 c9 3d f5 a5 81 3d
       0.11172337 0.13239428 0.09842341 0.06330482
0002c0 19 e5 16 3c 19 ce 87 3d 5c d4 72 bd c6 2d d2 3d
       0.009209895 0.06631107 -0.059284553 0.10262637
0002d0 09 d6 b8 3d 46 44 2d bd 9f 6f 55 3d 78 e1 10 bd
       0.09025199 -0.04230144 0.052108403 -0.035371274
0002e0 8f b0 55 ba 3b ef c7 3d 6c a4 ec bd c5 3c 8b 3c
       -0.00081516145 0.097624265 -0.115547985 0.01699675
0002f0 4f 4a 33 3d 41 44 48 3c 80 c1 bf 3d 7d ab 32 bc
       0.043772038 0.012223304 0.09363079 -0.010905144
000300 ae 5c c6 3d ae 6c 09 bd b4 f3 7c bd 45 c1 09 3e
       0.09685646 -0.03355091 -0.06175585 0.13452633
000310 9a c7 f2 ba c7 1a 06 bd 90 fe de 3c 76 c7 1e bc
       -0.0018522621 -0.03274038 0.027220994 -0.00969111
000320 24 c6 32 3d 96 76 c7 3d d6 73 b9 bc 79 6c 81 bc
       0.043645993 0.09739415 -0.022638243 -0.015798794
000330 fb 1a 94 3d d7 a7 03 3e 4a f1 1c 3c b2 b8 3c bd
       0.072317086 0.12856995 0.009579012 -0.046074577
000340 2e f6 01 bd 26 8f fc bd 25 4a d6 bd d8 f7 15 bc
       -0.031728916 -0.12331991 -0.10463361 -0.009153329
000350 b5 f6 ad bc e2 76 18 3c 66 f5 8a 3d dc 67 29 bd
       -0.021235803 0.009305688 0.06785087 -0.041358814
000360 3b d3 ba 3d 32 c9 46 3d 59 1d 81 bd 26 53 e8 3d
       0.0912232 0.04853172 -0.06304426 0.11343984
000370 ef f2 10 bd 9c 3d 72 bc a7 25 69 3d 5d 96 cc 3d
       -0.03538793 -0.014785197 0.056920674 0.09989617
000380 58 a3 56 bc a9 28 91 3d 3a 84 fb bd e4 1a 38 3d
       -0.013100468 0.070878334 -0.122810796 0.04494752
000390 45 b2 c3 bd 3a be fd bc 48 37 da bc 77 a6 b2 3d
       -0.095554866 -0.030974496 -0.026637688 0.08723157
0003a0 74 58 8c 3c 99 fb ee bd 1f 03 fc 3d 97 02 aa bd
       0.017132021 -0.11669082 0.12305283 -0.08301275
0003b0 24 fb 00 bd 53 4f 87 bd 27 c8 b5 3d e6 b2 68 bd
       -0.031489506 -0.06606927 0.08876067 -0.056811236
0003c0 47 f5 97 3c d6 b5 df 3d 09 4b 47 bd c8 19 8b 3d
       0.018549575 0.10923354 -0.048655543 0.06792027
0003d0 b3 ee 07 be 92 c5 bd 3d 62 24 dd bd 64 73 a0 bd
       -0.1327465 0.09266199 -0.10797955 -0.07834509
0003e0 81 f5 04 3d 15 a6 c5 3d eb e7 c3 bd 9b 09 bf bd
       0.032460693 0.09650818 -0.09565719 -0.09328004
0003f0 97 51 f0 3b e0 59 86 3d 1a 2a 29 bc 17 e9 26 bd
       0.007333945 0.06560111 -0.010324979 -0.040749636

lstm.weight_hh_l1 f4 [256, 64]
000000 c1 21 cb bd 15 d5 fc bd f1 3e b4 bd b3 de 81 bc
       -0.099185474 -0.1234533 -0.088010676 -0.015853262
000010 64 24 9d bb 48 ac c1 3b 5f ca 62 3d b3 a7 9a bd
       -0.004795598 0.00591043 0.055368777 -0.07551517
000020 17 fd a9 bc 21 3c d7 ba 5a b7 21 3d d7 f5 b8 bc
       -0.020750565 -0.0016421118 0.0394815 -0.022578163
000030 8d ea 38 bb 43 de b6 3d 5a cc 66 3c 29 d5 29 bd
       -0.0028215975 0.08929112 0.014086807 -0.04146305
000040 06 5f 6f 3d cd db 6e 3d b6 cc 0a 3c e3 51 d1 bd
       0.05844023 0.058315087 0.008471658 -0.10220697
000050 9d e0 d6 bd b4 8a cc 3d f4 89 ba bc 6f 42 d6 3d
       -0.1049206 0.09987393 -0.02277086 0.1046189
000060 3e 23 a0 bd 0c 9a ec 3d 77 ce 72 3d b8 21 60 bb
       -0.07819222 0.115528196 0.05927893 -0.0034199785
000070 7d 04 f8 3d 75 ad c2 bc da f5 9a 3d 78 7d 05 bd
       0.12110231 -0.023764351 0.07566424 -0.03259036
000080 26 77 de 3d 23 fa cb 3d 74 37 81 bd 70 72 44 bd
       0.108625695 0.09959819 -0.06309405 -0.0479607
000090 0a 07 02 3e 6d da 82 bd b4 e5 dc bc 08 59 dd 3d
       0.12697998 -0.06389318 -0.026965 0.10807997
0000a0 57 5f eb bd 8d d4 fe 3d c9 10 2f 3d c6 62 88 bd
       -0.11492794 0.124428846 0.042740617 -0.066594645
0000b0 fd 18 04 3d 10 b9 ea 3d 67 4a 2f 3d 57 46 06 3d
       0.032250393 0.11461079 0.042795565 0.032781925
0000c0 e0 48 14 3d 70 aa c0 bd b7 ca fb bd c1 2a f0 bd
       0.03620231 -0.094075084 -0.12294524 -0.11726905
0000d0 90 c3 df 3d f0 89 37 bd a1 3b 89 bd 44 8e 00 3e
       0.109259725 -0.04480928 -0.067008264 0.1255427
0000e0 88 06 88 bd f7 19 00 3b 5b b0 2e bd 2b 50 c8 bd
       -0.06641871 0.0019546726 -0.042648654 -0.09780916
0000f0 b2 19 a2 3b bc d7 1a bb 52 c0 1c bd ac 9c 59 bd
       0.004946911 -0.0023627123 -0.03826935 -0.05312793
000100 8a 75 9d bc 16 82 36 bd 3a 3c d7 bd 2c 0a c0 3d
       -0.019221086 -0.044557653 -0.10509534 0.0937694
000110 f1 0c a4 3d d7 32 5d bb f4 1f e1 3b a8 42 bb 3d
       0.08010281 -0.0033752227 0.006870264 0.09143573
000120 4c f6 96 3d 8a f5 56 3c f2 7d c1 bd 2e 3f 84 bd
       0.07371196 0.0131200645 -0.0944785 -0.06457363
000130 4c 61 bd bc 00 51 1c 3d 06 6c f5 bd e3 9b 66 3d
       -0.023117684 0.038163185 -0.119834945 0.05630101
000140 13 ce 0e bc b2 85 af 3d c2 b8 45 3d 9d ce 00 bd
       -0.008716124 0.08570422 0.048271902 -0.03144704
000150 0c 88 58 3d 0b 38 5c 3c ca f5 02 3e d9 88 d9 3d
       0.05286412 0.013441096 0.12789074 0.10621805
000160 10 6a dd bd 3a 7b c6 bd 05 78 79 bd 33 16 b0 bd
       -0.108112454 -0.09691472 -0.060905475 -0.08597984
000170 1d 85 1e bd e4 65 b6 bd 31 6a 81 3c 39 09 bc 3d
       -0.038701165 -0.08906153 0.015797706 0.091814466
000180 9e cf cf bc 16 07 b4 bb bb e4 ce 3d 11 62 19 bd
       -0.025367554 -0.005494009 0.101022206 -0.03744704
000190 c2 a2 7b 3d fa a2 0a 3d f4 8a 25 3d 05 6e a6 bc
       0.061434515 0.033846833 0.04041572 -0.020316133
0001a0 2c ef 3a bd 3d 4a d6 3d b6 95 54 bc 63 99 3b bd
       -0.04563825 0.104633786 -0.012975147 -0.045800578
0001b0 4c 29 27 3d 68 d8 b8 bd 79 aa 42 3b 81 4d e4 3d
       0.04081087 -0.09025651 0.002970366 0.11147595
0001c0 f9 50 76 bc b7 2f 09 3e 97 43 a5 bd 6e f1 d7 3c
       -0.015033954 0.13397108 -0.08069532 0.02636024
0001d0 f7 0c dc 3c 42 89 07 3e a4 c3 3c bc 80 4a bd 3d
       0.02686165 0.13235953 -0.011521254 0.09242725
0001e0 81 1a 68 bd 98 31 fb 3d 41 52 ca bc f1 e6 1f 3d
       -0.0566659 0.12265319 -0.024697425 0.039038602
0001f0 80 07 c1 3c 79 a7 98 3d 62 36 37 bd a9 88 a0 3d
       0.023563147 0.07453818 -0.044729598 0.07838566
000200 79 f8 e4 bd b8 5c 16 3d bd 22 38 3d 5f 54 02 be
       -0.11180205 0.036709517 0.044955004 -0.12727498
000210 6c 31 17 bd a3 98 97 bd 20 29 67 3d 33 a7 12 3d
       -0.036912367 -0.0740216 0.056435704 0.035803985
000220 d2 97 21 bd d2 b6 d4 3d 39 94 48 3d 73 a4 fa 3c
       -0.039451428 0.10386433 0.04896948 0.030595994
000230 79 64 22 3d c0 4d e4 3b b4 e8 e2 3d bb b2 b0 bc
       0.0396466 0.0069672763 0.11079541 -0.0215696
000240 f5 31 04 be d9 fb bb bd fb 9d 99 3d 16 d0 9a 3d
       -0.12909682 -0.091788955 0.075008355 0.075592205
000250 93 78 55 3d 94 6b 02 be 39 9f 8c 3c 2c 1d 60 3c
       0.05211694 -0.1273635 0.017165767 0.01367883
000260 be bc 20 3d 1e 12 41 3d 7a b6 f8 bd fe 6b f3 bd
       0.0392425 0.04713642 -0.1214418 -0.11885832
000270 6d fb b6 bd 92 c8 a5 bd d3 b3 6e 3d 5f 7e da bd
       -0.089346744 -0.080948964 0.058276962 -0.106686346
000280 e9 35 cc bb 65 b1 67 3d 73 2b ed ba eb 60 91 bd
       -0.0062320125 0.05656566 -0.0018094614 -0.07098564
000290 7f a0 37 bd ce 44 c8 bd a6 b3 c6 bd 3a c0 86 bd
       -0.044830795 -0.097787485 -0.09702234 -0.06579633
0002a0 0b 39 eb bd e4 ed d1 3d 73 f7 6a 3d 5f 08 b9 3d
       -0.114854895 0.10250452 0.057364892 0.090348
0002b0 33 97 b0 3c d8 c4 d6 3c 52 b7 f9 3d 9f 88 02 be
       0.021556472 0.02621691 0.12193169 -0.1274743
0002c0 64 1b fc bd 34 62 3b bd 3d f4 3e 3d 38 0e 14 3d
       -0.12309912 -0.04574795 0.046619643 0.036146373
0002d0 f0 58 f3 bd 07 ba 9a bd 7a 27 c4 bd 91 b8 02 3c
       -0.11882198 -0.07555013 -0.09577842 0.007978574
0002e0 12 3d 3f bd 1d 69 d5 bd a6 8d 7b 3d d6 3d 0b 3d
       -0.0466891 -0.104204394 0.061414383 0.03399452
0002f0 25 13 82 3d ec 5f 88 bd b4 41 ee bc 55 f6 a2 3c
       0.06351308 -0.06658921 -0.029084064 0.01989285
000300 a9 05 bb 3c 04 b5 dd bd e1 53 b6 3d b5 3e 09 3e
       0.022829847 -0.108255416 0.089027174 0.13402827
000310 42 80 ac bd 92 6f 39 3d 49 66 07 3e bf a3 39 3c
       -0.08422901 0.045272417 0.13222612 0.011330544
000320 bd dd 8e 3c af a4 08 bc d8 9d 70 bd c2 81 d4 bd
       0.017439717 -0.008340045 -0.05874428 -0.10376312
000330 e0 14 8d 3d 3f a8 4f bd 88 89 ac 3d d8 21 5d bc
       0.06888747 -0.05069756 0.084246695 -0.0134968385
000340 63 0f b9 3d 1b 5d 57 bd 8d 11 d9 bd df 9a 96 bd
       0.09036138 -0.052579027 -0.10599051 -0.07353758
000350 4a e0 3e 3d ec eb 5d 3d 8c ba b0 3d 65 5e 53 3d
       0.046600617 0.05418007 0.08629331 0.051603694
000360 cd 4b db bd c4 15 2d 3c 22 18 ff 3d 12 f3 a1 ba
       -0.10707817 0.010564271 0.12455775 -0.0012355766
000370 f6 55 bf 3d 6f 17 13 bd 09 42 0c 3b d8 45 b5 3d
       0.093425676 -0.03591102 0.0021401665 0.08851212
000380 7e b7 bb bd e8 9d 1e bc a6 87 d2 bc d7 cf 76 3d
       -0.09165858 -0.0096812025 -0.025699448 0.060256805
000390 b2 19 c8 bd 56 53 39 bd bb 13 eb 3d fc a9 9a 3d
       -0.09770526 -0.04524549 0.11478373 0.07551953
0003a0 4f 8e bd 3d 08 b3 be bd 2a 08 95 bd 43 25 df bd
       0.09255659 -0.09311491 -0.07276948 -0.10895779
0003b0 47 0c 63 bd 21 42 77 bd ab 2a 8b bd 15 84 f2 bd
       -0.05543163 -0.0603658 -0.06795248 -0.11841599
0003c0 23 38 24 3d d2 ef 96 3d 37 39 5e bd f3 30 97 3d
       0.0400926 0.07369961 -0.054253783 0.07382383
0003d0 ae b5 2b 3d 5f fd c2 3d ba bb 46 3d 90 7d 94 bb
       0.04192131 0.09520983 0.048518874 -0.00453157
0003e0 a9 70 49 bd a9 9d fe 3c 21 93 96 3d de b2 88 3d
       -0.049179707 0.031081038 0.07352281 0.06674741
0003f0 9d 12 24 3d a4 6f 9e 3d fc 2f a6 3c 1b ac c4 bd
       0.040056814 0.077361375 0.020286553 -0.09603139

lstm.bias_ih_l1 f4 [256]
000000 d4 56 fa 3d 63 c7 9c 3d 3a be cd 3d e3 13 e8 bc
       0.122235924 0.076552175 0.100460485 -0.028329795
000010 cb cf 79 3d 62 39 21 3d 40 2a cc 3d cf 8d b9 3c
       0.060989182 0.039361365 0.09968996 0.022650627
000020 fe cc 8c 3d 75 ce 79 bd c8 34 86 3c 9e d7 8f 3b
       0.06875037 -0.06098791 0.01638259 0.0043897172
000030 80 84 19 3d 51 61 ba bd 54 52 3c 3d ed 78 83 bd
       0.037479877 -0.09100593 0.04597695 -0.06419549
000040 67 36 b8 3d 55 c4 01 3e b7 d2 af bd 6b e4 54 bd
       0.089947514 0.12672551 -0.085851125 -0.05197565
000050 f4 ff f7 3d 93 6a d5 bd f4 60 46 bd 38 82 95 bd
       0.12109366 -0.10420718 -0.048432305 -0.07300228
000060 73 0e 7f bb 0f 75 25 bd ae 16 70 3d f6 4f 9d 3b
       -0.0038918525 -0.04039484 0.05861538 0.004800792
000070 ce e7 a4 bd c4 d1 ba 3d e3 91 27 bd cc b4 ec bd
       -0.08052026 0.09122041 -0.040910613 -0.11557922
000080 c3 4d 5c 3d 8b 2e c4 bd db 9e 67 3d 8a bb 2f bd
       0.053785097 -0.0957919 0.05654798 -0.04290346
000090 f5 06 a2 ba 9d 58 a8 bc 50 f3 a4 3c 9f ce 08 3e
       -0.0012361692 -0.020550067 0.020135552 0.1336007
0000a0 b5 48 72 bb a5 37 bf 3d 62 fb 09 3e db fe a5 bc
       -0.0036969606 0.09336785 0.13474801 -0.020263126
0000b0 18 a0 0e bd 64 fb 24 3c 42 91 65 3d 43 83 ed 3d
       -0.034820646 0.010069702 0.05604673 0.11597302
0000c0 03 86 e4 bd ce ae bd bd 30 8c 55 3d 28 c6 c3 bd
       -0.11158373 -0.09261857 0.052135646 -0.0955928
0000d0 80 63 ca bd 39 8c 79 bd 8f 23 fa bd 50 47 e8 3d
       -0.09882259 -0.060924742 -0.122138135 0.11341727
0000e0 ce 74 ac 3b e2 5e f2 bd 79 94 d0 3c b6 fd cb 3d
       0.0052629476 -0.11834504 0.025461422 0.09960501
0000f0 d7 1b 27 3d 8f f1 d0 3c 0d 7a 06 3e f1 ab 90 bd
       0.040798035 0.02550581 0.13132496 -0.07064045
000100 4d 3f 7d bb 18 c4 98 bd 1c cd b0 ba ad 48 09 3e
       -0.0038642467 -0.07459277 -0.0013488862 0.1340663
000110 bb 77 b0 bd 2c b5 0f 3d 2e 80 25 bd a4 da e9 3c
       -0.08616587 0.03508489 -0.040405445 0.028546639
000120 a9 cb 58 bc 77 b5 35 3d 0d 8f 91 bc 0a e3 4e 3d
       -0.01323215 0.04436251 -0.017768407 0.05050949
000130 b6 b5 8d 3c 83 de eb 3b ba 39 c0 3d 86 91 cd bd
       0.01729856 0.0071981563 0.093860105 -0.10037522
000140 b8 eb 8d 3d 5a 8b 0c bd 85 60 49 3d af fc 68 bd
       0.069297254 -0.034312584 0.049164314 -0.056881603
000150 7e f7 97 bb 6c 7f a5 bd 58 5d 3f 3d d0 56 0a 3e
       -0.0046376577 -0.080809444 0.04671988 0.13509679
000160 0c 96 f5 bd 38 1d 21 3d 4a dc 05 bc e5 29 d8 3d
       -0.1199151 0.039334506 -0.008170197 0.10554866
000170 3f 1e db 3b 5a 20 93 3d aa cb c3 bc a9 cb 74 3c
       0.006686955 0.07183905 -0.023900826 0.0149411345
000180 29 e3 e1 3d e0 65 96 3d aa 3e df bb 5e c3 a0 bd
       0.110296555 0.0734365 -0.00681289 -0.07849763
000190 df 82 9e 3d 77 6e 9f 3c bd ef ae bd 62 0b 15 bb
       0.077398054 0.019461853 -0.0854182 -0.002274238
0001a0 87 87 e5 3c b0 73 9f bd 96 57 57 bd c5 a6 12 3d
       0.028018726 -0.077857375 -0.052573763 0.035803575
0001b0 bc 66 d8 bd bd 9f cf bd 0d ad 05 3e b1 7f c1 3d
       -0.1056647 -0.101378895 0.13054295 0.09448183
0001c0 b7 6b 02 3e 2d ad 54 bd 2e 9a 95 bc 84 d3 1e 3d
       0.12736402 -0.051922966 -0.018261995 0.038775936
0001d0 37 cb be 3c 60 63 ef 3d 7a a9 2d 3c 2c 7e 39 3d
       0.02329026 0.11688876 0.010599488 0.045286343
0001e0 e5 9c 56 bd 19 0a 96 bd cd b8 f1 3d 10 4a 58 bd
       -0.05239572 -0.07326145 0.11802826 -0.052805007
0001f0 3a 6f b8 38 a6 e4 02 3e c2 09 07 3e d1 8c a9 3d
       8.794521e-05 0.12782535 0.13187316 0.08278812
000200 b5 ab b5 3c a6 46 02 be 8d c3 2f ba 76 2b 87 3d
       0.022176603 -0.12722263 -0.00067048596 0.066000864
000210 c2 61 e0 3d 24 f7 1a bd 7f a6 83 3d 15 4b 97 3d
       0.10956146 -0.037833348 0.06428241 0.07387368
000220 b0 71 ea 3d 0f a0 a0 bc 85 fc 7a bc 5f 6f ec bb
       0.114474654 -0.019607572 -0.015318994 -0.007215425
000230 0e 34 d8 3c f6 f9 e2 bd 6b 68 b2 3d 89 bd 87 bc
       0.02639201 -0.110828325 0.087113224 -0.01656987
000240 96 d2 3c bd 84 1b ed bc b6 0b cf bd e2 bd 0e bd
       -0.046099268 -0.028943785 -0.101096556 -0.034849055
000250 34 02 98 3d 09 4c be bd 99 6e aa 3c cd 23 de bd
       0.07422295 -0.09291846 0.02080469 -0.10846672
000260 04 03 de bd 86 04 d9 bd 9f 8f e4 bc 12 55 d0 3d
       -0.10840419 -0.10596566 -0.027900515 0.10172476
000270 5b e0 a4 3d 75 e8 60 bd 73 08 96 3d bc ce 05 be
       0.08050605 -0.05490919 0.0732583 -0.13067144
000280 10 99 a4 3d 23 cd b9 3d c5 32 cd 3d d5 23 81 bc
       0.08037007 0.0907233 0.10019449 -0.015764156
000290 2e a3 0c 3d d4 1d 5c bd 95 1a df 3d be d9 00 be
       0.034335308 -0.053739384 0.10893742 -0.12583062
0002a0 8d e9 a5 bc 70 ef da 3c 0e dd 63 3d 13 81 f1 3d
       -0.020252967 0.0267255 0.055630736 0.11792197
0002b0 b6 40 84 3d 09 6a dd bd 97 a6 d5 bd 19 28 9a 3c
       0.06457655 -0.1081124 -0.10432165 0.018817948
0002c0 2b 2c a9 3d 34 0f 80 3d 23 a8 97 3c a9 4a 5c bc
       0.082603775 0.062529 0.018512791 -0.013445535
0002d0 1b 3b 21 3d 6d 0d 03 3d f8 f4 8d bd 45 8d 8e 3d
       0.039363008 0.031995226 -0.0693149 0.06960539
0002e0 37 53 8d 3c ce aa b8 3d a8 3e 88 bd 17 8f ef bc
       0.017251594 0.090169534 -0.06652576 -0.029243035
0002f0 03 71 72 3d bb 11 3b 3c 83 19 5f 3d 1e 84 bc bd
       0.059189808 0.0114178015 0.05446769 -0.09204887
000300 eb d4 83 3d e8 27 c7 bd 07 1b df bc 77 5c 02 3e
       0.06437095 -0.097244084 -0.027234567 0.12730585
000310 08 02 be bd 76 c2 b9 bd cf ce fa 3d d5 2d 82 3d
       -0.09277731 -0.090702936 0.12246477 0.06356398
000320 6c 4f d1 3d b7 71 f7 3c db f5 d5 bd 1b b4 c6 3d
       0.10220227 0.03020559 -0.10447284 0.09702321
000330 dd bd cd 3d cf 91 26 bd 8a 5b 87 3d 86 ad 9d 3c
       0.10045979 -0.040666398 0.066092566 0.019247781
000340 5e 98 fe 3d 18 22 f0 3d e6 e8 ec 3d b5 8a 46 bd
       0.124314055 0.11725253 0.11567859 -0.048472125
000350 9f c2 eb 3d 23 5c b4 3b f4 36 06 3d a2 78 ac bc
       0.115117304 0.0055041476 0.03276725 -0.021053616
000360 01 51 01 bd 93 c8 d8 bd 78 e4 96 3d f0 f9 50 3d
       -0.031571392 -0.105851315 0.07367796 0.05101961
000370 86 c0 0d 3d 86 e7 01 be 7f f7 f2 3d 52 89 03 3e
       0.034607433 -0.12685975 0.118636124 0.12845352
000380 fb ae 67 3d 55 4b dd bd 0b 35 ba 3c 78 8d ab bd
       0.05656336 -0.10805384 0.022730371 -0.083765924
000390 c3 72 f6 3d 4a a7 c0 3c 17 9b 61 bc ca b7 06 bd
       0.12033608 0.02351727 -0.013769886 -0.03289012
0003a0 c2 46 a0 3b e2 be c7 bd 60 aa c7 bd f5 d8 9e 3c
       0.0048912475 -0.09753205 -0.09749293 0.019390563
0003b0 a9 2f b3 bd 49 a2 18 3c 52 e3 e3 bd 5b b7 4a bd
       -0.08749325 0.009316036 -0.11127342 -0.049491268
0003c0 d5 8c 93 bd a5 28 85 3c c4 21 61 bd 81 3e b3 3d
       -0.07204596 0.016254732 -0.054963842 0.08752156
0003d0 97 6d 41 3c f8 9a 0a 3c 19 9a 49 3d b0 89 f4 3c
       0.011805913 0.008459799 0.049219225 0.02985081
0003e0 6f 5f da 3d 93 e6 e8 3d 8f 90 d3 3d 47 31 a3 bd
       0.10662734 0.113721035 0.10330307 -0.07968383
0003f0 42 1c fb 3d 11 70 7d 3c 1e 3f 7e 3d 00 6a 02 be
       0.12261249 0.015468613 0.062071912 -0.12735748
