Personal/DACON/데이터·AI를 활용한 물가 예측 경진대회  농산물 가격을 중심으로/models/best_model_건고추.pth (torch, 220920 bytes, 10 tensors)

lstm.weight_ih_l0 f4 [256, 16]
000000 63 56 fd bc 75 f3 05 3c 94 3d eb 3d 24 6f e4 bd
       -0.030924981 0.00817572 0.114863545 -0.11154011
000010 72 fb 32 bd 74 25 f8 3d e0 cd aa 3d 5a 12 de bd
       -0.04369683 0.121165186 0.08340049 -0.10843344
000020 ed 19 df bd 34 e1 f6 3d 51 88 d1 3d 7a 6a 65 bd
       -0.10893617 0.12054673 0.102310784 -0.056009747
000030 fd 6e 5f bc 55 b1 28 3d 47 9d 6d bc 75 7b b2 bd
       -0.0136373015 0.041184742 -0.01450283 -0.08714954
000040 a7 a5 f6 bd 83 b4 a6 bc 3c 61 65 3d 11 e7 f5 3d
       -0.120433144 -0.020349747 0.056000933 0.12006963
000050 b7 03 f3 bd fe 94 d6 3d 17 f3 e0 3d 8b a9 41 3b
       -0.11865943 0.10477637 0.10983866 0.0029550518
000060 50 43 3a 3c 75 b8 98 3d d2 17 0d bd c9 9f 6e 3d
       0.011368588 0.074570574 -0.034446545 0.05825785
000070 44 84 37 bd 2b d4 22 bc a2 1f de 3d 79 cb fb 3d
       -0.044803873 -0.00993828 0.10845877 0.12294669
000080 68 13 4a bd c7 4e cf 3d d4 3f be 3c 34 f9 30 3d
       -0.049334913 0.101224475 0.023223795 0.04320641
000090 fb f9 8f bd c0 4a d9 3c fd 6f e7 3c 58 95 6e 3c
       -0.07030102 0.026524901 0.028251642 0.0145619735
0000a0 df 93 86 3d 5b de f1 3d 1d bf fb 3d 32 b6 e5 3b
       0.06571173 0.11809989 0.12292311 0.0070102448
0000b0 b6 e1 fa 3d cc 52 b6 3d 5e eb 9c bd 4d 85 80 bc
       0.12250082 0.08902511 -0.0766208 -0.015688563
0000c0 1c 94 2e bd 37 ca b5 bd 82 39 f5 3d f0 be 0d bd
       -0.042621717 -0.0887646 0.11973859 -0.03460592
0000d0 bf 33 90 bd f3 9a 7a bd 82 95 ad 3d a9 f1 08 3d
       -0.0704112 -0.061182927 0.08475782 0.03343359
0000e0 6a b0 86 3d 3b f0 9d 3c 45 c8 8c 3d 9e 8b a6 bd
       0.06576617 0.01927959 0.06874136 -0.081320986
0000f0 1d cc fd 3d 79 44 42 3d e7 c3 3a 3d 49 60 f1 3d
       0.12392447 0.047428582 0.045596983 0.11785943
000100 c1 63 de 3c 5b fa 3b bd 3b e9 ed 3c 3f 24 01 bd
       0.027147176 -0.045893054 0.029041877 -0.031528708
000110 20 07 c3 bd ac 45 e0 bd bf 08 80 3d ae 89 a5 3d
       -0.09522843 -0.10950789 0.06251668 0.08082901
000120 36 65 63 bd 06 e9 dc 3d 09 95 a9 3d 3d 8a b2 bd
       -0.055516444 0.10786633 0.08280379 -0.08717773
000130 72 87 5a 3c 78 7a 89 3d b0 4a f0 bd c4 d8 98 3d
       0.013337957 0.06712812 -0.117329955 0.0746322
000140 0b 08 7e 3a d0 f3 4c 3c b3 ab e7 bc 3d 5a e0 bd
       0.00096905296 0.012509301 -0.028280115 -0.109547116
000150 b2 3a 41 3d 8c 6e f3 bd 7d 37 19 bd 37 75 b7 bd
       0.047175117 -0.118863195 -0.037406433 -0.08957904
000160 a2 73 f9 3c 15 0b 9e bc 4c 81 a9 bb 2b 51 de bd
       0.030450646 -0.019292394 -0.005172884 -0.10855325
000170 10 1a 8d bd 18 16 cb bd bf ec c3 bd c3 54 8b 3d
       -0.06889737 -0.099163234 -0.0956664 0.068032764
000180 a7 74 e8 bd f3 27 a0 bd ef c4 8c bc 72 89 fe bd
       -0.11350375 -0.0782012 -0.017183749 -0.12428559
000190 38 bd 9e 3d b2 78 63 bc 6d 4e 8b bd 21 0b 7d 3d
       0.07750934 -0.0138837565 -0.06802068 0.06177819
0001a0 4b f0 a6 bd 2b ff 98 3d 39 82 47 3d d4 c4 0b 3d
       -0.08151301 0.074705444 0.048708174 0.034123257
0001b0 9b a5 c8 bd 12 d7 5f bd 97 1c 6d bd 9e ee 43 3d
       -0.09797212 -0.054648466 -0.057888594 0.047834985
0001c0 d6 42 c3 3c 63 f1 07 3d 75 e3 a0 bc cb 3a f3 3d
       0.02383558 0.03318919 -0.01963971 0.11876448
0001d0 64 e0 ed bd 1b 15 7a 3d 38 03 5d 3d 56 3c 8b 3d
       -0.11615065 0.061055284 0.053958148 0.067986175
0001e0 76 34 a4 bd ff e0 38 bd ee ae 80 3d 9c fd ed 3d
       -0.08017819 -0.045136448 0.06283365 0.11620638
0001f0 64 48 70 3c 0a da e4 3d 04 c5 fc bc a4 96 bc 3d
       0.014665697 0.111744 -0.030855663 0.0920842
000200 da 42 3e 3d 2a 86 f1 3b 6f 5f a9 bd 38 0f e7 3d
       0.046450473 0.00737073 -0.08270156 0.112821996
000210 59 d1 b7 3c e1 49 e3 bd af ec b3 bd ba ed 21 3d
       0.022438692 -0.11098076 -0.08785378 0.039533354
000220 55 af 87 3d e2 4b 43 bb 8d 33 b1 3d 2b 53 c5 3d
       0.06625239 -0.0029799868 0.08652411 0.09635004
000230 86 e0 47 3d 27 4a db 3d ef 68 c6 bb 78 df cc bc
       0.048798107 0.10707503 -0.0060549895 -0.025008902
000240 12 b4 e2 3d 15 57 bf bc e3 73 4f bd 67 ef ce 3d
       0.11069502 -0.023356954 -0.050647628 0.10104256
000250 23 f8 46 3d 3d 52 d4 bb ab 76 d2 bd 35 e7 58 bd
       0.048576485 -0.00647953 -0.1027654 -0.05295487
000260 53 b9 f2 3d d2 8c 94 3d 2e 2f 20 3d 72 4b c9 3d
       0.11851754 0.07253422 0.039107494 0.09828843
000270 a6 7f b7 bd 22 cc e4 bc 9d 06 35 3d 5a 44 d7 ba
       -0.08959894 -0.02792937 0.04419576 -0.0016423569
000280 a4 cf 70 3d e8 38 dd 3d 1b c9 91 3d e4 e8 99 bd
       0.05879177 0.1080187 0.07118436 -0.075151235
000290 07 46 06 3d f6 b3 b6 3d 87 dc 01 3c a1 4b b4 bd
       0.032781627 0.089210436 0.007926113 -0.088034876
0002a0 da 62 ea bd ee c1 55 3c 32 1a ea 3d 34 a6 47 bd
       -0.11444636 0.013046725 0.114307776 -0.048742488
0002b0 fc fb a9 3d 18 43 10 3d d6 5e d8 3c b7 bc 11 3d
       0.08300015 0.035220236 0.026412409 0.035580363
0002c0 90 b4 e8 bd 51 45 bc b9 24 be 3a bd 56 a2 73 3c
       -0.113625646 -0.000359098 -0.04559149 0.014870247
0002d0 8b 14 91 bc 3f 11 22 3d e2 2d e9 bd 75 c8 18 bd
       -0.017709991 0.03956723 -0.113857046 -0.037300546
0002e0 29 d8 d9 bc fa 5f 62 bc ba 33 66 bd 41 fa e9 bd
       -0.026592331 -0.013816828 -0.056201674 -0.11424685
0002f0 09 b7 ad 3d e1 88 d2 bc f4 33 e4 3d cb 7e 40 3d
       0.08482177 -0.025700035 0.11142722 0.04699592
000300 07 08 a3 3d 27 f7 89 bd cc 12 46 bb 88 a3 5f 3d
       0.079605155 -0.06736594 -0.0030223606 0.054599315
000310 5d b8 dc bd 76 53 58 3c d1 d8 ce 3c 5d 0a 96 bb
       -0.10777352 0.013203492 0.02524987 -0.004578872
000320 1f 8d 45 bd 60 83 8b bd 41 05 49 3d f7 be c3 bb
       -0.048230287 -0.06812167 0.049077276 -0.0059736925
000330 5a 1a 62 bd 78 90 b1 bc fa 7d e8 3d 00 9c cf 3d
       -0.055200912 -0.021675333 0.11352153 0.101371765
000340 f6 af e2 bb 68 55 71 bc bc f2 37 3d 41 07 b4 3d
       -0.006917949 -0.014729835 0.044909224 0.08790446
000350 e8 f4 b5 bd 7c 78 1f bd da 11 87 3c d7 ee 4a bd
       -0.08884603 -0.038933262 0.016488004 -0.04954418
000360 7d 41 0c bd 8e aa 10 bd b4 d1 a7 3d 82 3e 68 3d
       -0.034242142 -0.035318904 0.081942946 0.056700237
000370 a3 59 f9 3d e6 b4 f0 3c a1 7a 8d 3d 9e 55 19 bc
       0.121753 0.029383134 0.06908155 -0.009358792
000380 9c b6 b5 3d 26 a3 53 bd be d6 9e bd b4 c7 63 bd
       0.088727206 -0.051669262 -0.077558026 -0.055610374
000390 0f ef 9f 3c 93 58 c5 bc 91 a7 b9 3d a4 a1 ac 3d
       0.019523172 -0.024090087 0.09065164 0.08429268
0003a0 eb 93 79 bd b7 b4 fc bb a6 e8 aa bd 4f 65 5e 3d
       -0.06093208 -0.0077119726 -0.083451554 0.054295834
0003b0 11 d5 ef bd 0d 51 a2 bd d8 1f d0 bd b1 94 9a 3d
       -0.11710561 -0.079256155 -0.10162324 0.07547892
0003c0 8f 18 a0 bd c9 6d e0 bd 58 41 30 3d 31 d7 bf 3d
       -0.07817184 -0.1095844 0.043031067 0.093672164
0003d0 e7 20 ee bc cf 43 ce 3d 3a a0 86 bd c6 8c c3 bb
       -0.029068423 0.10071527 -0.065735295 -0.0059677092
0003e0 d3 15 3a bd 09 64 f8 3d 95 9b 5f 3d ec a6 81 bb
       -0.04543097 0.12128455 0.054591734 -0.003956666
0003f0 0a 9f 61 3d 65 ae 53 3d 74 87 c1 3c 5b 48 3a bd
       0.055083312 0.051679987 0.02362416 -0.04547916

lstm.weight_hh_l0 f4 [256, 64]
000000 e0 03 a2 3c 85 29 8a 3d b7 e8 83 bc 21 55 ed bd
       0.019777238 0.067462005 -0.016102178 -0.11588503
000010 3b 20 66 3c aa 0f d0 3c f1 6c a5 bd 70 e3 bf bd
       0.01404577 0.025398094 -0.080774195 -0.09369552
000020 e5 fc 1b 3d 7a e9 e5 3d 1a 99 8f 3c 4b bb 2b bc
       0.038082976 0.11226173 0.01752906 -0.010481666
000030 16 5f 3b 3d 9a 97 42 bd f6 63 59 bd 55 79 4b 3d
       0.045744978 -0.04750786 -0.053073846 0.049676258
000040 c4 07 1d 3d 53 ba c0 bd aa 72 df 3d d2 6c 4a 3d
       0.038337484 -0.094105385 0.10910542 0.049420185
000050 43 54 5f 3d 0f 5f f2 3d 91 53 f3 3c f5 2b 35 3d
       0.054523718 0.11834537 0.029702934 0.044231374
000060 9d 06 ec bb 88 3f 52 bd a0 3b 1a 3c ab c0 43 3d
       -0.007202937 -0.05133012 0.00941363 0.047791164
000070 99 74 d7 3d b7 f8 20 3d ef 20 e0 3c f1 7d 91 3d
       0.10520286 0.039299693 0.027359454 0.071040995
000080 d7 4b c3 3d 6d cb 32 3d 89 5d e0 3d 06 6b dc bd
       0.0953595 0.043651033 0.109553404 -0.107626006
000090 31 94 32 bc 04 24 76 bd 73 0c ae 3d 52 c7 96 3d
       -0.010899589 -0.06009294 0.08498468 0.07362236
0000a0 c4 3f fd bd 46 58 a5 bd ec cd 96 3d 6c d2 a2 3d
       -0.12365678 -0.080734774 0.07363495 0.07950291
0000b0 ec ba 23 bc e0 88 a5 3d c7 b4 9f 3d f9 04 82 bb
       -0.009993296 0.080827475 0.077981524 -0.003967878
0000c0 8d af 3c bd 55 4f 15 3d 7f 91 fc 3a ce bf 35 3c
       -0.046065856 0.03645261 0.0019269435 0.011093093
0000d0 b6 91 9b 3d 85 ed 78 3d b7 77 bf bd 2f af 83 bb
       0.075961515 0.06077339 -0.09349006 -0.0040186862
0000e0 b6 18 d6 ba b7 ef a3 bc 27 74 ad bd 3b c7 20 3d
       -0.0016334269 -0.020011766 -0.0846942 0.0392525
0000f0 b2 6e d2 3b 73 2b ef bd 1b e7 82 bd 78 f2 f8 bd
       0.0064218873 -0.11678209 -0.06391736 -0.12155622
000100 73 98 90 3d 31 43 46 bd 75 74 84 bd 88 ea 9d bd
       0.070603274 -0.048403922 -0.06467525 -0.07710749
000110 e2 51 2e bd ec 90 e4 bd e0 6e f1 bd f3 82 f2 bc
       -0.04255856 -0.11160454 -0.11788726 -0.029603457
000120 dc 2c 5c 3d 62 9e 92 3d 31 c9 54 3c 34 1f d8 3d
       0.05375372 0.071591154 0.012987421 0.105528265
000130 29 d6 63 bd 55 c4 80 3d 12 56 c4 3c 7c cd 5b 3d
       -0.05562416 0.06287447 0.023966823 0.053662762
000140 e3 5b 67 3d 23 4c ec bc 83 85 bb 3d 43 33 eb 3d
       0.056484114 -0.028844899 0.09156325 0.11484387
000150 5e 83 f0 bd 7b ef e1 bd bd fc df bd dd e3 61 3d
       -0.11743806 -0.110320054 -0.10936878 0.055148948
000160 a5 e3 5f bd e6 60 de 3d e9 e7 fa bd c8 c4 dd 3d
       -0.054660458 0.10858326 -0.122512646 0.10828549
000170 79 46 18 bd aa 9d ed 3d a5 31 41 bd 56 98 d4 bd
       -0.037176583 0.11602338 -0.047166485 -0.10380618
000180 d6 78 f5 bd 34 1a f3 bc c6 45 bb 3d 26 95 f6 bd
       -0.11985938 -0.02967558 0.091441676 -0.120401666
000190 5f 43 5c 3d c3 26 9d 3d c6 c1 d2 3d 61 72 ab bd
       0.053775188 0.07673409 0.102908656 -0.083714254
0001a0 9c 9b 02 bd b5 99 5a bd 66 b5 ba 3d 13 fb 38 bd
       -0.031886682 -0.053369243 0.0911663 -0.045161318
0001b0 c2 6a 33 3d 44 8e d9 bd 48 ba c4 bd 2e eb e5 bd
       0.043802984 -0.10622838 -0.09605843 -0.112264976
0001c0 ac a5 fe 3d a7 a8 60 bd 5a 3b b9 3d 63 ef 0a bd
       0.12433943 -0.05484834 0.090445235 -0.033919703
0001d0 6c a4 60 bd 16 24 ef bd 2c b0 e7 bd 93 b3 bd bd
       -0.054844305 -0.11676805 -0.11312899 -0.09262767
0001e0 28 05 bd 3c cd b7 49 3d 51 3f 9a bd 4a 18 88 3c
       0.023073748 0.04924755 -0.07531608 0.016613144
0001f0 0a 0e c0 bd 5c fe 6c 3d a6 7b 80 bd dc 53 45 3d
       -0.09377678 0.057859764 -0.06273584 0.048175678
000200 f8 bf df bb f9 73 9a bd be eb 8c bb 84 ad 9b 3c
       -0.0068283044 -0.07541651 -0.0043005636 0.019003637
000210 7b 23 da 3c c2 6a 78 bd 8c 1c 92 bd c0 94 43 bd
       0.026628247 -0.060648687 -0.07134351 -0.04774928
000220 86 ec 8a 3d 9c 2c 60 bd 5d 31 b3 bd 16 b2 8e 3c
       0.067833945 -0.054730043 -0.0874965 0.017418902
000230 ed 1a 92 bc 1a 71 eb bd ec ca fd 3c 83 e3 be 3d
       -0.017835105 -0.11496182 0.03098055 0.09320738
000240 b1 d2 81 3d 15 7c ca bd df a1 a9 bd 14 bc 3a 3d
       0.06339014 -0.09886948 -0.082828276 0.04558952
000250 ab 41 01 3d df 1a b9 bd ed 9c b5 3c cb 12 0f 3c
       0.031556766 -0.090383284 0.022169555 0.008732508
000260 63 9c 7d 3d e2 c4 b7 3d 52 cd 3d bd 47 1c 97 bc
       0.06191672 0.08973099 -0.046338387 -0.0184461
000270 64 83 07 3d e9 59 3d bd c9 11 82 3c 3e 84 80 3d
       0.03308429 -0.046228323 0.015877621 0.06275223
000280 b8 db 5d bc a7 16 df bd bd 66 20 bd 0b 16 d6 bd
       -0.013541155 -0.108929925 -0.03916048 -0.10453423
000290 e8 78 d4 3c b7 81 d6 38 1f 5a 02 bd a8 9c de bd
       0.025936559 0.000102284765 -0.031824227 -0.108697236
0002a0 e8 ee f4 3d 66 fb 93 bb 48 4f 31 3d 6a 94 da bc
       0.1195963 -0.004516053 0.0432885 -0.026682097
0002b0 e0 1d e0 bd 62 a1 ca 3d 07 49 eb bd f5 87 c4 bd
       -0.10943198 0.098940626 -0.11488538 -0.09596244
0002c0 45 f8 f1 bd 6e c1 98 3d bf 70 d8 bd fc a9 d9 bd
       -0.11814932 0.07458769 -0.105683796 -0.10628125
0002d0 e8 70 e4 3d ad 9b a9 bd 91 b3 80 3a ad 33 df 3d
       0.11154348 -0.08281646 0.000981914 0.10898528
0002e0 22 25 a7 bc b4 d9 a4 3d ec 29 bc 3b 2a fd 90 3d
       -0.020403448 0.08049336 0.005742302 0.07079537
0002f0 01 63 05 bd 21 8f f4 bc 62 90 bc 3d b8 a7 f1 3d
       -0.03256512 -0.029853405 0.09207226 0.11799568
000300 25 d3 d3 bd 30 bf 05 bc d5 43 14 3d 20 b1 b2 bd
       -0.10343007 -0.008163258 0.036197502 -0.0872519
000310 fe 1d 88 3d b9 ba c2 bd 6e 56 b6 bd f4 f6 21 3d
       0.066463456 -0.09508271 -0.08903204 0.039542153
000320 a5 13 92 bc b6 d1 96 bd d1 21 1b 3d c8 bc 33 3d
       -0.017831633 -0.07364218 0.037874047 0.043881208
000330 02 50 30 3d 03 9b a9 3c 92 5b 2a bc 18 c8 b6 bc
       0.04304505 0.020703798 -0.010397809 -0.022312209
000340 bf 78 c8 bd 9b 9c e4 bd f3 5e b4 3d 03 e0 6b bd
       -0.097886555 -0.111626826 0.088071726 -0.05758668
000350 de 0b bf 3c 70 f2 9e 3d 3c 33 15 bd 52 44 50 bd
       0.023321088 0.07761085 -0.036425814 -0.050846405
000360 0c fc d9 bd d7 48 9d bd ab 1a 44 3b c3 4b 44 bd
       -0.10643777 -0.07679909 0.0029923122 -0.047923815
000370 b5 19 3f 3c 38 da 1f 3c 83 32 ab 3d e1 05 b2 bc
       0.011663844 0.009756617 0.08359244 -0.021731319
000380 d5 7e 50 3d 2a 9f ad bd ff 84 79 3d 5c f1 33 bc
       0.050902206 -0.08477624 0.06091785 -0.0109828375
000390 3c af 03 3a 84 fd e3 3d af 61 54 3d d8 5f c6 bc
       0.00050233654 0.11132339 0.05185097 -0.024215624
0003a0 98 6d 65 3d c8 28 8c 3d c9 76 a6 3c 04 50 cc bd
       0.05601272 0.06843716 0.020320313 -0.09976199
0003b0 7c a2 e1 bd 38 b8 02 bd c3 ae b7 bd bb 32 d8 3d
       -0.110173196 -0.031913966 -0.0896888 0.10556551
0003c0 33 db b0 bc 5a 9b bc bd 8d 29 ed bc 59 9b a8 3d
       -0.021588897 -0.092093185 -0.028950477 0.08232755
0003d0 84 4a e5 bd 5b ee a6 3d 9d 28 97 bd 3e aa 8b 3d
       -0.11195853 0.081509314 -0.07380793 0.068195805
0003e0 4b 15 12 3d 4a c6 b6 3d 93 12 5f 3d 1c 34 c3 bd
       0.035664838 0.089245394 0.054461073 -0.095314234
0003f0 ed cb b9 bd 72 f3 3f 3d 7f cb d0 bd 7a f2 43 3d
       -0.09072099 0.046863027 -0.10195064 0.047838666

lstm.bias_ih_l0 f4 [256]
000000 c7 cc 11 bd 5e 39 52 3d 7a 6e be bd c1 1c c2 bd
       -0.03559568 0.05132424 -0.092984155 -0.094781406
000010 b2 99 3e 3c 2b c6 23 bd d0 09 b8 3d b0 30 c4 ba
       0.0116333235 -0.03998391 0.089862466 -0.0014968123
000020 8b c8 80 3d 8a e2 25 bb e5 b1 6a bd b1 9d a5 3d
       0.062882505 -0.002531203 -0.05729856 0.08086718
000030 23 c4 cc bd 4d 8d cc bd 46 a8 bb bd d6 2b ba bc
       -0.099983476 -0.099878885 -0.09162955 -0.02272598
000040 98 9a 90 bd 5f 2a fa bd f3 2a a7 bd 75 27 27 3d
       -0.070607364 -0.12215113 -0.08162489 0.040809114
000050 63 92 cb bd 37 78 86 3d d7 cc ec 3b 38 f4 55 bd
       -0.099400304 0.06565898 0.0072265672 -0.05223486
000060 c3 81 20 bd 38 48 cd bd 32 ac cf 3d 2f a9 4e bd
       -0.03918625 -0.1002354 0.101402655 -0.050454315
000070 fc 66 8f 3d 59 10 9e bd b0 d1 2a 3d f2 35 fc bd
       0.070020646 -0.07717962 0.04170388 -0.12314977
000080 c8 4d 90 3d 28 22 95 3d 95 ae 7f bd 58 23 8e bd
       0.070460856 0.072819054 -0.062422354 -0.06940335
000090 0b 5e 88 bd 83 07 e6 bd a0 79 3d bd ee 7c b5 3d
       -0.06658562 -0.112319015 -0.04625857 0.08861719
0000a0 6c ef 1b bd 83 ba 2f bd 10 ac 13 ba a4 b6 c2 bd
       -0.038070127 -0.04290248 -0.0005633244 -0.09507492
0000b0 93 8c 16 3c 19 a4 fe 3c 66 fa 3b bc b5 5c b7 bd
       0.009188789 0.031084107 -0.011473274 -0.08953229
0000c0 46 1a 7a bd d9 61 6a 3d 13 ae 0b bc 80 0f 6b 3d
       -0.061060213 0.05722222 -0.008525389 0.05738783
0000d0 68 55 0d bd 92 8a c2 3d 9e ab 4c 3c 25 5b be bd
       -0.034505278 0.094990864 0.012492089 -0.09294728
0000e0 a2 b6 e8 bd a8 e9 ff bc 20 6f d4 bd 1e 65 87 bb
       -0.113629594 -0.031239346 -0.10372758 -0.004131927
0000f0 2f d0 3e 3c 9a 40 4c 3d 7b 93 ac 3d 8f 9e 88 3c
       0.0116463145 0.049866296 0.08426567 0.01667717
000100 ae 22 52 bd ab 51 62 bc 4e ec d2 3c b7 ba 91 3d
       -0.051302604 -0.0138134165 0.025747444 0.07115691
000110 19 62 e8 3d 5e 17 e3 bd 5b ce c0 bd 0f d0 68 ba
       0.11346836 -0.11088441 -0.09414359 -0.0008881101
000120 25 30 d2 3d 38 b6 9f 3d 3a e7 3a bd b2 31 9f bd
       0.10263089 0.07798427 -0.04563067 -0.077731505
000130 74 ac bd bd a6 15 84 bd 7b fb a0 bd 10 17 fd 3d
       -0.092614084 -0.064494416 -0.07860466 0.123579144
000140 22 a1 dd bd a3 3b 27 3d 1e 57 17 bc 97 84 92 3d
       -0.10821749 0.04082836 -0.009237079 0.07154196
000150 35 3d 6e bb dc d9 d8 3d 6f aa 48 bd 78 02 a9 bd
       -0.00363524 0.105884284 -0.048990663 -0.08252424
000160 85 f6 a4 bc 14 62 ab 3d 40 d1 b8 3d 30 b0 f1 bd
       -0.02013708 0.08368316 0.09024286 -0.11801183
000170 d5 cb 22 3d be 70 d4 3d 1a 5a de bd 1e ad 1e bc
       0.03974517 0.10373066 -0.10857029 -0.009684829
000180 cf 00 ee bd 36 f2 88 bd 8e 5b 18 bd b3 cb 93 bd
       -0.11621248 -0.06686823 -0.03719669 -0.07216587
000190 e2 b4 d8 3d 69 86 bd 3d 8d f5 3c 3d 75 e2 e5 bd
       0.10581376 0.09254152 0.046132613 -0.11224834
0001a0 fd b4 c4 3d b1 e7 f7 bd 5a 22 ac 3d 25 68 8b bc
       0.09604833 -0.121047385 0.084049895 -0.017017433
0001b0 78 72 8e 3d ac e3 af 3c 1e fb 81 3d d0 fb e7 bd
       0.06955427 0.021470867 0.06346725 -0.11327326
0001c0 d5 f5 90 3d 4a cb a5 3c 0d d5 42 bd 71 97 8c 3d
       0.07078139 0.020238537 -0.047566462 0.06864823
0001d0 0d bb e4 bd d1 5a 81 bd 3c 56 e9 3c ed 06 a1 bd
       -0.111684896 -0.0631615 0.028483503 -0.07862649
0001e0 af 3b 8b 3d 6f 9a 23 bb 44 06 eb 3d 9e 51 f0 bc
       0.06798493 -0.0024963876 0.114758044 -0.029335793
0001f0 65 6b 50 bc d5 91 0e 3b 03 f7 d9 bc 3e ea ad 3d
       -0.012720917 0.0021754403 -0.026607042 0.08491944
000200 00 fb ac 3d 31 62 34 3c 8d 69 89 bd cf ef ee bd
       0.08446312 0.011009739 -0.06709585 -0.116668336
000210 bf 67 a1 bd 06 1d f8 3d ef c8 89 3c 0f 4f e0 3d
       -0.07881116 0.12114911 0.016819445 0.10952579
000220 ed 21 84 3d ba 31 0a 3d 56 df c7 3d c4 ef fd 3d
       0.06451783 0.03373883 0.09759395 0.12399247
000230 08 be 1e bd 56 fd 07 3d 34 13 aa 3d d3 7c a9 bd
       -0.038755447 0.033200584 0.08304444 -0.082757615
000240 9a dd fc bb cd 9a 84 3d e1 be d4 3c eb 29 09 bc
       -0.0077168467 0.064748384 0.025969924 -0.00837181
000250 62 f5 e8 bd 46 25 ae 3c 4e d1 bf 3d cb 30 18 3d
       -0.11374928 0.021258008 0.093660936 0.037155908
000260 00 ee 22 bd 18 f7 ca 3d db a6 d9 3c f3 c3 6c 3d
       -0.039777756 0.09910411 0.02656882 0.05780406
000270 08 48 01 3c 6d 77 ba bd b4 4b da bd 29 94 ee bc
       0.007890709 -0.0910481 -0.106589705 -0.029123383
000280 46 fe a5 3d e5 ae 9a bb 24 25 91 bd cf bf a4 3d
       0.081051394 -0.004720556 -0.07087162 0.08044397
000290 61 cc 3a bd b9 95 9c 3c b4 b1 cf 3c 3b 78 5d 3b
       -0.045605067 0.019114362 0.02535329 0.0033793587
0002a0 dd 09 85 bc e3 0f 7e 3d fa 74 ac 3c 5c 36 77 3d
       -0.016240055 0.06202687 0.021051873 0.060354576
0002b0 5a 1e e2 bd 36 2a 8b bd e4 a7 b1 3d 11 c5 73 3c
       -0.11040945 -0.067951605 0.08674601 0.014878527
0002c0 11 fa 68 3d 7b f9 17 3d 5a ce cc 3d b5 e0 ea 3d
       0.056879107 0.037103157 0.10000296 0.11468641
0002d0 5d 1a 54 3d 65 9b dd bd 2b ed 9d 3d 38 04 eb 3d
       0.051782954 -0.10820655 0.07711252 0.11475414
0002e0 ea cc 92 3d de 8f 15 bd c8 f1 9e bc 4b 58 f1 3d
       0.071679905 -0.036514156 -0.0194024 0.11784419
0002f0 21 c6 82 3d b6 77 81 bd 4c 57 9d 3d 13 c8 d7 bd
       0.06385446 -0.06321661 0.07682666 -0.10536208
000300 52 10 44 bd 93 67 62 bb 13 b3 ea 3d 0f 5a 8d ba
       -0.047867127 -0.0034546598 0.11459937 -0.0010784286
000310 f9 27 6c 3d 40 6d 11 3d 2e 02 f7 bd 19 9a 86 3d
       0.05765531 0.03550458 -0.120609626 0.065723605
000320 0f 93 59 bd a3 e2 9d bc d1 77 d9 3d de 86 dc 3d
       -0.05311876 -0.019273108 0.10618556 0.107679114
000330 d7 5d 55 3d c5 07 12 bd 35 a5 80 3b 4a 26 26 3c
       0.052091446 -0.03565194 0.003925944 0.010140965
000340 a7 a0 f8 3d ef d5 62 bb ee 92 17 bd 48 68 85 3d
       0.12140017 -0.0034612378 -0.037005357 0.06514031
000350 6f 31 b8 3d 60 64 da bd 65 3f db bd 29 1b d7 3d
       0.08993804 -0.10663676 -0.10705451 0.10503227
000360 12 cc a7 bd fc 4b c4 bd 23 a2 bb 3d e1 2f cc 3a
       -0.0819322 -0.09584805 0.091617845 0.0015578234
000370 77 35 95 bd f2 c0 19 3c da 9b c7 3d 0e d9 b9 bd
       -0.07285588 0.009384381 0.09746523 -0.09074603
000380 75 c6 86 3d da f1 7f bd 1d a7 ea 3d 8f 40 75 bd
       0.065808214 -0.062486507 0.114576556 -0.05987602
000390 36 c3 a0 3d 04 7e 28 bd ba 04 f2 bd e8 ac e9 3d
       0.078497335 -0.041135803 -0.11817308 0.114099324
0003a0 35 3e fb 3d 5b c2 bf bc 8b 89 c0 bd e9 f1 b4 3d
       0.122677244 -0.023408106 -0.09401234 0.08835203
0003b0 4e 0f f2 bd 0a 4a 90 3d 4c 3d 84 bc 67 0f c6 bc
       -0.118193254 0.07045372 -0.01614251 -0.024177266
0003c0 2d f8 8a bd 95 60 66 bd ea 23 cd bd d3 ad 2c bd
       -0.06785617 -0.05624445 -0.10016616 -0.04215796
0003d0 1e df 48 3d 27 65 84 3d ac 7b e8 3d 08 51 f5 3c
       0.049040906 0.06464606 0.113517135 0.029945865
0003e0 5f 5b ed 3d 4f b3 d3 bd 29 1a 94 bd 62 d8 38 3d
       0.11589693 -0.10336935 -0.07231552 0.045128234
0003f0 18 17 04 bd 61 46 bd 3d dd 9d 26 3d b5 56 ad 3d
       -0.032248586 0.09241939 0.040677894 0.08463804

lstm.bias_hh_l0 f4 [256]
000000 f7 02 ce 3d e5 3f ca 3d 5c 81 f7 3d 92 3d 7b 3d
       0.10059159 0.09875468 0.1208522 0.061338015
000010 ae 71 e8 3c ed 7b ce 3b 24 86 ba 3d 46 46 a9 3d
       0.02837452 0.006301394 0.091076165 0.08265357
000020 d2 f1 ce 3c 25 01 82 3d 9a 73 92 bd bc f4 4a 3d
       0.025261793 0.063478746 -0.071509555 0.049549803
000030 97 b4 cf bd 17 c6 30 3c 10 44 22 3d c4 b7 e6 bd
       -0.10141867 0.010789416 0.03961569 -0.11265519
000040 50 03 c5 bd 59 d2 ef 3d 8a 7d 88 bc 7a 63 5f 3c
       -0.096197724 0.117100425 -0.016661424 0.013634557
000050 09 69 cd bd 01 a6 83 bd 0c 1a 3e bd 35 f7 f5 bb
       -0.100297995 -0.06428147 -0.04641156 -0.007506276
000060 84 2e cc 3d 25 3e 19 bd 0f d5 71 3c 43 90 83 3c
       0.0996981 -0.03741278 0.01476027 0.01606
000070 1a 63 aa bd a5 c2 5e bd fd 3b cb bd 84 b9 86 bd
       -0.083196834 -0.054384846 -0.09923551 -0.06578353
000080 52 bb be bd e8 6c ad bd 82 06 c8 bd 50 2c 06 3c
       -0.09313072 -0.08468038 -0.09766866 0.008189276
000090 4c 33 4b 3d 15 b3 c5 3d 34 52 f2 b9 7c 8f 7d bd
       0.049609467 0.09653298 -0.00046219083 -0.061904415
0000a0 a3 ef 3f 3c f3 a9 03 bd cd b2 b2 bd 46 b8 9c 3d
       0.011714849 -0.032144498 -0.0872551 0.07652335
0000b0 0a f8 d7 3c f7 45 96 3d c9 d6 bd bd d9 c4 28 bd
       0.026363391 0.073375635 -0.09269483 -0.041203354
0000c0 55 85 97 3d a0 0e a7 3d 66 83 d8 bd f0 20 9a bd
       0.07398478 0.08157086 -0.10571937 -0.075258136
0000d0 47 36 af 3c ce db 83 3d 27 77 3e bd 81 d7 fa 3c
       0.021388186 0.06438409 -0.04650035 0.030620338
0000e0 8c 30 74 bd 72 89 5a 3d f8 ca b0 3d 8a a0 09 3d
       -0.05961661 0.053353734 0.08632463 0.033600368
0000f0 c1 a5 47 bc e5 b2 75 bc 99 c3 d4 3c 82 16 27 bd
       -0.012185515 -0.014996265 0.025972174 -0.04079295
000100 42 a0 02 bd eb 8c aa bd b0 ce a3 bd 51 a3 18 3d
       -0.031891115 -0.08327659 -0.07998407 0.037265126
000110 93 27 81 bd 9c 98 ea bd df 1b 8f bd e4 8b b7 3d
       -0.06306376 -0.11454889 -0.06987738 0.08962229
000120 cb bf b4 3d 0f cb 01 bd 31 3e d7 3d f1 76 79 3d
       0.08825644 -0.031687792 0.10509909 0.060904447
000130 6c 69 bd 3d dc 6c 96 bd 34 11 48 3d f2 63 f1 3d
       0.09248623 -0.07344982 0.04884453 0.11786641
000140 28 5a 83 bd 15 a9 b7 bd 6c fd 17 bd ff f7 a6 3d
       -0.0641368 -0.08967797 -0.037106916 0.0815277
000150 df 23 9f 3d a4 8a e6 bd a4 53 82 3d a2 dc 63 3c
       0.07770514 -0.11256912 0.063636094 0.013907583
000160 8a 28 e2 bd b0 1e e4 bd 63 6b 65 bd 60 cb d4 3d
       -0.110428885 -0.11138666 -0.056010615 0.10390353
000170 74 a9 da bd d7 02 9a bc c4 04 e7 bd 46 d6 c5 3b
       -0.10676852 -0.018800182 -0.11280206 0.0060375063
000180 0b 5a e2 bd 77 3c 4b bd ce 1d 10 3d a5 6b fd 3c
       -0.110523306 -0.04961821 0.035184674 0.030935118
000190 ec 2c a9 3d c3 33 e2 3c 22 12 a0 3c 0a e5 d2 3c
       0.08260521 0.027612573 0.019539896 0.02574398
0001a0 b3 b6 2c 3d 17 e7 85 3d cc b1 47 3d 76 b9 58 3d
       0.042166423 0.065382175 0.048753545 0.052911244
0001b0 bb 43 d3 bc a6 27 50 bd be 78 39 bd 42 18 bc 3d
       -0.025789132 -0.05081906 -0.045281164 0.09184314
0001c0 95 c9 c1 bd 41 29 25 3d 9f 8c ea bd 79 d3 d2 bd
       -0.09462277 0.040322546 -0.114526026 -0.102942415
0001d0 46 8d 60 bd 39 5d b5 3d 06 f9 b1 bd cd 80 00 3d
       -0.05482223 0.088556714 -0.086900756 0.031372834
0001e0 cf f0 95 ba 7d 3b bf bd 0c 54 c7 3d 43 a2 b2 bd
       -0.0011439564 -0.09337518 0.097328275 -0.08722355
0001f0 da 0a d0 bd 8c d2 45 3d b7 d0 cc bd 9f 7c 48 3d
       -0.1015832 0.048296496 -0.10000747 0.048946973
000200 a6 cd f8 bd 17 b1 40 bd 96 ee c7 bc 5d c5 88 bd
       -0.12148599 -0.047043886 -0.024405759 -0.06678269
000210 e7 42 53 bd bd 5a 70 bb 01 86 bb bc f1 45 ce 3d
       -0.051577475 -0.0036675178 -0.022891046 0.10071934
000220 35 01 c2 3b 13 a3 87 3d 9a 0e 24 bc 62 40 ec bd
       0.005920554 0.06622901 -0.010013247 -0.115357175
000230 56 c9 b8 bd ce 22 ed bd 15 ec 2b bd 0d 15 9e 3d
       -0.09022777 -0.11578904 -0.041973192 0.07718859
000240 40 5c 1e bd 2f d6 b1 bd 4a 71 fd 3d af 83 e0 bd
       -0.038662195 -0.086834304 0.12375124 -0.10962617
000250 c8 c8 29 bd cd e8 5d b9 22 08 d9 bd d2 86 d2 3c
       -0.041451246 -0.00021162927 -0.10597254 0.025699053
000260 fc 57 b5 3d be 11 e4 bd c7 93 9f bd 95 1b cc 3d
       0.08854672 -0.111361966 -0.07791858 0.09966198
000270 09 33 c5 bd 2e 1d 70 3d 70 e3 c4 3d f4 82 a3 3a
       -0.09628875 0.058621578 0.09613693 0.001247494
000280 b4 48 f1 bd 70 9a b2 bd 07 89 df 3c fb 6b 84 3d
       -0.11781445 -0.08720863 0.02728702 0.06465908
000290 ba 94 83 bd d2 b1 c5 3d 76 16 c6 bb 41 37 a7 bc
       -0.06424852 0.09653057 -0.006045158 -0.02041209
0002a0 88 c1 e6 3d 8a 5c 36 bc a6 a1 ce bc f7 7e c8 bd
       0.11267382 -0.0111304615 -0.025223564 -0.097898416
0002b0 03 d0 2e 3d 2e 64 c3 bc 04 65 05 3d 7f 17 1d 3d
       0.042678844 -0.02385148 0.03256704 0.038352486
0002c0 d3 c6 cc 3d 53 ff d0 bd a4 e3 6c bd 5d ab d2 bd
       0.0999886 -0.10204949 -0.057834283 -0.10286591
0002d0 81 e8 3f 3d 6d d0 f9 3d 07 8f 61 bd fa ed 9f 3d
       0.046852592 0.12197957 -0.055068042 0.07809062
0002e0 df 12 e5 bc d6 04 f8 3d 8c 47 fb bd d3 ab c0 3d
       -0.0279631 0.121102974 -0.12269506 0.09407773
0002f0 73 99 fb 3d c2 f4 69 bd 28 1d a1 bd e1 8a c9 3d
       0.122851275 -0.057118185 -0.07866889 0.09840942
000300 ae 50 2f 3d cd fd 06 3d cd 57 bd 3d f1 e3 c0 3d
       0.04280155 0.032956887 0.09245262 0.094184764
000310 48 d8 c7 bc 75 dd 6c 3c 58 e4 95 3c 81 79 8e bd
       -0.024395123 0.014457096 0.01829736 -0.06956769
000320 a0 23 fa bb 8c 13 b4 3d e1 9f e8 bd f4 a6 df 3d
       -0.0076336414 0.08792791 -0.113586195 0.10920516
000330 b1 45 e2 bd 2a 78 e8 bc 06 91 9a bd a1 3c f3 3c
       -0.11048449 -0.028377611 -0.07547192 0.029691996
000340 6c ed 3a bd 78 e4 ee bc a6 0e 8e 3c 9f ee 61 bd
       -0.04563658 -0.029161677 0.01734097 -0.055159207
000350 8e b1 80 3c 73 1b 40 3d de 96 12 bc e5 fe 56 bd
       0.015709665 0.046901178 -0.008947102 -0.05248918
000360 29 d6 13 3b 48 f7 85 bd 15 0a dd 3d ac d4 ea bb
       0.002255807 -0.06541306 0.107929386 -0.0071664657
000370 46 fa 8a 3b 06 47 0e ba b0 e8 7f bd 41 cf 8e 3c
       0.0042412607 -0.00054274534 -0.062477767 0.01743281
000380 d7 e1 82 bd ea 6b 7f bd b8 61 c7 bc 7d ed f7 3d
       -0.06390732 -0.062358774 -0.024338588 0.12105844
000390 44 54 d3 bd 98 43 58 ba 26 64 bc bd f8 08 a8 bd
       -0.10318807 -0.00082498183 -0.09198789 -0.08204836
0003a0 9b 7f 61 bd 2f c7 79 bd 07 71 af 3d 47 b8 66 3d
       -0.055053335 -0.060980972 0.0856648 0.056328084
0003b0 90 e0 f2 3d ad bd 2a bd 5d c3 5f bd 39 d1 be 3d
       0.11859238 -0.041684795 -0.054629672 0.0931725
0003c0 17 6d df bd fd 7e 40 bc 46 97 8e 3d bd 5e b2 3d
       -0.10909479 -0.011749026 0.06962447 0.08709476
0003d0 ff 63 a0 3d 89 a0 8d 3d 06 7a d2 3d 39 96 e6 bd
       0.07831573 0.06915385 0.102771804 -0.112591214
0003e0 31 f8 c1 3d 94 fe d8 bc 74 c9 f0 bc 74 42 84 ba
       0.09471167 -0.02648858 -0.029392935 -0.0010090605
0003f0 96 b2 4d 3c b7 83 b9 bd 09 48 85 3d 71 3f 6c 3d
       0.012554785 -0.09058326 0.0650788 0.05767769

lstm.weight_ih_l1 f4 [256, 64]
000000 0f 18 cb bd f6 df e6 3d f2 8e 9c 3d bd 06 a2 3d
       -0.09916698 0.11273186 0.07644452 0.079114415
000010 92 3d ef bd 52 6f a8 3b 92 8b 4d bd 32 da ce bd
       -0.116816655 0.0051402235 -0.050181933 -0.10100211
000020 d0 5d 27 bd 22 d8 9d 3d 26 69 93 bd 21 e4 c0 bd
       -0.04086095 0.0770724 -0.0719779 -0.09418512
000030 9f 27 93 bd be 14 f2 bd ef c6 a0 3c f3 65 90 3d
       -0.071852915 -0.118203625 0.019626109 0.07050695
000040 2f 7c ca bd e4 da 12 bd d1 6a 80 bd fd e8 a7 bd
       -0.098869674 -0.03585328 -0.062703736 -0.08198736
000050 bb 3a 80 bc 00 cb 15 bd 57 7b b5 bd ed b6 ca bc
       -0.015653005 -0.03657055 -0.08861416 -0.024745429
000060 e2 1c 83 bd a6 01 c3 bd d6 88 78 bd 98 fc fe 3d
       -0.06401993 -0.09521799 -0.060677372 0.12450522
000070 09 ac d7 bc 91 5e 4a bd ff 16 c5 bc 5d 35 61 3d
       -0.02632715 -0.04940659 -0.024058817 0.05498253
000080 2a 89 c3 3d 5d 1b a1 3d 2a 2c ba 3d 43 94 c7 3d
       0.09547646 0.07866547 0.09090455 0.097450756
000090 ea 6f 48 bc fc c4 83 bd bb 67 1b 3d 2b 10 d4 bd
       -0.012233714 -0.06434056 0.037940722 -0.10354646
0000a0 4f ed d3 bd d1 07 cc bd 92 91 25 bd e5 90 3a 3c
       -0.103479974 -0.09962428 -0.04042203 0.011387085
0000b0 33 62 50 bc 3e 0f c4 bd 45 d2 b2 3d ed a5 ec bb
       -0.012718725 -0.0957322 0.08731512 -0.0072219283
0000c0 ac 19 a4 3c d1 8a ba 3d 6f 26 a5 3d 10 4d 16 3d
       0.020031773 0.091085084 0.08063971 0.036694586
0000d0 fc 1e 86 bd 8a 2d 2a bd 06 3f 6c 3d 23 80 61 bd
       -0.065488786 -0.041547336 0.05767729 -0.05505384
0000e0 1a e7 92 bd 93 b4 15 3d 1a 49 92 bd be 7d 8f bc
       -0.071729854 0.036549162 -0.07142849 -0.017516013
0000f0 51 a3 ac bc 88 6d 2c 3c e3 f5 f2 3d 47 40 42 bd
       -0.02107397 0.010524161 0.118633054 -0.04742458
000100 94 37 c8 bb 2f f0 19 3d d9 fd 39 3c 77 49 84 3d
       -0.006110141 0.037582573 0.011352026 0.06459325
000110 01 7d 38 bd a6 3a 00 3d ab 4a e8 3c 95 01 c5 bd
       -0.045041088 0.03130593 0.028355917 -0.096194424
000120 24 36 e3 3d 86 69 1b 3d 9e b0 c1 3d d5 fa 8f 3d
       0.11094311 0.037942432 0.09457515 0.07030264
000130 cd e8 c8 bd bb 4a 98 3d b9 da 64 3c 6b f1 ec 3d
       -0.09810028 0.07436129 0.013968163 0.11569484
000140 00 93 48 3d f7 06 8a 3d 18 71 3e 3d 9d 2a fd bd
       0.048968315 0.0673961 0.046494573 -0.123616435
000150 5c 33 be 3d f0 5f f9 bc 0e 23 a6 3d af 0e cd 3d
       0.0928714 -0.030441254 0.08112155 0.10012566
000160 6c ba a4 bc 93 44 bd 3d 41 fb 95 3d 37 68 c5 3d
       -0.020108424 0.09241595 0.073233135 0.09639018
000170 0d 50 1a bd d3 35 28 3d fd 7a 82 3d f4 3b 1e 3d
       -0.037674 0.041066956 0.063711144 0.038631395
000180 6a 5f f6 3d bc ee 15 bd c8 a4 ba bc 3f bb 68 3c
       0.120299175 -0.036604628 -0.022783652 0.014204799
000190 1c 75 1d 3d 8a 87 5d bc 49 8b 70 3d 5b 5c dd bd
       0.038441762 -0.013521085 0.058726583 -0.10808631
0001a0 4e b2 f8 3d b9 61 1b bd 1f 61 cf 3d 00 6c d6 3b
       0.12143384 -0.037934992 0.10125946 0.0065436363
0001b0 27 30 99 bd 68 1f f6 bd 85 eb 50 3c 28 e2 b2 bd
       -0.074798875 -0.12017709 0.012751465 -0.08734542
0001c0 60 35 72 3d 63 6a fc 3d cb b5 b5 3d e1 63 bd bb
       0.059132934 0.12324979 0.08872565 -0.0057797288
0001d0 66 fb d6 3d 9c 45 b7 3d 37 0a d5 3d da 43 ef bc
       0.10497169 0.08948824 0.10402339 -0.029207159
0001e0 07 60 d1 3c c8 0b 88 3d fb d2 c0 bd 71 00 80 bd
       0.025558485 0.06642872 -0.09415241 -0.06250084
0001f0 22 c4 b0 3d bc 28 00 bc 51 8e 42 3d 02 32 31 3d
       0.08631159 -0.007822212 0.047499005 0.04326058
000200 ab ef a8 3d 7b 8b 1c bd 29 9d 52 bd 21 12 b9 bd
       0.08248838 -0.038218956 -0.05141941 -0.09036661
000210 36 97 d3 3d 69 68 cd 3d f0 94 f5 3d 69 4c 20 3d
       0.103315756 0.1002968 0.11991298 0.03913537
000220 78 a6 d0 3d 44 ec de bd 82 cf 1d bd 00 ff ef bc
       0.101880014 -0.10884908 -0.038527973 -0.029296398
000230 c7 4c 3d 3c 5f 4f 9d 3d a5 1a 96 3c 32 51 d4 3b
       0.01155395 0.076811545 0.018323252 0.006479406
000240 0c a6 8e bd 9c 49 a1 3d c7 67 a0 bc 76 ce a3 bc
       -0.06965265 0.07875368 -0.019580735 -0.01999591
000250 a0 8f 6d bd ff de e8 3d bc 8c 22 3d 45 5e fa bc
       -0.0579983 0.11370658 0.039684996 -0.03056253
000260 d8 b5 e9 3d b3 0a c4 3d ae 71 eb bd 20 bb af bd
       0.11411637 0.09572353 -0.11496292 -0.08580613
000270 15 00 a1 bd 99 ef 79 bd 32 3d d1 3d a9 a9 53 3d
       -0.07861344 -0.061019514 0.1021675 0.051675472
000280 55 68 f5 3d 23 2f a9 3d da ec 05 3d d0 19 bd bc
       0.119827904 0.08260944 0.032696582 -0.023083597
000290 73 a0 b8 3d 85 ae 84 bd 02 1c 29 3b 15 cf ec 3d
       0.09014978 -0.064785995 0.0025804047 0.11562935
0002a0 93 ae eb 3d c0 bc 96 bd d1 6c cf bc e9 10 77 bd
       0.11507907 -0.0736022 -0.025320442 -0.06031886
0002b0 07 0a 6f bb 0c 66 c5 3d 37 76 4b 3d c0 59 a7 3d
       -0.0036474483 0.096386045 0.049673285 0.08171415
0002c0 a7 ab 0b bc bc de a6 bd af aa d6 bd 9f f9 6b 3d
       -0.008524812 -0.08147952 -0.10481774 0.057611104
0002d0 27 12 05 3c 57 4e c8 b9 aa e6 fd bc 98 d3 8d bc
       0.008122004 -0.0003820534 -0.030993778 -0.01731281
0002e0 27 f1 c3 3d 1a 64 dd bd 7a c0 46 3d f2 0e a5 3d
       0.095674805 -0.108101085 0.048523404 0.08059491
0002f0 3f 7d bd bd d9 26 f8 bd c5 6e c0 3d 20 15 96 bc
       -0.092524044 -0.121167846 0.093961276 -0.01832062
000300 5a 9a 97 3c 8c 32 dc 3d a3 98 e3 3d 5b 4c ac 3d
       0.018506218 0.107518286 0.111130975 0.08413001
000310 cb 07 ca 3d 8c f7 2b bc e3 61 74 3d d7 be 4d bd
       0.09864768 -0.0104960315 0.059663665 -0.050230827
000320 15 fc 01 3d 4f 5c d3 3c 3d 84 5a 3d fd 85 1c 3d
       0.031734545 0.025800852 0.05334877 0.03821372
000330 40 92 dd 3d c3 24 65 3d c5 09 89 3d 2d ac fa 3c
       0.108189106 0.05594326 0.066913165 0.030599678
000340 5f 5a c1 bd 26 d7 9d bd a1 f8 83 3d ef a2 4a 3d
       -0.09441065 -0.07707052 0.064439066 0.04947179
000350 18 c2 a0 bd 7e 16 c3 3d ae 78 30 bd 2c 2e 1b 3d
       -0.078495204 0.095257744 -0.04308384 0.03788583
000360 3f 15 cc 3d 43 52 b5 3d 76 6e eb bc 2c 5a c6 3d
       0.0996499 0.08853581 -0.028739195 0.09685168
000370 cd 94 c7 3d 93 d1 6b 3d 50 01 a2 3d 12 97 62 bc
       0.09745178 0.057572912 0.079104066 -0.013829963
000380 b7 e1 8d 3d 70 9e 48 3d 1f e5 43 3d 8a 51 9d bc
       0.06927817 0.048979223 0.04782593 -0.01920392
000390 c7 62 94 bd 82 89 88 3d ba b9 9c 3d 1e 43 a4 bc
       -0.07245403 0.066668525 0.07652612 -0.020051535
0003a0 fb 59 4a 3d 45 db 80 bb 89 cc 1c bd c2 53 c3 bc
       0.04940222 -0.003932389 -0.038280997 -0.02384365
0003b0 8e 0a 9f 3d 56 53 05 bd b7 e1 d3 3d 84 23 a5 3d
       0.07765685 -0.03255018 0.10345786 0.08063415
0003c0 d5 e8 d5 3d f5 b2 ff bd d4 3b cf 3d 35 91 e2 3c
       0.104448 -0.12485305 0.10118833 0.02765713
0003d0 df e5 d0 3d d7 ea 47 bd 85 ea 2c bd dd 0b 1b 3d
       0.102000944 -0.048807945 -0.042215843 0.03785311
0003e0 7b 02 75 3c dc 46 a0 3d f8 69 fd bd 12 51 eb 3d
       0.014954205 0.07826015 -0.123737276 0.11490072
0003f0 6b 50 b3 bd b5 ea bf bd 2d 51 ee 3d d6 e9 92 bd
       -0.08755573 -0.09370939 0.11636577 -0.07173507

lstm.weight_hh_l1 f4 [256, 64]
000000 0c 09 6b 3d 19 d9 dc 3d fe 1e d6 3d 9b 30 7e 3d
       0.057381675 0.107835956 0.1045513 0.062058073
000010 a3 ee 5e 3d 0c cc f1 3d 96 92 ef 3d 0f 13 0c bc
       0.0544268 0.11806497 0.11697881 -0.008549466
000020 9d d3 52 3d 4a db 8c bd 1f a7 d4 3d 4e 74 ce 3d
       0.05147134 -0.068777636 0.10383438 0.10080777
000030 bb 14 b1 3d fc ea f1 bd 9e af 10 bd 64 3a fb bc
       0.08646532 -0.11812398 -0.03532373 -0.030667491
000040 4a e5 c9 3c a1 04 fb bd 8b cf de 3d b7 84 f0 bd
       0.024645466 -0.12256742 0.108794294 -0.11744063
000050 38 34 65 3d a2 7a e0 bd 57 d1 d3 3d 55 9e f4 bd
       0.055958003 -0.1096089 0.10342663 -0.11944262
000060 e1 4d 96 3c 3f 61 82 bc fc df 5c bd 5c 1e 99 bd
       0.018347682 -0.015915511 -0.053924546 -0.07476494
000070 73 8a 2b 3c 0a 93 0f 3d 79 8b d7 bd 20 a3 ae bb
       0.010470021 0.035052337 -0.10524649 -0.0053295046
000080 82 dd ca bd d4 f2 71 3d f2 3b 81 3d 27 cd c7 3b
       -0.099055305 0.05906947 0.06310262 0.006097454
000090 f0 84 ba bc 69 2e 71 3d 78 69 d0 bd d8 6a a4 3d
       -0.022768468 0.05888215 -0.101763666 0.08028191
0000a0 2e c6 86 bd f0 db 25 bd 94 9d 78 3d 3b 75 a0 bd
       -0.065807685 -0.040492952 0.060697153 -0.0783486
0000b0 b9 fd 72 3b 52 49 1a bd 54 a0 91 3d 75 44 d4 3d
       0.00370775 -0.03766758 0.07110658 0.1036462
0000c0 63 6d ba bc 96 06 02 bd 1f ef be 3d 1c 82 e1 bd
       -0.022757238 -0.031744562 0.093229525 -0.110111445
0000d0 42 07 20 3d e0 e4 ec bc 44 5d df 3c f1 63 2e bd
       0.03906942 -0.02891773 0.027266152 -0.04257578
0000e0 46 3a 70 3d 26 4c 04 ba 24 ff d1 bc 6d 75 8d bd
       0.058649324 -0.00050467474 -0.025634356 -0.06907163
0000f0 25 4a f1 bd c5 c8 8e bd df 02 d2 bd 41 17 73 3c
       -0.1178172 -0.069718875 -0.10254454 0.014837087
000100 e2 5e f8 3d 76 02 c0 bb 75 9e 6d bd 46 cb e6 3d
       0.121274725 -0.0058596684 -0.058012445 0.1126924
000110 64 8c 60 bd d9 a7 fb 3d 90 7e c0 bb 96 48 a7 3d
       -0.054821387 0.12287874 -0.0058744624 0.081681415
000120 7d 39 86 bd 12 83 33 3d e7 2f 79 bd bd 95 0e 3d
       -0.06553934 0.04382617 -0.0608367 0.03481077
000130 0b ca d0 bd ab f7 ca bd 0e 03 5a bd 24 74 3a bd
       -0.10194787 -0.0991052 -0.05322557 -0.045520917
000140 1b d0 08 bd c3 57 0c bd 58 b9 c1 3c 70 3e 7a 3d
       -0.03340159 -0.034263384 0.02364795 0.0610947
000150 9f 3b 18 3d 4d 2d 26 bd 01 96 a4 3d 41 6f a4 bb
       0.037166234 -0.040570546 0.080364235 -0.0050181453
000160 3c 33 79 bd e5 fe f6 bd 93 bd 13 bc f5 fc 97 bd
       -0.060839877 -0.12060336 -0.009017366 -0.074212946
000170 2a 6d 86 bd e7 90 c7 3a 79 77 2c 3d 6a 80 aa 3d
       -0.0656379 0.0015225679 0.042106126 0.08325274
000180 a4 70 c9 bd b7 1d 84 3b 8e 44 03 bd f5 0d 93 bd
       -0.098359376 0.0040318626 -0.0320478 -0.071803965
000190 71 a1 27 bd 24 b3 f3 3c a1 94 aa bd b2 5a dc 3d
       -0.040925447 0.029748507 -0.0832913 0.10759486
0001a0 c9 96 54 bd 84 66 b8 3d a0 59 fe bd a2 81 13 3d
       -0.051901612 0.09003928 -0.12419438 0.0360123
0001b0 da ff eb bc da b5 f1 bd 62 6a fe bd 32 85 e8 3d
       -0.028808523 -0.118022636 -0.12422635 0.1135353
0001c0 13 41 c5 3c dd af ce 3d c3 07 f1 3d 5f 35 d8 3c
       0.024078881 0.10092137 0.117690586 0.026392637
0001d0 ce 6a 85 3d 32 bf 7a 3d 30 76 f9 bd 17 88 e4 3d
       0.06514512 0.061217494 -0.121807456 0.111587696
0001e0 0d d8 16 3b 96 ea 19 3d 21 0f a4 3c e5 b9 97 bd
       0.002301696 0.037577234 0.020026745 -0.074085034
0001f0 7d ce b2 bd 20 26 d9 bd 85 60 be bd b1 34 f2 bb
       -0.08730791 -0.10602975 -0.092957534 -0.007391535
000200 62 d3 cb 3d 3d 32 fc bd 49 fe 96 bd e4 b6 a0 3d
       0.099524274 -0.1231427 -0.0737272 0.078473836
000210 82 6e 27 3c b7 85 a8 3d 29 52 bf bc 4e 68 38 bd
       0.010219218 0.08228629 -0.023354607 -0.045021348
000220 a3 e4 d9 3d f6 01 90 3d bf 45 f4 bd d7 dd fd bd
       0.10639312 0.07031624 -0.119273655 -0.12395828
000230 ac 14 bd 3d 43 a4 83 3b 87 dd d7 bc ac 2a b3 bd
       0.092324585 0.0040173843 -0.02635075 -0.087483734
000240 84 02 dc 3d 95 7b d2 3d cb 0c c0 bd b0 9e 41 3d
       0.10742667 0.10277478 -0.0937744 0.047270477
000250 2d 4e 81 3d 69 ad 09 bd 40 f3 07 bd 28 c4 86 bd
       0.06313739 -0.033612642 -0.033190966 -0.065803826
000260 31 e8 ad bc 6e f2 ab bd dd bf f4 3d fe 0e 88 3c
       -0.021228882 -0.08395849 0.119506575 0.016608711
000270 8b 33 ed bd a0 77 c6 3d 62 11 92 3c a1 fd fe bd
       -0.11582097 0.096907854 0.017830554 -0.124507196
000280 8c 7b 0f 3d ba 42 ff bc 95 ac 21 3d 43 f4 1a 3d
       0.035029933 -0.031159747 0.039471228 0.037830602
000290 51 02 bc bd 9b 49 9c 3d 18 93 83 3d 23 d3 3d 3c
       -0.09180129 0.07631227 0.0642454 0.011585983
0002a0 d5 2a a4 bc 7d fc 94 3c 03 5d 7e bd cb c0 86 bd
       -0.020039955 0.018186802 -0.06210042 -0.06579741
0002b0 ec 5d b9 3d 10 15 f0 bc ae d0 ca bc 21 ab e3 3d
       0.09051117 -0.029306918 -0.02475771 0.111166246
0002c0 04 62 3d bc c5 35 24 bd 35 8f 33 bd 5c f5 38 3c
       -0.011559013 -0.04009034 -0.043837745 0.011288967
0002d0 b3 3a d5 bd aa 87 8e bd 00 00 93 bd 80 3d c0 3d
       -0.104115866 -0.069594696 -0.071777344 0.0938673
0002e0 29 ae c8 3d 51 d7 92 bd 61 5a 82 3d 1f 3a 3d 3d
       0.097988434 -0.071699746 0.06364895 0.046198007
0002f0 8f 52 c2 bc 3a a0 88 bd e0 12 1d 3d 90 09 b0 bd
       -0.023721008 -0.06671186 0.03834808 -0.08595574
000300 35 6f fe bc cd b0 75 3d aa bc 07 3d ca 7f 89 3d
       -0.031058887 0.059983063 0.03313891 0.06713827
000310 d0 f2 31 bd 6d 00 ec 3c 96 f4 b3 3d 0c 9a 2e bd
       -0.043444455 0.028808797 0.087868854 -0.04262738
000320 81 2b a8 3d bf bb f1 3b f8 07 55 3d aa a3 a3 bd
       0.08211423 0.0073771174 0.052009553 -0.07990201
000330 a4 df 49 bd d7 9f c7 3d 5c 7d 98 3d 66 50 12 bd
       -0.049285546 0.09747284 0.074457854 -0.035721205
000340 44 12 ee bd 99 aa 4d 3d d0 65 b0 bd a9 9a 30 3d
       -0.11624578 0.050211523 -0.08613169 0.043116245
000350 66 ad 84 3d 73 65 e4 3d 6a 8e c4 bc a0 4f ff 3d
       0.064783856 0.111521624 -0.02399369 0.12466359
000360 8e 37 c6 3d 24 47 00 3e cd 90 23 3d 47 5c 9e 3c
       0.09678565 0.12527138 0.039933015 0.01933111
000370 6b c5 e4 bd 5b 53 09 bd 71 9e e8 3d 0d 26 2a 3d
       -0.11170467 -0.03352676 0.11358345 0.041540194
000380 dc 81 a6 3d 82 44 70 bd 34 eb ce 3c 44 74 6e bd
       0.081302375 -0.058659084 0.025258638 -0.05821635
000390 e8 1a de 3c 81 ff 9c bd e5 b3 0e 3a 6b 12 30 3d
       0.02711244 -0.07665921 0.00054436765 0.042986315
0003a0 0b 3f b8 bd 38 8d 86 3d a3 57 df 3d 49 52 f5 3d
       -0.089963995 0.06569904 0.10905387 0.11978585
0003b0 d5 ff 8c 3d 57 2a 30 3d 87 70 a1 3c c4 19 60 3c
       0.068847336 0.04300913 0.019706978 0.013678018
0003c0 85 1c 5c bd 68 0c 62 3d 7f 25 84 bd 40 53 c6 bd
       -0.053738136 0.055187613 -0.06452464 -0.096838474
0003d0 96 3d 44 3d 91 3b 43 3d f6 bc 91 bb 18 2f a9 3d
       0.047910295 0.04766423 -0.0044475747 0.082609355
0003e0 b1 cb a9 bc 0b d3 89 3d 5b 8a a7 bd a2 35 cd bd
       -0.02072701 0.067297064 -0.08180686 -0.10019995
0003f0 8f e8 3d 3d 6b 01 c8 bd 09 d6 e3 3c ac 42 74 3d
       0.046364363 -0.097658955 0.02781202 0.059633896

lstm.bias_ih_l1 f4 [256]
000000 ce 7e f8 3d 4a 75 c8 bd d3 13 c6 bd a6 ec c8 3d
       0.12133561 -0.09787996 -0.0967175 0.09810762
000010 96 ab d3 bd 5d a2 2c bd 04 62 eb 3d 0c 57 b7 3c
       -0.10335462 -0.04214703 0.11493304 0.022380374
000020 0a db ba 3d e8 81 ec bd 53 07 f2 3d ea 02 88 3d
       0.0912381 -0.11548215 0.11817803 0.06641181
000030 e6 2e 99 3d 0b 3f e3 3d 25 2e ca 3b 8b 6a 40 3d
       0.07479648 0.11096009 0.0061700516 0.046976607
000040 e3 30 3e bc ef 28 6d bd da 5a f9 bd 92 88 87 bc
       -0.011608335 -0.057900365 -0.12175532 -0.016544614
000050 10 69 5a bd 46 15 d5 bd cd 5d b0 bd 59 56 52 bd
       -0.05332285 -0.10404448 -0.08611641 -0.05135188
000060 0b 25 6f bd 61 8e 72 bd 4f 2d b8 bd d9 13 87 bc
       -0.058384936 -0.059217814 -0.08993017 -0.016488956
000070 05 9b 26 bd db 52 c9 bd 21 91 1a 3d b2 00 30 3b
       -0.040675182 -0.098302566 0.037736062 0.0026855883
000080 e0 97 3c bd 37 0b 0b 3d 09 b5 f7 bd 03 56 5a 3d
       -0.046043277 0.033946242 -0.120950766 0.053304683
000090 f6 da 1b 3c ed 1f 56 bd e9 05 70 bd 12 d9 82 bd
       0.009512654 -0.05227654 -0.058599386 -0.06389059
0000a0 7e a1 de 3c 4e 2d bc 3d 33 8e e4 bd c1 02 a7 3d
       0.027176615 0.09188329 -0.11159935 0.08154822
0000b0 30 2b ba bd 64 b0 84 3d 48 d6 eb 3c e2 7d df 3d
       -0.090902686 0.06478956 0.0287887 0.10912682
0000c0 b6 24 81 3d 70 20 e1 bd 3d 85 f2 bd 6f 0e fc 3d
       0.0630583 -0.10992515 -0.118418194 0.123074405
0000d0 67 56 e4 3d e5 70 84 bd 95 c3 b9 3d d5 62 0e bd
       0.111492924 -0.064668454 0.090705074 -0.034762222
0000e0 c1 b7 fb 3d 7f 27 12 bd e2 67 d7 bd 96 3b 25 3d
       0.12290908 -0.035682198 -0.10517861 0.04034003
0000f0 5b 76 ee bd 7c 8b 0e 3d 97 f5 d2 bd 66 20 9a 3d
       -0.11643668 0.03480099 -0.10300749 0.07525711
000100 7a 0e fa bd 81 a9 dc bd 83 b3 b0 3d 7f 32 46 3d
       -0.122097924 -0.10774518 0.08627989 0.048388
000110 ef ef b0 bd da 2f 39 bc c3 ba c4 3d e9 c5 82 bd
       -0.08639514 -0.011302913 0.096059345 -0.063854046
000120 4f 6b e1 bd 10 f2 36 3c 77 84 05 3d 3f ec d9 bd
       -0.110067956 0.011166111 0.03259703 -0.106407635
000130 f0 23 2c 3d db cc d6 3d 2a 2c 35 3c 09 a6 59 3d
       0.04202646 0.10488292 0.011057893 0.05313686
000140 b2 64 ab bd c9 61 52 bd d9 4b 17 3d 89 18 f7 3d
       -0.083688155 -0.051362786 0.03693757 0.120652266
000150 90 de 86 bc 3b f6 ac bd dd 16 26 bd e6 33 a8 bd
       -0.016463548 -0.08445402 -0.040549148 -0.08213024
000160 4d e5 17 3c c2 4d e1 bd 86 d5 f9 3d ca ae 4d 3d
       0.009270978 -0.11001159 0.121989295 0.05021552
000170 c3 22 d1 3d 02 35 ee 3d 37 d6 00 3d 6e e5 a6 bd
       0.102117084 0.11631204 0.03145429 -0.08149229
000180 71 b5 b5 bc 08 05 f1 3d 67 95 f9 bd d7 31 88 3d
       -0.022181245 0.11768538 -0.12186699 0.06650131
000190 b3 b6 63 3d f7 15 7b 3d 23 ba c8 bd aa 6d ce 3d
       0.055594157 0.061300244 -0.09801128 0.100795105
0001a0 3a ac 78 bd 6d 89 fa 3c 29 9a a7 3d 36 96 f0 3d
       -0.060711123 0.030583108 0.081837006 0.117474005
0001b0 87 b2 23 3d e0 b3 3f bd ab 50 a6 bc 58 5d cc 3d
       0.03996518 -0.0468024 -0.020302137 0.099787414
0001c0 d0 ec a6 3c cf 56 e8 3d 46 9c 48 bd 3f 62 6c 3d
       0.020376593 0.113446824 -0.04897716 0.057710882
0001d0 25 5b f3 bd 95 f0 8b bc 54 dc 9a bd 9d b0 ef 3d
       -0.11882619 -0.017082492 -0.075615555 0.11703608
0001e0 e2 dc c1 3c 43 39 a5 bb 3b ff b9 3c ca 5d f5 3d
       0.023664895 -0.0050422265 0.022704711 0.119807795
0001f0 5c 34 c5 3d cf 18 31 bd af 9c 04 3d ff a5 98 bd
       0.096291274 -0.04323655 0.032375988 -0.07453536
000200 49 82 a6 bd d9 a2 a6 bd 10 b7 a7 bd 89 fa 59 3d
       -0.08130319 -0.081365295 -0.08189213 0.053217445
000210 73 65 bf bc 1c 35 ae 3d 7d a4 18 bd 6c 22 30 3c
       -0.023363804 0.085062236 -0.037266243 0.010750394
000220 39 dc 5e bd 12 df fd bd 07 13 b5 bd 42 00 d1 3d
       -0.05440924 -0.12396063 -0.0884152 0.10205127
000230 0c e3 86 3d 94 42 4e bd 24 97 de bd a5 1d f2 3d
       0.065862745 -0.050356463 -0.108686715 0.118220605
000240 27 67 87 3d 36 a1 91 3b 0a 7c 29 ba 96 63 32 3d
       0.066114716 0.0044442667 -0.00064653216 0.043552004
000250 d6 34 50 3d 47 fa 8e 3d d4 e3 af 3d 36 2e 07 bc
       0.05083164 0.0698133 0.08588377 -0.008250764
000260 bc f6 9e 3d 94 33 f5 3c 53 8c 5a 3c 1b dd d4 bd
       0.077619046 0.02993182 0.01333912 -0.10393735
000270 80 b7 6c 3d 6a 02 d4 3d 4b 3d 85 3d 16 c2 03 bd
       0.057792187 0.10352023 0.06505831 -0.032167517
000280 72 10 c2 3d 81 56 5e 3d 0e cd ad bd 81 bd f4 bd
       0.09475793 0.054281715 -0.08486377 -0.119502075
000290 cb 7c aa bc d4 cd db 3d 7b d8 cb bd 66 f2 6a bd
       -0.020811459 0.10732618 -0.099534 -0.057360075
0002a0 b1 47 c2 3d 8c 62 bb 3c 20 68 fd 3c 85 f9 85 3d
       0.0948633 0.02287414 0.03093344 0.06541733
0002b0 89 44 dd 3d 43 ec e2 bd 5c 42 c9 bb 0a 89 95 3c
       0.10804088 -0.110802196 -0.006141944 0.018253822
0002c0 e8 30 b6 3d b4 0e c8 bc 1c f5 9e bd 26 fc 00 be
       0.08896047 -0.024421073 -0.07761595 -0.12596187
0002d0 89 63 fa bd d5 b4 19 bd 84 fb 80 3c 90 86 bc 3d
       -0.12226016 -0.03752597 0.015744932 0.09205353
0002e0 e3 1f 86 3d 74 bb 16 bd fc 51 3b bc aa 9c f0 bd
       0.06549051 -0.036799863 -0.011433121 -0.11748631
0002f0 e0 b6 ef bd 15 d8 92 3d 2e ba ae 3d 6e c8 3e bd
       -0.117048025 0.071701206 0.08531605 -0.046577863
000300 cf 53 c0 3d 2d 24 e2 3d b9 74 0f 3d a9 f9 2d bc
       0.09390985 0.11042056 0.035023425 -0.010618606
000310 18 58 f8 3d 1f cd b2 3c f8 a3 a7 bd b7 e5 62 bd
       0.121261775 0.021826325 -0.081855714 -0.055394854
000320 2b 3b ae 3a 20 4e e1 bd ef 66 fb bd 4f fb ee bc
       0.001329278 -0.11001229 -0.122754924 -0.029172568
000330 ae 3f b5 bc d7 bd c5 bd d3 b4 d1 3d a7 4f 7f 3d
       -0.022125091 -0.0965535 0.102395676 0.06233182
000340 6d e8 1d 3c 9b 80 76 bd 3e b7 c2 bc 07 b9 f6 bd
       0.009637934 -0.06018124 -0.023769017 -0.1204701
000350 73 61 9a 3d 1e db de bc ee 4d 87 bc 0e 02 f8 3c
       0.07538118 -0.027204093 -0.016516652 0.030274417
000360 e9 85 4f 3d f5 3c b0 3d f1 29 8a 3d a3 8c a7 3d
       0.050664816 0.08605377 0.06746281 0.08181121
000370 b3 dd c9 bd 76 be 04 3d dc 7f 33 3c 12 2c 28 bc
       -0.09856739 0.0324082 0.010955777 -0.010264413
000380 d3 2a 3d bc 73 93 9f 3d 63 dc 17 3d 2a 87 16 3c
       -0.011545855 0.077917956 0.03707541 0.009187499
000390 ec 3c fc bc 23 ce a2 3d 6b d5 db bc 8f aa 85 3d
       -0.030790769 0.07949474 -0.026835164 0.06526672
0003a0 8c b3 a8 3d e9 69 9e bd e4 32 e4 3b e7 82 53 3b
       0.08237371 -0.077350445 0.0069640744 0.0032274069
0003b0 ae 9d 5f bc b2 3f 0f bd aa 69 eb bd 3c f3 1b 3c
       -0.013648434 -0.034972854 -0.11494763 0.009518441
0003c0 4d e0 6d 3d 71 f4 e6 bd f8 04 e8 bd b2 4f d7 bd
       0.058075238 -0.11277092 -0.11329073 -0.105132475
0003d0 5d e9 24 3d 30 c7 fc ba 1a 5c 64 3d f2 75 be bc
       0.040261615 -0.0019285437 0.055751897 -0.0232496
0003e0 17 86 8b 3d c8 d8 d5 bd 14 40 81 3d cb 4d 65 bc
       0.06812685 -0.10441738 0.0631105 -0.013995598
0003f0 51 be 8f 3d 94 ea 06 bc 91 6f 53 3d 88 81 fb bd
       0.07018722 -0.008234639 0.05162007 -0.122805655
