Personal/DACON/데이터·AI를 활용한 물가 예측 경진대회  농산물 가격을 중심으로/models/best_model_배.pth (torch, 247544 bytes, 10 tensors)

lstm.weight_ih_l0 f4 [256, 42]
-0.024239061 0.030441573 -0.032998905 0.085939065 0.050145194 0.03220897 0.05534664 0.065549724
-0.053489134 0.027706757 -0.120398134 0.121290416 -0.070729256 0.035242528 -0.119001776 -0.065785676
-0.06009186 0.034224156 0.013446266 -0.005578277 -0.04169951 -0.03856037 0.056304757 0.001117282
-0.012080833 -0.009441793 -0.037697226 -0.110638686 0.0858988 0.10816005 0.124455445 0.08546965
-0.050135385 0.08650146 -0.06770332 0.11383194 -0.05914686 -0.10913967 0.033354953 -0.010665967
0.022807408 -0.045665532 -0.118409336 -0.012940426 -0.051860083 -0.06883757 -0.002811699 -0.099890396
0.11390821 -0.0053703277 0.11688839 -0.03864084 0.08563942 0.06489618 -0.0559374 -0.121890604
-0.062120605 -0.04369449 -0.07833285 0.121368505 0.10168113 0.10889397 0.038747795 -0.048478022
-0.012925368 0.12326032 -0.11367041 -0.10990523 -0.026149958 -0.10696805 0.0672013 0.05480408
0.020397125 -0.024353795 -0.041298307 -0.033163365 0.085474394 -0.09788205 -0.123909965 0.07271451
0.109667644 0.060251985 -0.100109965 0.032795325 0.049663763 -0.060063396 -0.10482763 0.08222947
0.03577128 0.09799892 0.07449901 0.075760044 -0.014317393 -0.10671827 -0.0739256 0.06799659
0.0047046514 0.081902176 -0.028757721 -0.10339893 -0.03701786 0.09442435 0.056829076 0.11384932
-0.021196324 -0.06815312 -0.09046227 0.049095158 0.091501296 0.121548444 -0.03968601 -0.08929481
-0.035606135 -0.027580531 0.05111151 -0.0144466385 0.00048534875 0.09798566 0.028593704 0.043441225
0.07312059 0.087049 0.076308854 0.10911365 0.011562794 0.09219209 -0.11761399 -0.016570339
-0.12557168 0.040563777 0.07292124 0.09333475 -0.047848485 0.02325821 -0.056203127 0.058049783
0.072014034 0.113932386 0.12211307 -0.11552865 -0.122066736 0.103473134 -0.027358709 0.010524457
-0.106171 0.01483855 -0.030421183 0.073244564 0.098172344 0.063875 -0.029170305 0.05408989
-0.0554796 -0.014906095 0.070068836 -0.025680596 -0.09569764 0.049427588 0.0949538 0.11789082
0.094685756 -0.113133624 -0.03998982 -0.023790833 0.051813807 0.022568207 -0.080624215 -0.05694814
-0.008959095 -0.10125454 0.0495619 -0.10676663 0.09783371 -0.1224663 -0.11943365 0.11851573
0.0035654157 0.038807496 0.008755073 0.012418553 0.09443719 -0.06419326 -0.11927618 -0.04514608
0.037513476 -0.09626066 -0.070446506 -0.097691424 0.0840652 -0.034116864 -0.04269965 -0.045383617
-0.06426868 -0.0058555007 0.058406174 0.041550882 -0.0604324 0.07623119 0.088737965 -0.012435173
0.090740636 0.02534126 0.038335573 -0.080471106 -0.07461463 0.12409104 0.050968524 0.038521647
-0.007836007 -0.065631196 -0.04848742 -0.082004935 0.045803312 -0.04895979 -0.12582374 0.009572979
-0.089449026 -0.12071288 -0.08172567 0.047348946 0.03173673 -0.0077270865 -0.08946007 -0.009040981
-0.018650282 -0.013486385 -0.013885419 -0.10908271 -0.07680551 -0.07526857 -0.041979656 -0.0046676123
-0.07782717 0.054529447 -0.033938125 -0.11652668 -0.08416331 -0.050089978 0.0768416 -0.038401157
0.04032394 -0.0341437 -0.06684055 -0.12592702 0.11711936 -0.07780515 -0.10340008 0.035119694
-0.030135911 0.056105975 -0.06386689 -0.018051902 0.114676416 0.10308625 0.029585514 0.030956835
00000000: ff90 c6bc 9b60 f93c dc29 07bd d200 b03d
00000010: 0c65 4d3d 8eed 033d 29b3 623d ef3e 863d
00000020: 6c17 5bbd 48f9 e23c 4c93 f6bd 1c67 f83d
00000030: 80da 90bd 785a 103d 34b7 f3bd a4ba 86bd
00000040: e222 76bd a12e 0c3d ba4d 5c3c fbc9 b6bb
00000050: 1bcd 2abd 7bf1 1dbd d19f 663d c371 923a
00000060: b0ee 45bc c0b1 1abc 6868 1abd 8996 e2bd
00000070: b6eb af3d 0483 dd3d 7fe2 fe3d b60a af3d
00000080: c35a 4dbd ad27 b13d 0aa8 8abd b820 e93d
00000090: fa43 72bd 9f84 dfbd 349f 083d 4fc0 2ebc
000000a0: 9ad6 ba3c c80b 3bbd 9880 f2bd 1504 54bc
000000b0: 3d6b 54bd b6fa 8cbd 7b44 38bb 5693 ccbd
000000c0: b548 e93d 93f9 afbb 2e63 ef3d dc45 1ebd
000000d0: b863 af3d 4ae8 843d 9d1e 65bd c8a1 f9bd
000000e0: 2d72 7ebd fef8 32bd f96c a0bd 0d90 f83d
000000f0: 323e d03d cd03 df3d 02b6 1e3d e490 46bd
00000100: ecc4 53bc e86f fc3d 08cc e8bd fe15 e1bd
00000110: 7038 d6bc 1112 dbbd d6a0 893d 3e7a 603d
00000120: df17 a73c 9c81 c7bc 6a28 29bd 4fd6 07bd
00000130: 330d af3d 6276 c8bd 82c4 fdbd 58eb 943d
00000140: 6e99 e03d c9ca 763d 7406 cdbd 6454 063d
00000150: 3b6c 4b3d 0905 76bd deaf d6bd ed67 a83d
00000160: e884 123d a8b3 c83d f092 983d 1528 9b3d
00000170: 8093 6abc 1c8f dabd 4e66 97bd cc41 8b3d
00000180: 7a29 9a3b 54bc a73d 5095 ebbc d1c2 d3bd
00000190: 0aa0 17bd 8e61 c13d 9bc5 683d d529 e93d
000001a0: eaa3 adbc dd93 8bbd 4844 b9bd 0118 493d
000001b0: 0865 bb3d 64ee f83d cc8d 22bd 33e0 b6bd
000001c0: bdd7 11bd 91f0 e1bc 4d5a 513d 98b1 6cbc
000001d0: 6876 fe39 b5ac c83d 583d ea3c 6def 313d
000001e0: 3fc0 953d bf46 b23d d147 9c3d fa76 df3d
000001f0: e071 3d3c 35cf bc3d 9bdf f0bd 85be 87bc
00000200: dd95 00be 3426 263d bb57 953d 4a26 bf3d
00000210: c6fc 43bd 0088 be3c 4035 66bd 9cc5 6d3d
00000220: 187c 933d 6255 e93d 6b16 fa3d 499a ecbd
00000230: 20fe f9bd b9e9 d33d 5f1f e0bc c66e 2c3c
00000240: 2e70 d9bd 641d 733c d835 f9bc 3f01 963d
00000250: 950e c93d e5d0 823d 90f6 eebc 5c8d 5d3d
00000260: 943e 63bd b238 74bc 4080 8f3d 1d60 d2bc
00000270: 20fd c3bd 9574 4a3d 2377 c23d be70 f13d
00000280: 9bea c13d 9ab2 e7bd 5ecc 23bd fee4 c2bc
00000290: b73a 543d f6e0 b83c 4f1e a5bd 7442 69bd
000002a0: 2bc9 12bc 8a5e cfbd 6b01 4b3d 77a8 dabd
000002b0: 0a5d c83d 9dcf fabd a199 f4bd 60b8 f23d
000002c0: c0a9 693b 9cf4 1e3d 7071 0f3c 3077 4b3c
000002d0: 4968 c13d c277 83bd 1247 f4bd 19eb 38bd
000002e0: bba7 193d 4f24 c5bd 4246 90bd 7112 c8bd
000002f0: 602a ac3d 20be 0bbd d4e5 2ebd 2ce4 39bd
00000300: 4c9f 83bd 80df bfbb 503b 6f3d 4231 2a3d
00000310: f787 77bd 191f 9c3d 40bc b53d e5bc 4bbc
00000320: 3ad6 b93d 7998 cf3c c305 1d3d 09ce a4bd
00000330: 8ecf 98bd 7123 fe3d 5fc4 503d e0c8 1d3d
00000340: 9862 00bc a669 86bd bf9a 46bd 34f2 a7bd
00000350: 419c 3b3d 108a 48bd f0d7 00be fcd7 1c3c
00000360: 0d31 b7bd 5038 f7bd ca5f a7bd f8f0 413d
00000370: 60fe 013d 8033 fdbb d736 b7bd 9f20 14bc
00000380: 7ac8 98bc 00f6 5cbc ab7f 63bc c266 dfbd
00000390: 354c 9dbd 6826 9abd dcf2 2bbd c5f2 98bb
000003a0: da63 9fbd 455a 5f3d b402 0bbd 8aa5 eebd
000003b0: d05d acbd 262b 4dbd 215f 9d3d 884a 1dbd
000003c0: b72a 253d 44da 0bbd b3e3 88bd 03f3 00be
000003d0: 46dc ef3d 4e58 9fbd 6cc3 d3bd abd9 0f3d
000003e0: 96df f6bc 61cf 653d a5cc 82bd 95e1 93bc
000003f0: 78db ea3d e21e d33d 525d f23c 3099 fd3c

lstm.weight_hh_l0 f4 [256, 64]
0.05913556 -0.07632047 0.06297741 -0.06206157 0.00083583087 0.03596915 -0.122308135 0.045466688
-0.113923304 0.08874583 0.0016908614 0.08579987 -0.03076447 -0.012888562 -0.073246084 -0.09878954
-0.10111198 0.038887817 0.072406456 0.065169714 -0.071665704 0.12422663 0.09879283 -0.10285669
-0.0018863938 -0.11089758 0.11697858 0.1172253 -0.07397301 -0.02198052 -0.022839816 -0.11637205
0.0074362224 -0.03886238 -0.07843561 -0.10053396 0.014597185 -0.110280134 -0.07835255 -0.032106467
0.037625927 -0.02248542 -0.00124059 0.048340283 -0.0757461 -0.005531857 -0.10240773 0.11964407
0.05563704 0.09968206 0.013756618 -0.07069629 -0.06849901 0.06230568 -0.03983971 0.10722893
0.1039506 0.004230109 0.11866425 -0.01300674 0.106087334 0.015082621 -0.034814265 -0.012317097
-0.069847085 -0.05922631 0.11180555 -0.09404973 0.06215357 -0.016639039 -0.05510526 0.005164452
0.03682571 0.09408268 -0.086906016 -0.052788954 -0.113160975 0.03535564 0.11785707 -0.107057296
-0.085769355 -0.05201587 -0.04646084 -0.10306535 0.121185265 -0.054455083 0.04258316 0.042159878
0.04540248 0.04484373 0.045366548 -0.10187276 0.041886896 -0.096847564 -0.019788343 0.04673376
-0.033961207 0.09130632 0.039595824 -0.007082088 -0.030128323 0.005250955 -0.07829433 -0.01891138
-0.08232794 0.09498785 0.06875062 -0.03034872 -0.040805705 -0.024929376 0.10747616 0.07196241
0.04467382 -0.020118052 0.080734126 -0.009155264 0.12398761 -0.08063664 0.043284625 0.021126995
-0.004077505 0.08357077 -0.010176771 -0.08192912 0.07091445 -0.08135054 -0.09306212 -0.00830636
0.075846605 0.03592315 0.03543577 0.079770304 0.09220797 -0.11453204 0.071056485 -0.10327374
-0.033536334 -0.010151061 0.105941154 0.09491946 0.05569454 0.07917938 -0.10152692 0.015697792
-0.07386526 -0.09483383 -0.045599725 0.031614523 0.005235173 -0.11225873 -0.025008116 0.030410223
0.014454614 -0.07314779 0.017743416 0.0004686351 0.06993451 0.09267609 0.10401073 -0.037034243
0.011463073 0.08693591 -0.0278434 -0.033610858 0.08711356 0.03213876 0.08372484 0.053513754
0.020998463 -0.040798847 0.060848434 -0.11726873 -0.11144583 -0.09510314 -0.08640349 0.03101097
0.010659349 -0.0844069 0.009348982 -0.11797211 -0.009252003 0.031096224 -0.06986303 0.041486274
0.0054395134 0.032962456 0.004676722 -0.105089076 0.117119126 -0.019635556 0.039935794 -0.0036044095
0.016380366 -0.05441051 -0.10125868 -0.0057235495 -0.106079474 -0.08003855 -0.105027184 -0.11026674
-0.10609898 0.11210295 -0.021484269 0.10356981 -0.081581056 0.07296286 -0.063267976 0.10004838
0.06403466 0.12387424 -0.083962165 0.10918436 -0.0044335295 0.045820516 -0.10633561 0.07948214
0.023894025 -0.07042997 0.03780482 0.060025446 -0.09258346 0.026397983 -0.09335968 -0.07098147
-0.06971356 -0.0770844 0.00845225 -0.013251807 0.0793802 -0.01731146 0.066994466 -0.09461437
0.08057652 -0.023568533 -0.082784235 0.06269151 0.12290248 -0.06646033 -0.08161825 -0.066360496
-0.0908833 0.09624452 0.09330738 -0.07561247 0.055790357 0.07111985 0.035125833 -0.020343132
-0.07801621 -0.009025452 0.006128332 -0.096901335 -0.030500334 0.06711238 -0.120872036 -0.11461099
00000000: 2138 723d e84d 9cbd 4dfa 803d 4634 7ebd
00000010: a91b 5b3a 6354 133d b07c fabd 473b 3a3d
00000020: 9f50 e9bd 60c0 b53d e59f dd3a d8b7 af3d
00000030: c505 fcbc 8c2a 53bc 0b02 96bd 2c52 cabd
00000040: cc13 cfbd d548 1f3d d649 943d b377 853d
00000050: 78c5 92bd 886a fe3d e553 ca3d 87a6 d2bd
00000060: df40 f7ba 451e e3bd 7792 ef3d d113 f03d
00000070: 297f 97bd 7e10 b4bc 911a bbbc 7854 eebd
00000080: 8eab f33b 292e 1fbd d9a2 a0bd c0e4 cdbd
00000090: 0829 6f3c 8dda e1bd 4d77 a0bd 1282 03bd
000000a0: a51d 1a3d 5833 b8bc 4b9b a2ba 7600 463d
000000b0: c520 9bbd 9444 b5bb 25bb d1bd f307 f53d
000000c0: aae3 633d 1c26 cc3d 7063 613c 37c9 90bd
000000d0: 3549 8cbd 3e34 7f3d f72e 23bd d79a db3d
000000e0: 0de4 d43d ba9c 8a3b 3e06 f33d 391a 55bc
000000f0: 5144 d93d 191d 773c 6799 0ebd a6cd 49bc
00000100: fd0b 8fbd 4a97 72bd 4ffa e43d 259d c0bd
00000110: be94 7e3d 984e 88bc 0eb6 61bd 903a a93b
00000120: 8ed6 163d 6cae c03d c8fb b1bd 3b39 58bd
00000130: f1c0 e7bd 13d1 103d 0c5f f13d db40 dbbd
00000140: d8a7 afbd 980e 55bd b94d 3ebd ed13 d3bd
00000150: fb2f f83d 4b0c 5fbd ae6b 2e3d d6af 2c3d
00000160: f3f7 393d 0fae 373d 46d2 393d aaa2 d0bd
00000170: 9891 2b3d 0458 c6bd 2a1b a2bc e66b 3f3d
00000180: e81a 0bbd cffe ba3d 3b2f 223d dc10 e8bb
00000190: accf f6bc 3410 ac3b c758 a0bd 0aec 9abc
000001a0: 8d9b a8bd fd88 c23d 20cd 8c3d e19d f8bc
000001b0: e223 27bd b138 ccbc 761c dc3d 0761 933d
000001c0: e5fb 363d 9dce a4bc ef57 a53d f6ff 15bc
000001d0: 37ed fd3d d324 a5bd 384b 313d 8512 ad3c
000001e0: 979c 85bb 2727 ab3d 79bc 26bc 74ca a7bd
000001f0: 983b 913d 1d9b a6bd 5a97 bebd 6617 08bc
00000200: 7755 9b3d 2724 133d 1925 113d 9d5e a33d
00000210: 88d7 bc3d c68f eabd 1086 913d 2f81 d3bd
00000220: 655d 09bd a350 26bc adf7 d83d 2265 c23d
00000230: f51f 643d cc28 a23d 59ed cfbd a898 803c
00000240: ab46 97bd 3d38 c2bd c7c6 3abd 3b7e 013d
00000250: d08b ab3b e8e7 e5bd d2dd ccbc dc1e f93c
00000260: 0cd3 6c3c 82ce 95bd a45a 913c 23b3 f539
00000270: d339 8f3d f6cc bd3d 9403 d53d 38b1 17bd
00000280: 9dcf 3b3c 740b b23d d817 e4bc 8aab 09bd
00000290: 9868 b23d efa3 033d ee77 ab3d 3d31 5b3d
000002a0: f804 ac3c b11c 27bd 353c 793d 972a f0bd
000002b0: b63d e4bd 6fc5 c2bd 50f4 b0bd b80a fe3c
000002c0: 8da4 2e3c 86dd acbd 792c 193c 5d9b f1bd
000002d0: b795 17bc 82bd fe3c 5914 8fbd 83ed 293d
000002e0: f23d b23b a403 073d 303f 993b f138 d7bd
000002f0: 27dc ef3d bfda a0bc b793 233d f537 6cbb
00000300: 1e30 863c 8edd 5ebd b660 cfbd 9d8c bbbb
00000310: 3240 d9bd 40eb a3bd 7e18 d7bd 87d3 e1bd
00000320: 6c4a d9bd 3b96 e53d c7ff afbc 691c d43d
00000330: f813 a7bd 8d6d 953d a492 81bd 2ae6 cc3d
00000340: 9b24 833d c7b1 fd3d 5bf4 abbd 0d9c df3d
00000350: 2447 91bb 4bae 3b3d 7cc6 d9bd 88c7 a23d
00000360: 67bd c33c 973d 90bd 3ad9 1a3d 3edd 753d
00000370: 669c bdbd 9540 d83c 5c33 bfbd bc5e 91bd
00000380: fcc5 8ebd 6dde 9dbd 4e7b 0a3c 1b1e 59bc
00000390: 1692 a23d c3d0 8dbc 6534 893d 2ec5 c1bd
000003a0: 4d05 a53d cc12 c1bc c88a a9bd 6864 803d
000003b0: 4cb4 fb3d 5a1c 88bd 7827 a7bd 03e8 87bd
000003c0: 0621 babd d91b c53d f117 bf3d b6da 9abd
000003d0: 6e84 643d 49a7 913d 1be0 0f3d a4a6 a6bc
000003e0: f6c6 9fbd 7ddf 13bc 2dd0 c83b 3574 c6bd
000003f0: d6db f9bc 3772 893d c28b f7bd 2bb9 eabd

lstm.bias_ih_l0 f4 [256]
-0.04739209 -0.04735447 -0.07066726 -0.020344712 -0.095240526 0.017342212 0.007142874 -0.021447023
0.060434017 -0.06870497 0.102579445 0.008083842 0.0711044 0.019899739 0.008268477 0.10345054
0.057170812 -0.08184924 -0.108116746 0.032810144 0.01559578 -0.014508051 -0.04188934 0.10266886
0.031891707 0.033131626 0.041748755 0.027525878 -0.008188713 -0.053533826 -0.0719011 0.031333134
-0.1036692 -0.10564673 -0.0007510683 0.054826096 0.046640564 0.01196626 -0.08981928 0.108993195
-0.068666816 0.07014515 -0.055487003 -0.073768005 0.04924834 0.100482225 -0.06158925 -0.11093333
0.11267692 -0.11114716 0.021166164 0.057297602 0.056021538 0.11647014 0.08039057 0.069650054
-0.10257572 0.05831675 0.055005565 0.10935715 0.03545129 0.08030018 -0.05783933 -0.0904953
-0.10237598 -0.010928595 0.10940589 0.0037259765 -0.11153181 0.009252192 0.02397226 -0.09541189
0.01958729 0.07144237 -0.06751905 0.0125836 -0.069335334 -0.11192843 0.012340618 -0.03451364
-0.11317085 0.05170519 0.05750423 -0.09638702 -0.08708557 0.0158629 -0.12026612 -0.10924347
0.08039285 -0.058683816 -0.023509294 -0.036240194 0.1138221 -0.106172785 0.10463694 -0.08813717
-0.12278496 0.115043275 0.079694234 0.014989057 0.11309318 0.09904705 0.011100631 0.053227805
0.08063944 0.0467335 -0.06570603 -0.043136597 0.06439535 -0.11126164 0.07239683 0.12192394
-0.019887367 0.059231404 -0.011696663 0.045257278 -0.06885439 0.102293536 0.12001322 0.0031185735
-0.0555835 -0.009719863 -0.0241572 0.12353595 0.02173968 0.017222382 0.021206444 0.071649276
-0.10575977 0.09834878 -0.02977612 0.060697526 -0.09908912 -0.077261314 -0.043591358 -0.057428412
0.1169049 0.08351619 0.032682817 -0.032054704 -0.040634267 0.020150952 -0.07604876 0.05936741
-0.10867277 -0.06928765 -0.032614395 -0.0917682 0.020009926 -0.079842426 -0.08794669 0.10864697
0.07023902 -0.002754287 0.12068254 0.036184613 -0.03719095 0.028301843 0.008840951 -0.12528427
0.013029484 -0.04321239 -0.012259339 0.10385932 0.06124075 -0.040138837 -0.04884187 0.092548154
-0.017677153 0.034078345 -0.08634184 0.08139798 0.10348619 0.09390262 0.07455721 0.048549585
-0.06808957 -0.03391114 -0.08614119 0.07024719 -0.121041805 0.014137806 0.08309569 -0.02991803
-0.038224567 -0.084673226 0.009936137 -0.080630615 -0.0665121 -0.11432505 -0.07491252 -0.07016179
0.051354717 -0.019527292 -0.086613074 -0.07958758 0.08489726 0.012657463 -0.0356193 -0.104041405
-0.10212131 -0.08941374 0.06386924 -0.06548863 -0.053857435 -0.00687354 -0.11147799 -0.08756696
-0.004960156 -0.09405895 -0.081054926 0.11979037 -0.007250294 -0.061766095 -0.020630583 -0.08596244
0.008155261 -0.055681832 -0.07121466 0.10555495 0.048754334 0.044488654 0.032673266 -0.08642074
0.033860672 0.010235107 0.081206895 0.08865948 0.042181883 0.04668641 -0.12202589 0.119703144
-0.07970459 0.08011118 -0.02478352 0.013215993 -0.030937498 -0.062164914 0.050350025 -0.026553856
-0.05857965 0.068339795 -0.039651975 0.07113277 -0.04091399 0.112849 -0.048378304 -0.08299293
-0.06357565 -0.051813163 0.12446252 0.046182517 0.05134953 0.08141339 -0.10105301 -0.1090621
00000000: 351e 42bd c3f6 41bd ffb9 90bd f4a9 a6bc
00000010: 770d c3bd 4111 8e3c c50e ea3b abb1 afbc
00000020: a989 773d 31b5 8cbd 2c15 d23d 1772 043c
00000030: 2f9f 913d c704 a33c 8278 073c e0dd d33d
00000040: f12b 6a3d 93a0 a7bd 506c ddbd ee63 063d
00000050: 7185 7f3c 2db3 6dbc 2894 2bbd 0d44 d23d
00000060: e1a0 023d 07b5 073d be00 2b3d f37d e13c
00000070: f429 06bc 4946 5bbd e240 93bd 2c57 003d
00000080: 8450 d4bd 505d d8bd 57e3 44ba 5491 603d
00000090: 2d0a 3f3d 220e 443c 2cf3 b7bd d337 df3d
000000a0: 30a1 8cbd 43a8 8f3d 5746 63bd ae13 97bd
000000b0: a1b8 493d a0c9 cd3d 0245 7cbd 0431 e3bd
000000c0: 28c3 e63d 1fa1 e3bd aa64 ad3c e4b0 6a3d
000000d0: d776 653d e687 ee3d d0a3 a43d b0a4 8e3d
000000e0: 3813 d2bd 8bdd 6e3d 844d 613d a4f6 df3d
000000f0: 5f35 113d 6c74 a43d efe8 6cbd 9a55 b9bd
00000100: 7faa d1bd da0d 33bc 3210 e03d 832f 743b
00000110: ca6a e4bd 8296 173c 7961 c43c 4f67 c3bd
00000120: 8675 a03c 6150 923d 6d47 8abd 722b 4e3c
00000130: afff 8dbd bc3a e5bd 4e30 4a3c 2d5e 0dbd
00000140: 1ec6 e7bd d2c8 533d 8e89 6b3d 8f66 c5bd
00000150: eb59 b2bd eaf2 813c 154e f6bd 0abb dfbd
00000160: 02a5 a43d 715e 70bd 9096 c0bc 9970 14bd
00000170: 901b e93d 1e71 d9bd e44b d63d 4381 b4bd
00000180: ae76 fbbd cf9b eb3d bb36 a33d a994 753c
00000190: 669d e73d 2ed9 ca3d 6cdf 353c 6605 5a3d
000001a0: 4a26 a53d a06b 3f3d e290 86bd 00b0 30bd
000001b0: b6e1 833d 25dd e3bd ca44 943d 42b3 f93d
000001c0: d5ea a2bc a19c 723d 5ca3 3fbc b25f 393d
000001d0: 8803 8dbd 467f d13d 7ec9 f53d fb60 4c3b
000001e0: 86ab 63bd 0f40 1fbc 52e5 c5bc 6b00 fd3d
000001f0: 6a17 b23c f415 8d3c 23b9 ad3c dbbc 923d
00000200: 9498 d8bd 166b c93d 0ded f3bc f89d 783d
00000210: 3def cabd 2e3b 9ebd da8c 32bd 0e3a 6bbd
00000220: d66b ef3d 890a ab3d 6bde 053d cb4b 03bd
00000230: 1e70 26bd 9c13 a53c 74bf 9bbd 3e2b 733d
00000240: d48f debd afe6 8dbd ac96 05bd f7f0 bbbd
00000250: dbeb a33c 6d84 a3bd 651d b4bd 4d82 de3d
00000260: 7ad9 8f3d 4581 34bb 6828 f73d 5136 143d
00000270: 8a55 18bd 44d9 e73c a3d9 103c 854a 00be
00000280: 9e79 553c 7aff 30bd 65db 48bc 32b4 d43d
00000290: 95d7 7a3d 9f68 24bd 6a0e 48bd e389 bd3d
000002a0: adcf 90bc bc95 0b3d fed3 b0bd fcb3 a63d
000002b0: 91f0 d33d 0450 c03d 73b1 983d eedb 463d
000002c0: 8b72 8bbd 68e6 0abd cb6a b0bd c2dd 8f3d
000002d0: c4e4 f7bd 42a2 673c 132e aa3d a816 f5bc
000002e0: 5d91 1cbd 2869 adbd 2ecb 223c aa21 a5bd
000002f0: 7f37 88bd 4023 eabd bc6b 99bd fcb0 8fbd
00000300: 5359 523d b3f7 9fbc 3262 b1bd d0fe a2bd
00000310: 9dde ad3d 3f61 4f3c 8be5 11bd a913 d5bd
00000320: fa24 d1bd 8d1e b7bd e0cd 823d e71e 86bd
00000330: 9d99 5cbd 6f3b e1bb 934e e4bd 4e56 b3bd
00000340: ce88 a2bb fba1 c0bd 2000 a6bd a754 f53d
00000350: e093 edbb 72fe 7cbd 7801 a9bc 130d b0bd
00000360: a59d 053c a212 64bd fed8 91bd 322d d83d
00000370: a0b2 473d bc39 363d 67d4 053d 5bfd b0bd
00000380: 7db1 0a3d 26b1 273c cd4f a63d 1a93 b53d
00000390: e9c6 2c3d 403a 3f3d b6e8 f9bd ec26 f53d
000003a0: 293c a3bd 5511 a43d cf06 cbbc e487 583c
000003b0: a370 fdbc a3a0 7ebd d43b 4e3d 7987 d9bc
000003c0: 37f1 6fbd bcf5 8b3d 1c6a 22bd 0fae 913d
000003d0: 6e95 27bd 601d e73d 5428 46bd 33f8 a9bd
000003e0: f333 82bd 0a3a 54bd 35e6 fe3d e129 3d3d
000003f0: e353 523d 10bc a63d e1f4 cebd f35b dfbd

lstm.bias_hh_l0 f4 [256]
0.07049312 0.11706845 0.06695237 0.120211154 0.006989778 0.020759257 0.027581519 -0.024945041
-0.019572947 -0.024356488 0.003520089 0.038950767 -0.08769358 -0.012696467 0.09495326 -0.029328628
-0.042582925 0.06527772 0.021456752 0.0014558387 -0.025883788 0.11065689 -0.0637839 0.07746825
-0.08017243 0.084143035 -0.007996931 0.007837543 -0.11906818 -0.071102895 0.105543554 0.026173038
-0.12187941 -0.08673522 0.102048025 0.0118376305 -0.025897387 0.086264804 0.03474064 -0.061959416
0.11945252 0.03430663 0.074098155 0.12489489 -0.07776125 -0.022670995 0.10544516 -0.042194918
-0.095114425 -0.0027357559 -0.03460139 -0.009087494 0.068777956 0.04207611 -0.117153674 -0.02975818
-0.059057627 0.10042467 -0.020568319 -0.10261747 -0.048433397 -0.028740887 -0.03982688 0.054441735
-0.05281883 0.04367792 -0.047949407 0.048330095 -0.035203066 0.011038275 -0.057347305 -0.07690767
0.018301036 -0.091290824 -0.11744211 -0.040932447 0.04728752 -0.09863378 0.08047578 0.108048946
0.09507838 -0.012049457 0.11290991 0.015464217 -0.09522941 -0.06270631 -0.049901847 1.4728178e-05
-0.10081659 -0.025076682 -0.12567998 -0.016548108 -0.051163126 -0.009993598 -0.0015779085 0.003061014
0.06098898 0.048387863 0.06565433 0.047662113 0.1170772 0.0077708336 0.043078106 0.05298754
0.112127244 0.014323781 0.06871152 -0.094748855 -0.03009749 -0.014487858 -0.04536194 -0.11941275
-0.121785335 0.03901585 -0.030383684 0.06010095 -0.055974685 -0.009904413 0.015295559 -0.12100391
0.11006213 0.029538553 0.058705717 -0.029511215 -0.063189134 -0.07007514 -0.012517971 0.058870304
-0.055092417 -0.009154389 0.10363952 -0.07014705 0.06685469 -0.052330423 -0.114663996 -0.08752168
-0.027046513 0.122829475 0.09897456 -0.124077946 0.07458256 -0.029669188 0.07260139 -0.0083568925
0.09827314 0.037763327 -0.116140544 -0.095074154 0.12157664 0.023503281 0.10708427 0.103801094
-0.0849468 0.048171163 -0.06852315 -0.07361272 0.053317703 0.10633307 -0.070978895 0.10065662
0.118293785 0.051587857 -0.07722577 -0.027079185 -0.09647597 -0.097131304 -0.03530658 0.12247103
0.041294187 0.03270875 -0.044614144 -0.081917435 0.037415843 0.070364654 0.00322571 0.061861858
0.028440895 -0.051154643 -0.075536706 0.0258014 0.08230586 0.04351746 -0.10746468 0.10881679
0.11365146 -0.00039049253 0.024378337 -0.09398691 0.06545011 0.083634526 -0.07547809 -0.028035052
0.11113908 -0.121964425 0.004863677 -0.024268832 0.01079514 -0.120708056 0.08437195 -0.11407486
-0.03442065 -0.031676434 0.10848534 -0.06226396 0.05459116 -0.08991633 -0.08744895 0.026954893
0.10098349 -0.006756179 -0.11217475 0.051046833 0.022624217 0.008328212 0.12166854 0.111346416
-0.06242299 -0.044535123 0.028304916 -0.024318317 -0.052942142 0.049624026 0.037702154 0.083617784
-0.042654496 -0.107548624 0.0791044 0.056380223 -0.015410623 -0.11266109 -0.03277797 0.011054082
0.089830644 0.08202555 0.07074539 -0.018110098 -0.04564635 -0.09121196 -0.05207236 0.0903223
0.07998088 0.09884234 -0.050709814 -0.01642884 -0.08121786 -0.026158547 -0.09257411 0.0679368
0.1037632 -0.118046194 0.044527486 -0.05385373 0.08474543 -0.09632541 -0.12025245 -0.052415326
00000000: b25e 903d 95c1 ef3d 531e 893d 4431 f63d
00000010: 820a e53b 510f aa3c a3f2 e13c 8b59 ccbc
00000020: 7257 a0bc 4287 c7bc 4bb1 663b d78a 1f3d
00000030: b198 b3bd d804 50bc db76 c23d 9742 f0bc
00000040: 6f6b 2ebd 53b0 853d 12c6 af3c d7d1 be3a
00000050: 3d0a d4bc 14a0 e23d 22a1 82bd ada7 9e3d
00000060: 7131 a4bd 2f53 ac3d 8f05 03bc 0a69 003c
00000070: 05da f3bd 659e 91bd 3827 d83d d768 d63c
00000080: ea9b f9bd 3ca2 b1bd 8efe d03d 9ff2 413c
00000090: c226 d4bc 9aab b03d 344c 0e3d 28c9 7dbd
000000a0: 86a3 f43d 1c85 0c3d c6c0 973d e4c8 ff3d
000000b0: 4a41 9fbd 86b8 b9bc a2f3 d73d 94d4 2cbd
000000c0: 5acb c2bd 5e4a 33bb 30ba 0dbd b6e3 14bc
000000d0: 75db 8c3d 0058 2c3d 44ee efbd 6dc7 f3bc
000000e0: 69e6 71bd 73ab cd3d e47e a8bc 1c29 d2bd
000000f0: 1962 46bd 0272 ebbc 8321 23bd 4cfe 5e3d
00000100: 8f58 58bd 9ee7 323d 9966 44bd c7f5 453d
00000110: 1731 10bd e2d9 343c 02e5 6abd c581 9dbd
00000120: 0eec 953c aff6 babd 7d85 f0bd c8a8 27bd
00000130: 8fb0 413d 8200 cabd 7cd0 a43d c448 dd3d
00000140: 74b8 c23d 166b 45bc 503d e73d a15d 7d3c
00000150: a307 c3bd 2a6c 80bd e165 4cbd 0b19 7737
00000160: ee78 cebd 9d6d cdbc 41b2 00be e68f 87bc
00000170: 6d90 51bd 30bc 23bc d3d1 ceba 4b9b 483b
00000180: 95cf 793d 5a32 463d c775 863d 5939 433d
00000190: 2cc6 ef3d 7aa2 fe3b ab72 303d 7609 593d
000001a0: f8a2 e53d 4bae 6a3c a0b8 8c3d b00b c2bd
000001b0: 038f f6bc 7b5e 6dbc 71cd 39bd ac8e f4bd
000001c0: 976a f9bd 15cf 1f3d 34e7 f8bc 6a2c 763d
000001d0: b645 65bd 1e46 22bc 399a 7a3c e6d0 f7bd
000001e0: 4168 e13d d6fa f13c 6875 703d 81c1 f1bc
000001f0: 4e69 81bd 8e83 8fbd 2d18 4dbc fd21 713d
00000200: 96a8 61bd 4afc 15bc f540 d43d 42a9 8fbd
00000210: 1deb 883d 6d58 56bd f5d4 eabd 913e b3bd
00000220: a690 ddbc 058e fb3d 2db3 ca3d 941c febd
00000230: bebe 983d cc0c f3bc 0ab0 943d 59eb 08bc
00000240: 6e43 c93d b8ad 1a3d 18db edbd 3db6 c2bd
00000250: 2cfd f83d f489 c03c ff4e db3d ab95 d43d
00000260: 96f8 adbd 204f 453d de55 8cbd 44c2 96bd
00000270: aa63 5a3d 27c5 d93d 625d 91bd 0f25 ce3d
00000280: 0344 f23d ca4d 533d 8b28 9ebd 2bd5 ddbc
00000290: 3195 c5bd c7ec c6bd a29d 10bd 17d2 fa3d
000002a0: 1824 293d 9cf9 053d 52bd 36bd 54c4 a7bd
000002b0: 5b41 193d 581b 903d 6f66 533b dc62 7d3d
000002c0: e1fc e83c 8887 51bd fdb2 9abd 755d d33c
000002d0: fa8f a83d 5d3f 323d 7116 dcbd 56db de3d
000002e0: 19c2 e83d 05bb ccb9 14b5 c73c 367c c0bd
000002f0: b50a 863d 9448 ab3d 4294 9abd c4a9 e5bc
00000300: e39c e33d 7cc8 f9bd 7b5f 9f3b 6ecf c6bc
00000310: 19de 303c c935 f7bd 33cb ac3d 15a0 e9bd
00000320: abfc 0cbd 26bf 01bd 902d de3d 7e08 7fbd
00000330: fb9a 5f3d 0e26 b8bd 6f18 b3bd 82d0 dc3c
00000340: 6fd0 ce3d f062 ddbb e0bb e5bd 7c16 513d
00000350: 6c56 b93c 0e73 083c 5b2d f93d 9709 e43d
00000360: 40af 7fbd 766a 36bd b6df e73c 3537 c7bc
00000370: dcd9 58bd 9042 4b3d 936d 1a3d cd3f ab3d
00000380: 7bb6 2ebd 7442 dcbd 7d01 a23d f3ee 663d
00000390: d67c 7cbc dcba e6bd 3142 06bd 2e1c 353c
000003a0: 21f9 b73d 03fd a73d f6e2 903d a15b 94bc
000003b0: abf7 3abd 56cd babd d449 55bd e6fa b83d
000003c0: 04cd a33d da6d ca3d 18b5 4fbd c695 86bc
000003d0: 8d55 a6bd 734a d6bc 7f97 bdbd 7322 8b3d
000003e0: cd81 d43d 34c2 f1bd 7462 363d bb95 5cbd
000003f0: 038f ad3d 4246 c5bd eb46 f6bd 74b1 56bd

lstm.weight_ih_l1 f4 [256, 64]
-0.097864375 0.06253085 -0.087914914 -0.027948238 0.06187529 -0.0016304232 0.12470678 -0.087720945
0.10529602 0.042829793 -0.084554486 -0.07101367 -0.10419371 0.07421019 0.04094533 -0.0068549495
0.09643688 -0.039517786 0.0950644 0.09854189 0.10601476 0.060493123 0.084273785 0.12105643
-0.06498571 -0.024036603 0.042147364 -0.033237427 -0.086448886 0.006999083 0.0034424057 -0.07243952
0.102178715 -0.014350234 -0.04533427 -0.058986492 -0.031933375 0.024907786 -0.010173526 -0.10592693
-0.11529366 -0.06254791 -0.024610674 0.12240999 -0.11323783 -0.02731691 0.020808116 0.10849914
0.044712592 -0.058094088 -0.10392868 -0.048861925 -0.080221616 0.09439861 -0.0054712417 -0.06743925
-0.014787455 -0.031125017 0.0339431 0.12026344 0.0140514765 0.086652875 0.05662996 -0.110559255
0.06466128 -0.038663134 0.08511214 -0.042108897 -0.09819592 0.05228695 -0.06103052 -0.10257492
0.091023065 0.103257395 0.04427753 -0.0393467 -0.041961875 -0.10028174 0.1183007 -0.05049979
-0.033952806 -0.049195785 -0.049673315 0.12021867 0.12314516 -0.026246699 -0.041040424 0.067182586
-0.116794296 0.05012115 -0.07264161 0.119843125 0.058124237 0.07478949 0.08337647 0.038490556
0.117901005 0.016918253 -0.11178764 -0.07221976 0.034179434 0.083179526 0.0031646532 0.030138193
0.113339454 0.10984413 -0.010229429 -0.1188034 -0.12309094 0.061294418 -0.030418115 0.03970638
0.03817059 -0.10989492 0.002821733 0.12627175 0.08873939 0.052533746 -0.04093045 -0.08322183
0.050784644 -0.05316007 0.044549104 -0.11822148 -0.10631822 0.11151157 -0.087370396 -0.060504965
-0.041242905 0.1172082 0.0687606 -0.0037587783 -0.07794068 -0.055570506 -0.05913631 -0.0003511585
-0.009668336 0.016517296 -0.038669143 0.051356006 0.03427896 0.047543883 -0.010002762 -0.108709075
-0.100379236 0.019135922 0.052530404 0.10775754 0.04151061 -0.078643344 0.0154600935 0.077813014
-0.04765471 -0.007931598 0.09377836 0.09535823 0.014586365 -0.016557151 0.08725938 0.094920106
-0.11462495 -0.08696251 -0.02720448 -0.08026781 0.040834773 -0.06505398 -0.052272204 -0.111099124
-0.111726515 -0.009813816 -0.10247615 0.062108494 -0.067590445 -0.071576245 0.05908908 -0.042353246
0.101478904 0.07537492 0.11485475 -0.013969273 0.013643418 -0.044271477 0.086402774 0.034607947
0.09450119 0.08952315 0.0601246 0.094884604 -0.06517863 0.00797256 0.10030158 0.018539574
-0.0439137 0.032733444 -0.10616073 -0.116530314 -0.07531569 -0.058741495 0.065406136 -0.12084606
0.11952413 0.015931217 0.10340237 0.07481354 -0.06371755 0.04553032 -0.114342764 0.11798522
-0.027549356 0.09233829 0.014819923 -0.03938703 -0.016897274 -0.11482164 0.014397374 0.023286728
-0.0713691 -0.12258227 -0.04000128 0.04836385 0.018966462 0.09327199 -0.006056764 -0.019572955
-0.05061337 -0.0070581925 0.12050712 -0.044841323 0.07129523 -0.049479116 -0.0030193403 0.08153237
-0.013276331 0.1211353 0.021274008 0.019324478 0.008736151 -0.07425163 -0.079989195 -0.063665174
0.021843676 -0.09828378 -0.03458537 0.08948228 0.034251753 0.027148625 -0.12363502 0.09821205
0.012763903 -0.12172468 -0.05881107 -0.09083157 0.03770326 0.022428744 -0.029929057 0.12238819
00000000: 1e6d c8bd 2d10 803d bc0c b4bd b4f3 e4bc
00000010: f270 7d3d edb3 d5ba 4566 ff3d 0aa7 b3bd
00000020: 71a5 d73d 4b6e 2f3d e72a adbd 9d6f 91bd
00000030: 8363 d5bd 83fb 973d 4ab6 273d 7c9f e0bb
00000040: b380 c53d 67dd 21bd 20b1 c23d 55d0 c93d
00000050: 441e d93d a3c7 773d bc97 ac3d 6fec f73d
00000060: 3a17 85bd 69e8 c4bc b7a2 2c3d f823 08bd
00000070: 1d0c b1bd 9058 e53b fc99 613b 2c5b 94bd
00000080: 1343 d13d 3e1d 6bbc 6db0 39bd d29b 71bd
00000090: 92cc 02bd 6a0b cc3c dcae 26bc 38f0 d8bd
000000a0: 151f ecbd 1e19 80bd 539c c9bc 17b2 fa3d
000000b0: 3ce9 e7bd b6c7 dfbc c875 aa3c cc34 de3d
000000c0: 8d24 373d 11f4 6dbd 8fd8 d4bd 7123 48bd
000000d0: 3b4b a4bd 0f54 c13d 1a48 b3bb 971d 8abd
000000e0: 1547 72bc e4f9 febc ec07 0b3d ae4c f63d
000000f0: 2a38 663c 1077 b13d d1f4 673d e46c e2bd
00000100: 226d 843d 3c5d 1ebd 464f ae3d 617a 2cbd
00000110: f11a c9bd d72a 563d 23fb 79bd cd12 d2bd
00000120: 4d6a ba3d 9d78 d33d 5b5c 353d 012a 21bd
00000130: 37e0 2bbd 8360 cdbd a347 f23d ded8 4ebd
00000140: 1912 0bbd 8581 49bd 3f76 4bbd 3535 f63d
00000150: 8833 fc3d 5103 d7bc 011a 28bd 0697 893d
00000160: d931 efbd d64b 4d3d 20c5 94bd 5070 f53d
00000170: ae13 6e3d 3b2b 993d 48c1 aa3d 46a8 1d3d
00000180: 1576 f13d 2698 8a3c ebf0 e4bd f4e7 93bd
00000190: bcff 0b3d 075a aa3d 1266 4f3b 5fe4 f63c
000001a0: 841e e83d f6f5 e03d 5699 27bc 324f f3bd
000001b0: 1a17 fcbd db0f 7b3d 692f f9bc 28a3 223d
000001c0: c458 1c3d 9610 e1bd d3ec 383b 624d 013e
000001d0: ffbc b53d a02d 573d b0a6 27bd 3570 aabd
000001e0: 8f03 503d 60be 59bd 1f79 363d 1a1e f2bd
000001f0: 5ebd d9bd 2e60 e43d 40ef b2bd 0ed4 77bd
00000200: 52ee 28bd da0a f03d 5cd2 8c3d d655 76bb
00000210: 5d9f 9fbd e69d 63bd ea38 72bd b21b b8b9
00000220: f167 1ebc 484f 873c 8963 1ebd ad5a 523d
00000230: 1868 0c3d 60bd 423d a0e2 23bc dda2 debd
00000240: a193 cdbd f0c2 9c3c 1f2a 573d fcaf dc3d
00000250: 0807 2a3d c30f a1bd 554c 7d3c 6e5c 9f3d
00000260: 9631 43bd 89f3 01bc de0e c03d 2d4b c33d
00000270: a6fb 6e3c dda2 87bc 0cb5 b23d 7965 c23d
00000280: 7cc0 eabd 6719 b2bd eedb debc 7363 a4bd
00000290: 5d42 273d 053b 85bd 611b 56bd f087 e3bd
000002a0: dfd0 e4bd 21ca 20bc 04df d1bd 7a65 7e3d
000002b0: dc6c 8abd 9196 92bd 6407 723d 997a 2dbd
000002c0: 2cd4 cf3d 2b5e 9a3d f838 eb3d 61df 64bc
000002d0: a588 5f3c 0256 35bd f0f3 b03d 10c1 0d3d
000002e0: d789 c13d ea57 b73d 3645 763d dc52 c23d
000002f0: 607c 85bd 579f 023c ea6a cd3d 4ee0 973c
00000300: dade 33bd 8113 063d cc6a d9bd 72a7 eebd
00000310: 1d3f 9abd ec9a 70bd a7f3 853d 247e f7bd
00000320: 11c9 f43d 2f82 823c 9fc4 d33d d737 993d
00000330: 597e 82bd 007e 3a3d 8a2c eabd 3ca2 f13d
00000340: 30af e1bc db1b bd3d 43cf 723c 4b54 21bd
00000350: 276c 8abc 9c27 ebbd f7e2 6b3c cfc3 be3c
00000360: f629 92bd 6a0c fbbd 62d8 23bd 2c19 463d
00000370: 8e5f 9b3c 6305 bf3d d277 c6bb 7657 a0bc
00000380: f74f 4fbd 6948 e7bb 70cc f63d 89ab 37bd
00000390: 3c03 923d 9daa 4abd 20e0 45bb 71fa a63d
000003a0: f884 59bc c915 f83d d446 ae3c 5e4e 9e3c
000003b0: 1322 0f3c 3d11 98bd 60d1 a3bd e362 82bd
000003c0: 82f1 b23c 0249 c9bd 64a9 0dbd 7c42 b73d
000003d0: 914b 0c3d cb66 de3c 5b34 fdbd 6623 c93d
000003e0: b01f 513c ca4a f9bd e0e3 70bd e705 babd
000003f0: bc6e 1a3d 7cbc b73c c82d f5bc a9a6 fa3d

lstm.weight_hh_l1 f4 [256, 64]
-0.03108656 -0.042193044 0.021061795 0.05016867 -0.06410068 0.12244619 -0.054136965 -0.017339448
-0.090181336 0.07964766 0.0073907836 0.0047733067 -0.11254925 -0.015313681 0.084293514 0.015373385
0.102758884 -0.009537141 -0.0024272338 -0.07755785 0.0010845021 0.09246036 -0.06295946 0.1082353
-0.039544832 0.07017197 -0.101010256 0.08227987 -0.058072183 0.0028120002 -0.03306926 0.019703796
0.003280644 0.026944121 0.015482595 0.09949631 0.08248442 -0.07853862 0.029161647 -0.028393105
-0.1112531 0.049042292 0.009765739 0.005491383 -0.120906256 0.061505035 0.05655768 0.100387484
0.022211224 0.059687115 0.079962745 0.01767273 0.07164785 0.099266835 0.046975996 -0.026189065
-0.0585375 0.0033047292 0.047606267 0.12112072 0.030078009 0.04730431 -0.103662 -0.034615107
0.0025644065 0.011152412 0.08182128 0.07681694 0.081528924 0.08679133 -0.044946305 -0.054599468
-0.009310122 -0.043941494 0.00224679 -0.091345176 -0.06354369 -0.026169695 -0.11078335 0.05273977
-0.12094484 0.12300048 -0.043031227 0.02361178 -0.04482096 0.010945273 -0.096198 0.025196578
0.10505933 0.11802568 -0.008855375 0.04941772 0.060636643 0.09277922 -0.07239367 0.03677385
-0.08422446 -0.012323524 0.104668826 -0.0016392902 0.07883574 -0.072101764 0.1185661 0.10384971
0.10978277 -0.08187324 -0.07921122 0.038026996 0.043218702 -0.025739903 0.08722556 0.026527368
-0.057142306 -0.09499743 0.05908874 0.1126891 -0.0450209 -0.06653126 -0.102679744 0.121468656
0.028653018 -0.07928165 -0.01751684 -0.043188524 -0.09468932 0.09675205 0.01648694 -0.10621808
0.012831659 0.09725489 0.065453134 -0.055374645 -0.11187069 0.11846931 0.03604386 -0.102847934
-0.030839715 -0.050471026 0.050826315 -0.029934257 0.10052099 0.006721604 -0.05665996 0.11746389
-0.077175416 0.046417363 0.03697257 0.088102356 0.12356979 0.07662558 0.1072738 0.045778725
-0.09875716 -0.09800723 0.018222371 -0.034442645 -0.07501497 0.07876132 0.035644006 -0.06368538
-0.1249795 -0.017942464 -7.3120915e-05 -0.079465 -0.0070629073 0.076099314 0.055686794 -0.042962387
-0.04324492 -0.04947269 -0.07054471 -0.07862898 0.11867022 -0.051637083 -0.07486462 0.009016335
0.04015345 -0.032554593 -0.03230348 0.04176149 0.1179802 -0.024042178 0.06191778 0.04943262
-0.023218751 0.008388586 -0.06294773 0.0260864 -0.10303624 -0.0248168 -0.028145025 -0.069221474
0.061195556 0.019346736 0.0062856963 -0.07137005 0.06862225 -0.066137195 0.041893844 0.005295378
-0.07040514 0.00407229 0.037367485 -0.07095359 0.018992439 0.032988694 -0.10155108 -0.0011189539
0.031604785 -0.04626934 -0.054209635 -0.08639675 0.10171291 0.079849 -0.10503444 -0.04033048
0.005402426 0.07887302 0.056937255 -0.11045445 0.045883697 0.11845659 -0.12104685 -0.06891212
0.0970403 0.037217934 0.017341534 0.06542167 0.09537503 -0.018094193 0.084002525 -0.11608939
0.073919535 0.08002571 -0.059232954 0.041645955 -0.038609274 0.069208644 -0.103908226 0.023943562
-0.05519998 0.05592905 0.047423918 0.074170984 0.0805058 -0.061859865 -0.011281456 0.05215462
-0.01387156 0.08830512 -0.09865275 -0.009955301 -0.10613638 -0.041376088 -0.033648185 -0.10390727
00000000: 3ea9 febc 9dd2 2cbd c989 ac3c aa7d 4d3d
00000010: 3847 83bd 11c5 fa3d b9be 5dbd 750b 8ebc
00000020: feb0 b8bd 501e a33d 632e f23b 6669 9c3b
00000030: 3980 e6bd 3ce6 7abc 14a2 ac3d a6e0 7b3c
00000040: 4073 d23d ab41 1cbc 3a12 1fbb a6d6 9ebd
00000050: da25 8e3a db5b bd3d e4f0 80bd 78aa dd3d
00000060: c3f9 21bd 52b6 8f3d 77de cebd 5982 a83d
00000070: 19dd 6dbd 8949 383b a273 07bd db69 a13c
00000080: 1300 573b ebb9 dc3c b6aa 7d3c b9c4 cb3d
00000090: 97ed a83d dbd8 a0bd 68e4 ee3c a898 e8bc
000000a0: aad8 e3bd 92e0 483d 7a00 203c 0ff1 b33b
000000b0: b39d f7bd b4ec 7b3d 07a9 673d f497 cd3d
000000c0: 50f4 b53c 7a7a 743d 82c3 a33d 67c6 903c
000000d0: 1cbc 923d 694c cb3d e769 403d 738a d6bc
000000e0: 05c5 6fbd 2894 583b cafe 423d 240e f83d
000000f0: 2866 f63c 2ac2 413d be4c d4bd 92c8 0dbd
00000100: 9a0f 283b 9bb8 363c ea91 a73d 3352 9d3d
00000110: a3f8 a63d a7bf b13d 9e19 38bd b1a3 5fbd
00000120: 7b89 18bc fffb 33bd e23e 133b 2e13 bbbd
00000130: 3223 82bd d461 d6bc 62e2 e2bd a805 583d
00000140: eeb1 f7bd ade7 fb3d 8341 30bd 7e6d c13c
00000150: 2f96 37bd cd53 333c 7503 c5bd 0e69 ce3c
00000160: 5929 d73d 73b7 f13d 2316 11bc 3c6a 4a3d
00000170: 215e 783d 0803 be3d 2243 94bd 2da0 163d
00000180: e07d acbd 9be8 49bc 9c5c d63d 74dd d6ba
00000190: a274 a13d 17aa 93bd c9d2 f23d 28af d43d
000001a0: cad5 e03d 28ad a7bd 7e39 a2bd 32c2 1b3d
000001b0: 1806 313d 7ddc d2bc 50a3 b23d ec4f d93c
000001c0: 0d0e 6abd 038e c2bd 0907 723d 8bc9 e63d
000001d0: d667 38bd 8b41 88bd c249 d2bd 8fc4 f83d
000001e0: bcb9 ea3c 6b5e a2bd 7a7f 8fbc 73e6 30bd
000001f0: 79ec c1bd f025 c63d 9f0f 873c dd88 d9bd
00000200: e13b 523c 922d c73d 4b0c 863d 86d0 62bd
00000210: 761c e5bd 0aa0 f23d baa2 133d f0a1 d2bd
00000220: 92a3 fcbc b5ba 4ebd 412f 503d b038 f5bc
00000230: f3dd cd3d e740 dc3b 4614 68bd e890 f03d
00000240: 250e 9ebd 2220 3e3d 8d70 173d 026f b43d
00000250: 2812 fd3d dfed 9c3d 5eb2 db3d 7982 3b3d
00000260: 3241 cabd 04b8 c8bd 1547 953c bb13 0dbd
00000270: 73a1 99bd 9d4d a13d 73ff 113d 7b6d 82bd
00000280: 41f5 ffbd 13fc 92bc 7e58 99b8 8cbe a2bd
00000290: f66f e7bb f5d9 9b3d d617 643d 54f9 2fbd
000002a0: 9621 31bd e0a3 4abd bf79 90bd 3b08 a1bd
000002b0: 5f09 f33d 6881 53bd 9f52 99bd 40b9 133c
000002c0: f277 243d f757 05bd a750 04bd 190e 2b3d
000002d0: 9a9f f13d 1af4 c4bc 809d 7d3d dc79 4a3d
000002e0: 4035 bebc 4870 093c bdea 80bd 25b3 d53c
000002f0: aa04 d3bd 9a4c cbbc 6590 e6bc fdc3 8dbd
00000300: 31a8 7a3d 0c7d 9e3c 3ef8 cd3b 762a 92bd
00000310: d289 8c3d f072 87bd e198 2b3d da84 ad3b
00000320: 9230 90bd d870 853b a60e 193d 1e50 91bd
00000330: 0896 9b3c 271f 073d 03fa cfbd dda9 92ba
00000340: 0574 013d eb84 3dbd ec0a 5ebd c7f0 b0bd
00000350: dc4e d03d df87 a33d 4c1c d7bd 9331 25bd
00000360: d506 b13b 2e88 a13d 0a37 693d f135 e2bd
00000370: 8bf0 3b3d 5e99 f23d 69e7 f7bd cc21 8dbd
00000380: 11bd c63d d571 183d d50f 8e3c ccfb 853d
00000390: fc53 c33d 463a 94bc 8409 ac3d 46c0 edbd
000003a0: 2063 973d 85e4 a33d 419e 72bd f394 2a3d
000003b0: c224 1ebd 43bd 8d3d d6cd d4bd 4a25 c43c
000003c0: 6019 62bd dc15 653d 953f 423d f5e6 973d
000003d0: 3ae0 a43d c560 7dbd dbd5 38bc 15a0 553d
000003e0: 8a45 63bc 51d9 b43d 740a cabd 8f1b 23bc
000003f0: 085e d9bd f979 29bd aed2 09bd 56cd d4bd

lstm.bias_ih_l1 f4 [256]
-0.07956662 0.06433975 -0.0923315 0.012796519 -0.028175263 -0.11357999 0.11517816 0.029892057
-0.11516032 -0.054203488 0.058231123 0.111599766 0.12091664 0.0023678609 0.0745132 0.041193105
0.0031670602 -0.08445119 0.04346599 0.07833162 -0.038371652 -0.10054899 0.05956986 -0.10759922
-0.08594847 0.09910419 0.038876653 0.12272561 0.053045183 0.058825094 -0.047375202 -0.0266943
0.110180415 -0.04763483 -0.033868216 0.05134291 0.030616688 0.028578168 -0.017022977 -0.004361774
0.0018987859 -0.10446061 -0.058669046 0.08076136 -0.06736978 0.081932776 0.036742948 -0.068773374
-0.024660408 0.0018836197 -0.06122005 -0.07328352 -0.02261522 0.0027763625 0.043375015 -0.12465791
-0.056708887 -0.013787233 -0.040674053 -0.032922324 0.09443424 0.07242407 0.051179945 -0.09583876
0.048743427 0.057186477 -0.039009556 -0.038695093 -0.11479031 -0.02651373 -0.03384031 -0.084131524
0.049507022 -0.025477381 -0.043378875 -0.082163066 0.058135502 -0.07080851 -0.0077779163 -0.02479856
0.0580645 -0.055022202 -0.10012905 0.014565134 -0.10794012 -0.10288857 -0.023452865 -0.01577683
0.1237826 -0.09114095 -0.03398273 -0.032656174 -0.050523747 -0.11189441 -0.0077715223 0.09345197
-0.06263109 0.101878166 -0.04002766 0.094609596 0.10803194 0.05217623 -0.07209913 0.093770206
0.11253709 -0.0004231752 0.04740136 0.06748787 0.062491614 0.05073433 -0.012117322 -0.0104016485
0.10314591 0.10016845 0.10342748 -0.10663862 0.04020795 -0.058053598 -0.06629549 -0.08945943
0.086567156 0.0054038023 0.053324904 0.077025786 0.063060194 0.034664117 0.005764591 0.1052947
0.04278609 0.056110214 0.025582517 -0.055453677 0.011660273 0.029510321 0.083989345 -0.084989704
0.050007515 -0.08479917 0.09644899 -0.046976488 0.01814044 0.023201017 0.030933794 0.023786997
0.06219116 0.09555465 -0.011015675 0.07178459 0.0020453217 0.07132764 0.017804176 -0.0825043
-0.0817853 0.023161178 -0.05982438 -0.113557406 -0.06589246 0.0056611095 0.11570542 -0.073716104
0.10689827 -0.0039708205 -0.10875224 -0.07587435 0.08160531 0.08254242 -0.053397715 0.01110618
-0.015793813 0.049846932 -0.10329671 0.002746913 0.076029584 0.08807146 -0.027612397 -0.030121244
0.08922649 0.11212144 0.040362008 -0.1247828 0.035475183 -0.050951183 0.090213984 0.09940674
0.08045455 -0.002404503 -0.0954708 0.115182996 0.08458884 0.007031317 0.035479754 -0.020411784
0.039690863 0.044511367 0.08553328 -0.08145918 -0.034506187 -0.016728846 -0.06338939 -0.10771324
-0.07825957 0.05224486 0.0420969 0.070397295 0.09191159 -0.09562744 -0.08650054 -0.11797856
-0.07336502 0.042589083 -0.06394899 -0.114870384 -0.051441625 -0.02048129 0.09848256 0.10189999
0.09027877 0.09531659 -0.0808967 -0.003295781 -0.01427044 0.0673192 -0.025808265 -0.06204471
0.021896731 -0.006193635 0.01589992 0.050380297 -0.04178867 -0.0732127 0.083653316 -0.033144698
-0.053239394 0.10455915 -0.091797955 -0.048085116 0.111297704 0.112654015 0.11663435 0.039254155
-0.07887256 0.087932594 -0.00922425 0.014302592 0.09930126 -0.036394566 0.10025652 0.02977432
0.12035992 -0.113388754 -0.008039734 -0.008145089 0.027570236 0.073637344 -0.110638 -0.090384424
00000000: d3f3 a2bd 8fc4 833d 4c18 bdbd 7ea8 513c
00000010: cfcf e6bc a09c e8bd 87e2 eb3d 30e0 f43c
00000020: 2dd9 ebbd 7a04 5ebd c283 6e3d 6b8e e43d
00000030: 25a3 f73d 1d2e 1b3b 609a 983d 1aba 283d
00000040: 748e 4f3b bff4 acbd 6509 323d 546c a03d
00000050: 982b 1dbd a1ec cdbd 87ff 733d fb5c dcbd
00000060: c005 b0bd 23f7 ca3d 203d 1f3d 9157 fb3d
00000070: e845 593d 95f2 703d 800c 42bd 01ae dabc
00000080: 45a6 e13d bd1c 43bd 66b9 0abd f14c 523d
00000090: d9cf fa3c c31c ea3c c573 8bbc 36ed 8ebb
000000a0: afe0 f83a 72ef d5bd f44e 70bd 3666 a53d
000000b0: 2bf9 89bd 5fcc a73d c67f 163d 0ed9 8cbd
000000c0: a004 cabc cae3 f63a e0c1 7abd ac15 96bd
000000d0: 8e43 b9bc a2f3 353b 00aa 313d a54c ffbd
000000e0: 9447 68bd d9e3 61bc d699 26bd 8fd9 06bd
000000f0: bd66 c13d 1253 943d 10a2 513d 1d47 c4bd
00000100: 30a7 473d 5e3c 6a3d 7cc8 1fbd bf7e 1ebd
00000110: 2f17 ebbd 5233 d9bc 239c 0abd 264d acbd
00000120: e0c7 4a3d f1b5 d0bc 0cae 31bd 1c45 a8bd
00000130: 7e1f 6e3d 0d04 91bd e4dd febb 5a26 cbbc
00000140: 0bd5 6d3d f65e 61bd 7610 cdbd 9aa2 6e3c
00000150: b60f ddbd 3eb7 d2bd 3920 c0bc 693e 81bc
00000160: bb81 fd3d 1ba8 babd 7a31 0bbd 7bc2 05bd
00000170: fdf1 4ebd e528 e5bd 41a8 febb bf63 bf3d
00000180: bb44 80bd 80a5 d03d 0bf4 23bd adc2 c13d
00000190: da3f dd3d beb6 553d b5a8 93bd 980a c03d
000001a0: d979 e63d 9ddd ddb9 ee27 423d 1537 8a3d
000001b0: 35f7 7f3d cdce 4f3d bb87 46bc ad6b 2abc
000001c0: 2a3e d33d 1e25 cd3d c9d1 d33d 5965 dabd
000001d0: 17b1 243d 9cc9 6dbd eec5 87bd 8136 b7bd
000001e0: 1f4a b13d 6112 b13b 376b 5a3d b2bf 9d3d
000001f0: b425 813d f6fb 0d3d e5e4 bc3b bfa4 d73d
00000200: 7840 2f3d d3d3 653d 6d92 d13c 6523 63bd
00000210: bb0a 3f3c a1bf f13c 9b02 ac3d 150f aebd
00000220: aed4 4c3d 30ab adbd 0c87 c53d 6b6a 40bd
00000230: 439b 943c 0f10 be3c de68 fd3c f3dc c23c
00000240: 28bc 7e3d 28b2 c33d 177b 34bc cd03 933d
00000250: ce0a 063b 3a14 923d 10da 913c 04f8 a8bd
00000260: 0d7f a7bd 83bc bd3c 690a 75bd c990 e8bd
00000270: a0f2 86bd d480 b93b f7f6 ec3d 78f8 96bd
00000280: 7bed da3d a81d 82bb 7fb9 debd 0364 9bbd
00000290: af20 a73d 000c a93d 90b7 5abd b2f6 353c
000002a0: 0762 81bc 4c2c 4c3d 3a8d d3bd 8d05 343b
000002b0: 66b5 9b3d cf5e b43d 6533 e2bc d4c0 f6bc
000002c0: 61bc b63d ed9f e53d a252 253d 208e ffbd
000002d0: 6d4e 113d 30b2 50bd 1cc2 b83d c395 cb3d
000002e0: 5bc5 a43d de94 1dbb 3286 c3bd 10e5 eb3d
000002f0: ea3c ad3d f666 e63b 3853 113d 9d36 a7bc
00000300: e392 223d 8d51 363d 132c af3d 12d4 a6bd
00000310: 5c56 0dbd ef0a 89bc 4cd2 81bd c298 dcbd
00000320: 8e46 a0bd b5fe 553d cd6d 2c3d 752c 903d
00000330: 253c bc3d 52d8 c3bd 3227 b1bd be9e f1bd
00000340: 6640 96bd e471 2e3d b0f7 82bd 2a41 ebbd
00000350: 74b4 52bd 61c8 a7bc 39b1 c93d f1b0 d03d
00000360: 13e4 b83d 5835 c33d 2bad a5bd 08fe 57bb
00000370: 90ce 69bc a6de 893d db6b d3bc 9822 7ebd
00000380: c660 b33c faf3 cabb 8d40 823c 925b 4e3d
00000390: 992a 2bbd 8af0 95bd 6e52 ab3d bcc2 07bd
000003a0: 8d11 5abd 1c23 d63d 9100 bcbd e6f4 44bd
000003b0: 0df0 e33d 26b7 e63d fddd ee3d f7c8 203d
000003c0: f087 a1bd 0116 b43d 4f21 17bc 6b55 6a3c
000003d0: 765e cb3d 7812 15bd 4a53 cd3d 46e9 f33c
000003e0: 437f f63d 5d38 e8bd 17b9 03bc fb72 05bc
000003f0: fada e13c 2dcf 963d 2d96 e2bd 781b b9bd
