Personal/DACON/데이터·AI를 활용한 물가 예측 경진대회  농산물 가격을 중심으로/models/best_model_양파.pth (torch, 378616 bytes, 10 tensors)

lstm.weight_ih_l0 f4 [256, 170]
0.101891436 -0.046932 -0.10963224 -0.037737384 -0.083908424 -0.06428856 -0.07722607 -0.02574489
0.024743378 0.004302746 -0.060603335 0.04892801 -0.1100784 0.01060163 -0.034958407 0.09619071
0.007172088 -0.119665466 -0.08304386 -0.004826539 -0.039332956 0.12116676 0.00620614 -0.07539832
-0.120440975 0.09011111 -0.048204377 0.05392515 -0.011129811 0.06977886 0.0059814453 -0.08572575
0.08599335 -0.04167724 -0.027876869 -0.11470408 -0.0210284 -0.038749494 0.024871822 0.05252383
0.01230444 0.100959554 -0.0889989 -0.12269375 0.09638904 -0.013605258 0.09045902 0.088875495
0.02134511 0.04355045 0.114957884 -0.1099809 -0.052658632 -0.089719385 0.039789796 -0.07575065
-0.07145138 -0.063172325 0.05331339 0.06717598 -0.07654655 -0.11263619 0.01218915 0.019640358
-0.10575944 -0.037288725 0.052009642 0.07411593 0.04231517 -0.08464584 0.06878531 0.0041830787
-0.09070858 -0.04992846 -0.12054491 -0.080009215 0.045008942 -0.025152102 0.1112832 -0.010176644
0.09310445 -0.0020220352 0.06940963 -0.0283454 0.08467186 0.033944204 -0.075704664 0.07719198
-0.06432459 -0.040767744 0.0018837154 -0.107921205 0.05495345 -0.062207606 -0.051673017 0.106662646
-0.019978285 -0.10218143 0.036533967 0.021370938 0.033761486 0.108141765 -0.110266134 0.07276313
0.07616165 0.10281954 -0.0011724234 0.08596343 0.08580725 0.10815662 -0.028918527 0.013278106
-0.073244035 0.034835383 0.12042697 -0.09179952 -0.02080533 0.10481904 -0.020541579 -0.072070055
0.1240329 -0.022637205 -0.035012156 -0.09245226 0.077511966 -0.058819756 -0.08381684 -0.014536242
0.109223634 -0.10173131 -0.067504376 -0.035097886 -0.018040583 0.029901955 -0.020521834 0.07168114
0.0940772 0.08835319 0.11875704 -0.079007596 -0.016485233 0.09356132 -0.040487252 0.073020995
-0.06587486 -0.039595798 0.03197651 -0.030520398 -0.091629796 0.07464004 0.015961492 -0.08015602
-0.090928644 -0.10460536 -0.07350309 -0.01980708 0.0361176 0.08106007 -0.0031808119 -0.023139544
-0.027022365 0.037409443 0.11556702 0.050631896 -0.02921515 0.11373863 0.092351444 0.118948646
0.040069576 -0.08594308 0.0155080585 0.028976375 -0.10555841 0.10769356 -0.077746645 -0.08247858
0.10645981 -0.0751711 0.026619166 0.020171512 0.081759706 -0.02550712 -0.10888287 0.04267537
0.015701056 0.051809076 0.057978615 -0.08872386 0.052412555 0.08456706 0.123963274 -0.052208833
0.037370443 0.049816016 0.121703476 0.12410295 -0.057338893 -0.09924324 -0.05266288 0.1180884
-0.07539073 -0.08195624 0.10568006 0.041780565 -0.014402509 -0.09713661 0.025182888 0.044203304
0.1132025 0.017504582 -0.029529408 0.10988778 0.07310094 -0.08310076 0.1229296 0.07644758
0.032559603 -0.02528738 -0.07718555 0.009028347 0.06773868 0.10984967 0.038191974 -0.09004879
-0.08566022 -0.0013707578 0.014308944 0.027692182 0.067421764 -0.06252403 0.04759127 0.05065441
0.054086015 0.10011455 0.00234209 0.058718875 -0.08222219 0.013631768 0.011001434 0.062670246
-0.058980003 -0.12172291 0.108768836 0.07722464 0.042336628 0.040560532 -0.08782463 0.075408235
-0.028896138 -0.09748675 0.045222834 -0.053449396 -0.032021344 0.009125342 -0.06736695 -0.055648435
00000000: 75ac d03d c53b 40bd de86 e0bd 8492 1abd
00000010: 2ed8 abbd b8a9 83bd b428 9ebd f3e6 d2bc
00000020: a0b2 ca3c 0dfe 8c3b 343b 78bd bd68 483d
00000030: c970 e1bd 76b2 2d3c 8c30 0fbd a3ff c43d
00000040: d603 eb3b 2b13 f5bd e612 aabd f227 9ebb
00000050: 981b 21bd 4726 f83d e05c cb3b 6f6a 9abd
00000060: c2a9 f6bd 2c8c b83d f471 45bd 9ee0 5c3d
00000070: d059 36bc 38e8 8e3d 0000 c43b fb90 afbd
00000080: 481d b03d c1b5 2abd 085e e4bc f9e9 eabd
00000090: c043 acbc cab7 1ebd febf cb3c 3a23 573d
000000a0: 9098 493c e2c3 ce3d 0e45 b6bd dc46 fbbd
000000b0: 9e67 c53d 97e8 5ebc 9442 b93d 5b04 b63d
000000c0: f1db ae3c f561 323d 0a6f eb3d ab3d e1bd
000000d0: 94b0 57bd ccbe b7bd a0fa 223d 2823 9bbd
000000e0: 1a55 92bd 7e60 81bd 245f 5a3d 8f93 893d
000000f0: 70c4 9cbd cead e6bd 00b5 473c d1e4 a03c
00000100: 6898 d8bd 10bc 18bd 1008 553d 18ca 973d
00000110: ac52 2d3d cc5a adbd 50df 8c3d 3512 893b
00000120: 6cc5 b9bd c981 4cbd 40e0 f6bd dfdb a3bd
00000130: 4c5b 383d c80b cebc 72e8 e33d f0bb 26bc
00000140: 8cad be3d 1f84 04bb a326 8e3d 9d34 e8bc
00000150: 7168 ad3d 1409 0b3d 0c0b 9bbd d416 9e3d
00000160: 9cbc 83bd 14fc 26bd 00e7 f63a cb05 ddbd
00000170: de16 613d 67cd 7ebd 16a7 53bd f271 da3d
00000180: 80a9 a3bc 7f44 d1bd a4a4 153d 1b12 af3c
00000190: 7c49 0a3d 6e79 dd3d 36d3 e1bd d604 953d
000001a0: a4fa 9b3d 0d93 d23d 00ac 99ba 980d b03d
000001b0: b6bb af3d 3881 dd3d 8ce6 ecbc 6a8c 593c
000001c0: f800 96bd 8caf 0e3d 6aa2 f63d 6301 bcbd
000001d0: f06f aabc 5dab d63d d046 a8bc 7799 93bd
000001e0: f604 fe3d a971 b9bc e868 0fbd 9c57 bdbd
000001f0: 98be 9e3d fcec 70bd 2aa8 abbd 6b29 6ebc
00000200: a4b0 df3d 8158 d0bd bc3f 8abd cdc2 0fbd
00000210: d8c9 93bc f2f4 f43c 681d a8bc 90cd 923d
00000220: 8cab c03d 84f2 b43d e436 f33d bcce a1bd
00000230: 0a0c 87bc 149d bf3d f6d5 25bd 088c 953d
00000240: 66e9 86bd 342f 22bd cdf9 023d ea05 fabc
00000250: 67a8 bbbd e1dc 983d adc1 823c d728 a4bd
00000260: cc38 babd 563b d6bd ca88 96bd 7542 a2bc
00000270: 0cf0 133d d202 a63d 2b75 50bb 248f bdbc
00000280: 025e ddbc a53a 193d 67ae ec3d 6463 4f3d
00000290: 9c54 efbc cdef e83d c122 bd3d 599b f33d
000002a0: ff1f 243d ed02 b0bd 8315 7e3c dd5f ed3c
000002b0: 022f d8bd 718e dc3d a239 9fbd 88ea a8bd
000002c0: 9a07 da3d 4ef3 99bd 7010 da3c ba3e a53c
000002d0: a271 a73d 4ff4 d0bc fbfd debd 5ecc 2e3d
000002e0: 809f 803c c135 543d fc7a 6d3d dbb4 b5bd
000002f0: 8cae 563d 7f31 ad3d 75e0 fd3d eed8 55bd
00000300: c011 193d e10b 4c3d ac3f f93d b029 fe3d
00000310: 30dc 6abd 0a40 cbbd 08b5 57bd 55d8 f13d
00000320: 7466 9abd acd8 a7bd ca6e d83d 1922 2b3d
00000330: 80f8 6bbc 8fef c6bd 584c ce3c 860e 353d
00000340: b6d6 e73d c565 8f3c a8e7 f1bc d80c e13d
00000350: f2b5 953d bb30 aabd 84c2 fb3d 8c90 9c3d
00000360: 385d 053d 7b27 cfbc 7513 9ebd a2eb 133c
00000370: 94ba 8a3d ddf8 e03d 306f 1c3d 806b b8bd
00000380: a06e afbd 00ab b3ba 1070 6a3c b7da e23c
00000390: 6c14 8a3d 990c 80bd 10ef 423d 007b 4f3d
000003a0: 4c89 5d3d db08 cd3d c07d 193b 3483 703d
000003b0: 1c64 a8bd c757 5f3c 5c3f 343c 4259 803d
000003c0: 0495 71bd dc49 f9bd 32c2 de3d f427 9e3d
000003d0: 2c69 2d3d cd22 263d 66dd b3bd a26f 9a3d
000003e0: 98b7 ecbc 22a7 c7bd 943b 393d c1ed 5abd
000003f0: d028 03bd 7582 153c aff7 89bd 9def 63bd

lstm.weight_hh_l0 f4 [256, 64]
0.09337567 0.09028005 0.08342802 -0.0423172 0.047091275 0.074171595 -0.00412591 0.045375682
-0.04581647 0.10888533 0.012592196 -0.055449773 0.09972492 -0.04288139 -0.10221068 0.053627245
-0.07021658 0.0950348 0.08832607 -0.083043896 0.05724678 -0.00028556076 0.016111162 0.10310301
0.007819953 0.1226856 -0.061619177 0.068122715 0.051506784 -0.0796591 0.066826835 -0.046623588
-0.03969304 0.06426786 0.08408891 0.12217322 -0.10569228 0.04586652 0.06618845 0.023132943
0.034643304 -0.05067092 -0.058781207 0.08310568 -0.07110846 -0.10954826 -0.111330315 0.025886817
0.07193209 -0.021871736 -0.089268796 0.019394241 0.06383818 0.07939025 0.015542636 0.0054122363
0.10148814 -0.02760347 -0.06759705 -0.08060518 -0.04279447 -0.07142213 -0.038168382 -0.103907906
0.08862988 0.08201366 0.042984303 -0.08564045 0.010262865 -0.10953512 0.06230776 0.03456378
-0.06461616 -0.003016924 0.11636494 -0.043632783 0.058375306 0.022612728 0.038806506 0.071751416
-0.04857054 0.043898717 -0.0371557 0.04189726 -0.11294805 0.040457495 0.09841314 -0.013684968
0.07877701 0.12097852 0.08829819 -0.047857903 -0.09576447 -0.118607804 0.036015827 0.050971873
0.12181538 -0.096239306 -0.03986124 0.06344171 0.054354616 -0.08998625 -0.1182518 0.11498261
0.09599414 -0.0361151 0.029427227 0.053707097 0.025374215 -0.08564838 0.071685076 0.05591288
0.08865116 0.019295346 -0.040411245 0.07102619 -0.011284786 -0.105329245 0.073003806 -0.0854592
0.013220119 0.023543667 0.09890598 -0.066597 0.010742876 0.015154705 0.028185619 0.06143628
-0.08404196 0.018688643 0.081162974 -0.08693077 -0.115155645 -0.081599765 -0.013227643 -0.034561846
0.04817818 0.123228796 0.10887827 0.110833466 0.02488144 0.12457626 -0.021184646 0.116491504
0.06250489 0.082315646 -0.014690397 -0.09691443 0.036701247 -0.101944 0.051627208 -0.09232457
-0.022886803 0.059272718 0.06748173 0.108636566 -0.03468768 0.058229536 0.017102458 0.03362554
0.078713894 -0.0555061 0.027855223 0.058454048 0.003794198 -0.09582316 0.060831975 -0.10753218
-0.089574724 -0.095107615 0.0007602537 0.062188786 0.12028958 0.096908525 0.12523401 -0.027720572
-0.050729964 -0.081779875 -0.11766473 0.09279455 0.06187335 0.015707426 0.06523332 -0.101805344
0.10948332 0.05700748 0.121300675 -0.08806286 -0.12224759 0.11370321 0.061819375 -0.0071209157
-0.048281815 -0.018734522 -0.07206757 -0.07149054 0.06437374 -0.040929995 -0.019775478 -0.053964656
0.06348669 0.03707577 -0.011937493 0.09890735 0.001829355 -0.090768486 0.009951525 -0.05247146
0.09813906 -0.0699195 -0.056698166 0.025676584 -0.005510837 0.038125582 -0.060109816 -0.0337603
-0.03497467 -0.09477174 0.026223594 -0.11286595 0.030656543 -0.018149355 0.0022807142 0.048732184
0.06974747 0.07842835 -0.03836861 -0.033519704 0.052595723 0.039209552 0.014480674 -0.10532436
-0.016361786 0.12319716 -0.08552973 0.114108734 -0.015472639 -0.016107976 -0.09638317 0.0027616036
-0.023184238 -0.076075286 0.08904042 -0.12190292 -0.09207335 0.11230129 0.067396455 0.08111866
-0.09314573 0.11432192 -0.039523195 -0.029944414 0.11671027 -0.061072905 -0.05061034 0.024380373
00000000: be3b bf3d bfe4 b83d 4fdc aa3d cd54 2dbd
00000010: c8e2 403d 47e7 973d a432 87bb dadb 393d
00000020: 0daa 3bbd 46ff de3d 804f 4e3c 4d1f 63bd
00000030: 943c cc3d 65a4 2fbd d553 d1bd 3ea8 5b3d
00000040: b6cd 8fbd 9ba1 c23d 4ce4 b43d eb12 aabd
00000050: 997b 6a3d 51b7 95b9 8efb 833c ac27 d33d
00000060: 431f 003c 9642 fb3d 6464 7cbd ec83 8b3d
00000070: c7f8 523d 4f24 a3bd 82dc 883d 60f8 3ebd
00000080: 2b95 22bd de9e 833d ce36 ac3d f435 fa3d
00000090: 3275 d8bd 88de 3b3d cf8d 873d 4c81 bd3c
000000a0: 23e6 0d3d 508c 4fbd 90c4 70bd 5033 aa3d
000000b0: 50a1 91bd d75a e0bd 2601 e4bd 9710 d43c
000000c0: 2251 933d 5b2c b3bc 8fd2 b6bd ace0 9e3c
000000d0: 97bd 823d 5b97 a23d 8aa6 7e3c 2159 b13b
000000e0: 04d9 cf3d ac20 e2bc 5270 8abd 5414 a5bd
000000f0: 4149 2fbd c445 92bd 7356 1cbd abcd d4bd
00000100: 9583 b53d c7f6 a73d 4f10 303d 4364 afbd
00000110: 9325 283c f353 e0bd 6c36 7f3d c092 0d3d
00000120: 7a55 84bd 96b7 45bb be50 ee3d 4ab8 32bd
00000130: f21a 6f3d 543e b93c 92f3 1e3d 68f2 923d
00000140: e7f1 46bd 24cf 333d 9330 18bd 769c 2b3d
00000150: 4f51 e7bd c2b6 253d d48c c93d eb36 60bc
00000160: d755 a13d 96c3 f73d aed5 b43d a606 44bd
00000170: 2a20 c4bd a6e8 f2bd 5585 133d e2c7 503d
00000180: 587a f93d 1d19 c5bd 8a45 23bd baed 813d
00000190: f2a2 5e3d b64a b8bd 002e f2bd 017c eb3d
000001a0: 9398 c43d 6ded 13bd 5e11 f13c f9fb 5b3d
000001b0: 96dd cf3c 6b68 afbd a0cf 923d e704 653d
000001c0: bd8e b53d 4611 9e3c 4386 25bd 2e76 913d
000001d0: d3e3 38bc dcb6 d7bd 0583 953d 3c05 afbd
000001e0: 3399 583c a6de c03c 388f ca3d 0264 88bd
000001f0: e302 303c 714b 783c 87e5 e63c 9ca4 7b3d
00000200: 311e acbd ed18 993c c638 a63d c208 b2bd
00000210: b9d6 ebbd c71d a7bd c2b8 58bc b990 0dbd
00000220: 7c56 453d 615f fc3d 92fb de3d a8fc e23d
00000230: 29d4 cb3c d721 ff3d 6c8b adbc 1993 ee3d
00000240: 9002 803d 1b95 a83d feaf 70bc 137b c6bd
00000250: 0c54 163d 04c8 d0bd 0d77 533d aa14 bdbd
00000260: 1b7d bbbc f3c7 723d dc33 8a3d d97c de3d
00000270: ab14 0ebd 1882 6e3d 741a 8c3c efba 093d
00000280: c034 a13d 5d5a 63bd a330 e43c 836d 6f3d
00000290: 14a8 783b ef3e c4bd f32a 793d d539 dcbd
000002a0: f472 b7bd c8c7 c2bd c34b 473a abb9 7e3d
000002b0: 625a f63d fa77 c63d 583d 003e 4116 e3bc
000002c0: 39ca 4fbd 357c a7bd 35fa f0bd 120b be3d
000002d0: e96e 7d3d dcac 803c 0c99 853d 527f d0bd
000002e0: ca38 e03d ad80 693d 7d6c f83d 4d5a b4bd
000002f0: f25c fabd 3bdd e83d 5036 7d3d 9256 e9bb
00000300: 27c3 45bd 2479 99bc 2a98 93bd a269 92bd
00000310: 61d6 833d 36a6 27bd 2f00 a2bc 0b0a 5dbd
00000320: 4f05 823d c3dc 173d 7a95 43bc f08f ca3d
00000330: f8c6 ef3a d4e4 b9bd b90b 233c 50ec 56bd
00000340: 22fd c83d f431 8fbd 563c 68bd b357 d23c
00000350: 4094 b4bb 9229 1c3d b635 76bd 3e48 0abd
00000360: 9941 0fbd b017 c2bd ddd2 d63c 4326 e7bd
00000370: 6e23 fb3c f5ad 94bc 0978 153b 669b 473d
00000380: c3d7 8e3d 0b9f a03d 6728 1dbd f54b 09bd
00000390: 9d6e 573d 329a 203d 5940 6d3c 4cb4 d7bd
000003a0: 2709 86bc cb4e fc3d 362a afbd d7b1 e93d
000003b0: f480 7dbc e0f4 83bc 8a64 c5bd 05fc 343b
000003c0: dfec bdbc 5ccd 9bbd d35a b63d 3da8 f9bd
000003d0: f490 bcbd 38fe e53d 2707 8a3d 8a21 a63d
000003e0: 30c3 bebd 9c21 ea3d 13e3 21bd fd4d f5bc
000003f0: cb05 ef3d 9527 7abd ca4c 4fbd 59b9 c73c

lstm.bias_ih_l0 f4 [256]
-0.03502782 -0.108023286 0.1129847 -0.1004775 0.013518282 -0.07272889 0.10671192 -0.003085632
-0.094938405 -0.075158805 0.030193044 -0.07699223 -0.012355902 -0.03860636 0.1107065 -0.077524066
-0.017190808 0.019269234 -0.09396973 0.019136967 0.0117342165 0.1087753 -0.043504953 0.0476032
-0.04504515 0.005649118 0.05472741 -0.016104236 -0.10765442 0.07800665 -0.029945059 0.036467828
-0.07971557 0.038073342 -0.063829586 -0.054001607 0.092899434 -0.10349133 0.052577935 -0.016494783
-0.024956414 0.1097335 0.08503663 0.023492552 -0.021374745 0.12500918 0.04987312 0.09981112
-0.08917958 0.08618684 0.08141265 0.11905923 0.032731872 -0.06556519 0.056824148 0.11946168
0.09731425 0.08888958 -0.046408027 0.015956577 -0.083601475 0.12317464 -0.11126983 0.11413974
0.11662613 -0.026193043 0.11331102 -0.086730115 0.0034498137 0.051510453 0.11710644 0.037969045
0.0058583384 0.069529496 0.046494137 0.040135145 0.1111313 0.06050432 -0.087513864 0.035611805
0.111764036 -0.102581576 0.007936611 -0.03168907 -0.10219442 -0.017269025 0.03767117 0.012310971
-0.0933239 0.022680206 -0.0338767 -0.05623141 -0.0056006997 -0.026750343 0.088635735 0.118679695
-0.11564249 0.07484729 -0.07934864 0.11368556 0.08071163 0.015802033 -0.013337625 0.014462381
-0.058700528 0.08638278 -0.06797149 0.115012206 -0.035866234 0.0554063 -0.0744924 -0.02193866
0.031428106 -0.069328815 0.0772361 -0.037434373 0.07530347 -0.030531252 0.013433499 0.09169113
-0.04291532 0.056134783 0.04438493 -0.08532522 0.10459848 -0.118206196 -0.10226061 0.053983983
-0.110614136 0.028651172 -0.052624173 0.061980765 -0.122091934 -0.0027727732 0.07232166 0.05772933
0.033560842 -0.09157134 0.029645886 -0.026726149 -0.08434449 0.0857374 0.06562624 -0.10609916
-0.05348039 0.12219934 -0.07456497 -0.05431731 0.100544944 -0.032648295 -0.004549032 -0.029584387
0.07538396 0.03262775 0.011556614 -0.115200646 0.074540064 -0.051418446 0.06736501 -0.07768412
-0.10930101 0.119855374 -0.04872723 0.0019250086 -0.11734805 0.037836444 -0.01727474 0.088527754
0.061507437 -0.0758378 0.1134851 0.11700336 -0.10800379 -0.03697273 0.008352338 0.066374905
0.080719486 -0.10642595 -0.058418654 0.083143994 -0.12053794 -0.04587347 0.06380343 -0.03265427
0.11950809 0.015179354 -0.08606556 0.06149127 -0.032088857 0.122646086 0.025767816 0.06156924
0.123213306 -0.08379443 0.08459065 0.062393326 0.04392705 0.007991564 0.040700614 0.10351607
-0.08604568 -0.021494035 -0.055649664 -0.046210874 0.09614331 0.052921996 0.07005918 -0.103688434
0.08448189 0.051289223 -0.114509486 0.07082078 0.014617154 0.10921668 -0.01346402 0.07083734
-0.11957555 -0.09947658 0.016692618 -0.03128274 0.051108293 0.03183611 0.013310645 -0.12255517
0.10873509 0.0343022 0.057428505 0.10274767 0.09806642 -0.04224688 -0.0063854824 -0.10535636
0.018912097 -0.058788702 0.026827695 -0.080139406 0.034301218 -0.08967737 0.027869401 0.0956324
0.016210394 -0.05402979 0.0066553866 0.09093626 0.033448346 -0.1142208 -0.0440449 -0.01869774
0.12167742 -0.08889163 -0.021570252 0.024981404 -0.04855659 0.04789616 -0.06758937 -0.039677024
00000000: 5579 0fbd 503b ddbd 8664 e73d 26c7 cdbd
00000010: c97b 5d3c e2f2 94bd c78b da3d 5138 4abb
00000020: 116f c2bd dcec 99bd 6757 f73c 1aae 9dbd
00000030: 6970 4abc b421 1ebd 17ba e23d f0c4 9ebd
00000040: bdd3 8cbc 83da 9d3c 3473 c0bd 21c5 9c3c
00000050: df40 403c 96c5 de3d 4032 32bd 93fb 423d
00000060: 4381 38bd 3d1c b93b d929 603d 08ed 83bc
00000070: ec79 dcbd f3c1 9f3d 574f f5bc 4a5f 153d
00000080: eb41 a3bd cbf2 1b3d 16b9 82bd ca30 5dbd
00000090: 0f42 be3d 43f3 d3bd f65b 573d 1120 87bc
000000a0: 6571 ccbc f5bb e03d af27 ae3d 7473 c03c
000000b0: 171a afbc 6802 003e c247 4c3d c669 cc3d
000000c0: c9a3 b6bd ba82 b03d adbb a63d 53d5 f33d
000000d0: db11 063d 0b47 86bd 70c0 683d 53a8 f43d
000000e0: b24c c73d bd0b b63d 5816 3ebd 5eb7 823c
000000f0: 4037 abbd fc42 fc3d 70e1 e3bd 19c2 e93d
00000100: aed9 ee3d cb92 d6bc 9c0f e83d 8f9f b1bd
00000110: 4516 623b a0fc 523d 80d5 ef3d 6e85 1b3d
00000120: 4ef7 bf3b 7b65 8e3d a370 3e3d c064 243d
00000130: cf98 e33d 61d3 773d 783a b3bd afdd 113d
00000140: 8be4 e43d 4a16 d2bd 8f08 023c 66cc 01bd
00000150: 4f4b d1bd c577 8dbc 164d 1a3d f4b3 493c
00000160: 9a20 bfbd d7cb b93c 4bc2 0abd e852 66bd
00000170: 1386 b7bb 8923 dbbc a786 b53d 570e f33d
00000180: f8d5 ecbd 8949 993d 8a81 a2bd fad3 e83d
00000190: 244c a53d 4473 813c 0e86 5abc 9ff3 6c3c
000001a0: f76f 70bd 74e9 b03d a334 8bbd 858b eb3d
000001b0: 79e8 12bd b7f1 623d 798f 98bd b4b8 b3bc
000001c0: c2ba 003d 44fc 8dbd f62d 9e3d c954 19bd
000001d0: b538 9a3d ad1c fabc 2e18 5c3c 8fc8 bb3d
000001e0: f9c7 2fbd 96ed 653d f9cc 353d fdbe aebd
000001f0: ba37 d63d 1716 f2bd 036e d1bd 4f1e 5d3d
00000200: aa89 e2bd ddb5 ea3c 728c 57bd 8bdf 7d3d
00000210: 560b fabd 6ab7 35bb 611d 943d 9775 6c3d
00000220: 1877 093d c189 bbbd eedb f23c ccf0 dabc
00000230: cebc acbd 1797 af3d 0d67 863d 844a d9bd
00000240: 410e 5bbd a643 fa3d 85b5 98bd d47b 5ebd
00000250: 82ea cd3d 38ba 05bd 0c10 95bb f55a f2bc
00000260: e862 9a3d ada4 053d f457 3d3c 51ee ebbd
00000270: 76a8 983d 269c 52bd abf6 893d da18 9fbd
00000280: 35d9 dfbd bc76 f53d 3496 47bd 9250 fc3a
00000290: 2d54 f0bd 63fa 1a3d c183 8dbc 0a4e b53d
000002a0: 39ef 7b3d d950 9bbd e06a e83d 759f ef3d
000002b0: 1731 ddbd b870 17bd 3fd8 083c 91ef 873d
000002c0: 4250 a53d d9f5 d9bd 6648 6fbd 6647 aa3d
000002d0: 98dc f6bd d2e5 3bbd 5fab 823d 7cc0 05bd
000002e0: a8c0 f43d d3b2 783c 2443 b0bd 45de 7b3d
000002f0: 9b6f 03bd df2d fb3d 0717 d33c 0730 7c3d
00000300: 4257 fc3d 6a9c abbd dd3d ad3d 2590 7f3d
00000310: daec 333d 0def 023c b0b5 263d 3c00 d43d
00000320: b838 b0bd 4214 b0bc e7f0 63bd 9d47 3dbd
00000330: c9e6 c43d bcc4 583d 307b 8f3d 9a5a d4bd
00000340: d704 ad3d a614 523d f383 eabd 7c0a 913d
00000350: ca7c 6f3c ffac df3d 3198 5cbc 2b13 913d
00000360: 07e4 f4bd 61ba cbbd f5be 883c 5522 00bd
00000370: ee56 513d 9566 023d e414 5a3c 34fe fabd
00000380: 81b0 de3d 7780 0c3d 273a 6b3d 5f6d d23d
00000390: 0cd7 c83d 100b 2dbd 4f3d d1bb 13c5 d7bd
000003a0: 8bed 9a3c 6ccc 70bd c1c5 db3c 2120 a4bd
000003b0: 6f7f 0c3d c5a8 b7bd 5f4e e43c ebda c33d
000003c0: a9cb 843c 574e 5dbd 6e15 da3b ca3c ba3d
000003d0: 2201 093d 98ec e9bd 6d68 34bd 012c 99bc
000003e0: 0332 f93d d10c b6bd 19b4 b0bc cda5 cc3c
000003f0: 46e3 46bd c42e 443d 4c6c 8abd 6084 22bd

lstm.bias_hh_l0 f4 [256]
0.07730184 0.11375682 0.09410182 0.07490425 -0.023792382 -0.10696024 0.041815538 -0.1181185
-0.02546455 -0.12378068 -0.008459452 -0.11130832 0.06741396 -0.12052233 -0.012328807 -0.06657414
-0.067765266 0.013028882 -0.043858092 -0.12133709 -0.009215579 0.06087696 -0.022270214 -0.10734984
-0.057596486 -0.022880964 -0.025009679 -0.122457914 -0.08469544 -0.123435654 0.10106293 0.029526481
-0.05326537 -0.03009187 -0.04077935 0.07894491 -0.0063221855 0.0650183 -0.03572359 -0.005874534
-0.004081135 -0.060770594 0.0067200377 0.11806781 -0.08601376 -0.025163937 0.12053584 0.026915375
-0.056984246 0.0068205567 -0.053523313 -0.059176266 -0.0132274125 -0.031207053 -0.016162705 0.009835595
-0.009970777 0.101129435 -0.036774382 0.052014787 -0.07739785 -0.06798011 0.050582685 -0.08208216
0.030818505 -0.115912996 -0.029661201 -0.092411585 -0.10681592 0.06642363 0.020228855 0.011965957
-0.07374829 0.01122802 -0.020714905 -0.02175186 0.046764713 0.043705318 -0.027008412 0.08798998
-0.034211792 -0.042997275 0.08911861 -0.05629149 -0.023299659 -0.0008651907 -0.1061836 0.03407088
-0.106230125 0.098271266 0.078504786 0.102869615 0.08220404 0.046879467 0.06899675 -0.0058807135
-0.103236884 -0.054842092 -0.02343884 -0.08017956 -0.017500246 -0.058263186 0.025953708 -0.084095806
-0.102350995 -0.100031 -0.02316713 0.03709742 -0.020518934 0.107600234 -0.06451873 -0.018460192
-0.10997397 -0.08461967 0.0151846055 0.086358495 -0.042030394 0.08231439 -0.09160009 0.028270638
0.044013377 0.06413425 0.107481256 0.0019104524 0.031784903 0.007983323 0.07713208 0.009854449
0.020322775 0.04254485 0.085998595 -0.032043163 -0.056276534 -0.025423266 -0.053766556 -0.10284726
0.0020843756 0.06708079 0.074411824 0.06587511 -0.035703402 0.11531321 -0.112815835 0.08708899
0.024457451 0.06461115 -0.06571566 -0.10952201 -0.06955755 -0.06089203 -0.057684712 -0.09868317
0.08752844 -0.07607371 -0.048344545 0.060147088 -0.046455957 0.068960324 0.008582081 0.08002938
-0.030862754 0.09270541 -0.005778716 -0.104872435 0.10305136 -0.038548443 -0.012148347 -0.1115862
0.07551314 -0.03711718 0.12584934 0.043818716 -0.07299689 0.066356674 -0.076209724 -0.06793096
-0.05739668 0.083080046 0.04732967 0.066162825 -0.082619995 0.12087731 0.05236883 -0.10500185
-0.01749546 0.12118122 -0.019586988 -0.10266603 -0.104304165 0.003738482 -0.049736235 -0.057986323
0.00871242 -0.004343256 -0.03396239 -0.120853186 0.06296464 0.07257414 -0.053261727 -0.10802446
0.041327015 0.014607479 0.015099503 0.058364864 0.059338115 0.013407291 0.088845626 -0.045190237
0.0151713975 0.07410021 -0.01946513 0.10248992 0.08283927 0.04583538 0.024730548 -0.11869211
0.0387673 -0.09297041 -0.0938683 0.024804534 0.122589886 0.062312666 -0.066683695 -0.06642294
0.0035551311 0.0074778963 -0.04874027 -0.11277684 0.025256822 -0.050738826 -0.05643424 -0.10260015
-0.03170094 0.04481706 0.04405856 0.0949096 -0.083519675 -0.0126280915 -0.030336263 0.018621637
-0.020727588 -0.08437665 -0.057034515 -0.086177215 0.11285409 -0.03214478 -0.04367486 -0.049654573
0.01621682 0.12527467 0.122851044 0.03060102 -0.121582724 -0.06510294 0.023127668 -0.01920023
00000000: 6d50 9e3d 56f9 e83d 74b8 c03d 6667 993d
00000010: 3ee8 c2bc f80d dbbd c546 2b3d 1de8 f1bd
00000020: 089b d0bc ba80 fdbd 8399 0abc 9ef5 e3bd
00000030: 5510 8a3d 69d4 f6bd c4fe 49bc 0658 88bd
00000040: 84c8 8abd 1877 553c 8ba4 33bd 957f f8bd
00000050: f1fc 16bc 1f5a 793d 0670 b6bc 3cda dbbd
00000060: 4bea 6bbd dc70 bbbc 19e1 ccbc 37cb fabd
00000070: ce74 adbd d5cb fcbd 15fa ce3d 85e1 f13c
00000080: ca2c 5abd 3a83 f6bc 3f08 27bd dead a13d
00000090: 562a cfbb 5128 853d e652 12bd 2a7f c0bb
000000a0: 0bbb 85bb 96ea 78bd c333 dc3b 89cd f13d
000000b0: fb27 b0bd 9a24 cebc 7fdb f63d a27d dc3c
000000c0: 5068 69bd fa7e df3b 433b 5bbd d062 72bd
000000d0: cab7 58bc efa5 ffbc a667 84bc 7a25 213c
000000e0: 785c 23bc f31c cf3d bca0 16bd 750d 553d
000000f0: c482 9ebd 2839 8bbd ca2f 4f3d b11a a8bd
00000100: 1777 fc3c cb63 edbd 0cfc f2bc 4942 bdbd
00000110: 4ec2 dabd 1d09 883d fcb6 a53c dc0c 443c
00000120: 5809 97bd bbf5 373c 4eb2 a9bc f530 b2bc
00000130: 5b8c 3f3d 5904 333d bf40 ddbc 1734 b43d
00000140: aa21 0cbd e91d 30bd d183 b63d e891 66bd
00000150: edde bebc f7cd 62ba ca76 d9bd e88d 0b3d
00000160: 2e8f d9bd 7242 c93d 1ec7 a03d 4ead d23d
00000170: 975a a83d af04 403d 2b4e 8d3d 00b3 c0bb
00000180: dc6d d3bd 1aa2 60bd cf02 c0bc 2e35 a4bd
00000190: ad5c 8fbc 61a5 6ebd df9c d43c 6c3a acbd
000001a0: 669d d1bd 0edd ccbd fec8 bdbc 77f3 173d
000001b0: 5317 a8bc 835d dc3d 6522 84bd d439 97bc
000001c0: 083a e1bd 144d adbd dac8 783c b9dc b03d
000001d0: 1028 2cbd 7294 a83d d498 bbbd d397 e73c
000001e0: 5f47 343d d158 833d 221f dc3d 2568 fa3a
000001f0: e330 023d 7ccc 023c 6df7 9d3d 8e74 213c
00000200: f37b a63c 8243 2e3d 0820 b03d b13f 03bd
00000210: 3982 66bd 7444 d0bc 523a 5cbd 96a1 d2bd
00000220: 059a 083b a761 893d 3a65 983d 88e9 863d
00000230: bb3d 12bd 5529 ec3d fd0b e7bd b65b b23d
00000240: fe5a c83c da52 843d ef95 86bd 134d e0bd
00000250: 3074 8ebd ec69 79bd ce46 6cbd 671a cabd
00000260: 1c42 b33d 89cc 9bbd ee04 46bd cb5c 763d
00000270: 9a48 3ebd 123b 8d3d db9b 0c3c 72e6 a33d
00000280: e3d3 fcbc 56dc bd3d 625b bdbb 5cc7 d6bd
00000290: 970c d33d f9e4 1dbd dc09 47bc 4e87 e4bd
000002a0: a2a6 9a3d 2f08 18bd a6de 003e 417b 333d
000002b0: 657f 95bd 02e6 873d d813 9cbd 631f 8bbd
000002c0: c818 6bbd df25 aa3d c2dc 413d 6080 873d
000002d0: ac34 a9bd 868e f73d b380 563d 360b d7bd
000002e0: a452 8fbc dc2d f83d e474 a0bc 9142 d2bd
000002f0: 6c9d d5bd 5201 753b 39b8 4bbd 1183 6dbd
00000300: 8abe 0e3c df51 8ebb 261c 0bbd e081 f7bd
00000310: 9bf3 803d c0a1 943d f828 5abd ee3b ddbd
00000320: 8446 293d 3554 6f3c e863 773c ff0f 6f3d
00000330: 860c 733d 41aa 5b3c b2f4 b53d 6619 39bd
00000340: 7491 783c dac1 973d 5675 9fbc 3ce6 d13d
00000350: a3a7 a93d e1bd 3b3d b897 ca3c d914 f3bd
00000360: 76ca 1e3d 4567 bebd 063e c0bd e132 cb3c
00000370: 6810 fb3d 913b 7f3d 7691 88bd c008 88bd
00000380: 34fd 683b 2409 f53b e1a3 47bd 8bf7 e6bd
00000390: 65e7 ce3c 84d3 4fbd 9727 67bd 0720 d2bd
000003a0: d8d8 01bd 1892 373d c076 343d f75f c23d
000003b0: 5d0c abbd 0ee6 4ebc c183 f8bc 678c 983c
000003c0: e7cc a9bc aacd acbd 069d 69bd ae7d b0bd
000003d0: 0c20 e73d 3faa 03bd 69e4 32bd 9862 4bbd
000003e0: 23d9 843c 0148 003e 5499 fb3d feae fa3c
000003f0: 5d00 f9bd b154 85bd 3c76 bd3c cd49 9dbc

lstm.weight_ih_l1 f4 [256, 64]
-0.016580824 -0.11242813 0.104977086 -0.10032249 -0.0535951 -0.06393194 -0.004452976 0.049613222
-0.12146622 -0.059886895 0.047738917 -0.058547042 -0.076913506 -0.057401635 -0.10459827 -0.013161422
0.04742833 -0.037308216 0.0051704166 -0.013048545 -0.06586039 -0.051369864 -0.059141915 -0.109417684
-0.061738998 -0.029941836 0.0726589 -0.06280705 -0.1058449 0.11406881 -0.036274675 0.07147632
-0.02184339 0.059813485 -0.020092487 -0.066381246 0.062046472 0.044017512 0.017970221 -0.042785145
0.06269914 -0.0145689035 -0.02592254 0.07657824 -0.09594499 0.022498779 0.123494364 -0.095633924
0.027458921 0.014609697 0.07179691 0.090161756 -0.067415886 0.04519797 0.0351217 -0.08657923
0.044620752 0.078880124 0.11302709 0.055548146 -0.058820903 -0.045300245 -0.009210001 0.029099934
0.11811656 -0.04714357 0.0684029 0.05110054 0.011666904 0.11420674 -0.008976755 -0.121035255
-0.085087 -0.038023125 -0.12402249 0.043894645 -0.0657627 0.006410006 0.04998335 -0.018021485
-0.05432096 -0.017399138 0.004065548 -0.0003396178 0.09077398 -0.08172906 -0.049202982 -0.04248443
0.122519016 0.056075398 -0.028529074 -0.02808259 -0.031161964 -0.035015225 -0.002513554 -0.06055509
-0.009289692 -0.014291725 0.011460425 -0.059241932 -0.08546277 -0.025655314 -0.06232172 -0.04390027
-0.058016516 -0.07227576 0.10979757 -0.08564851 -0.044855893 -0.10893952 -0.073272645 0.01659645
-0.07172035 -0.0953195 -0.061262775 -0.030253638 0.097429484 -0.08188925 -0.010929376 -0.089797005
-0.10720958 -0.0073452606 0.063366696 -0.016978782 0.06375724 -0.06060769 0.045567982 0.009406681
-0.034491744 -0.09646105 0.08580614 0.071039274 -0.08186936 0.04853858 -0.117809564 0.027579796
0.059916005 0.007425068 -0.11887283 0.04754747 -0.08486111 -0.01967649 0.07138759 0.1166294
-0.02992998 0.08011475 0.011078952 0.093573295 -0.07086012 0.020314481 0.010392347 0.07711848
-0.07940011 -0.10017473 -0.10157381 -0.032473832 0.025066663 0.025276752 0.048319384 0.060280953
-0.034744754 0.028897868 0.062222004 0.049991883 -0.015654964 0.026807215 -0.11200176 -0.057748012
-0.0017345258 0.11609675 -0.07319424 0.11485337 -0.10261554 0.015270448 0.02615363 -0.11867739
0.10300386 0.029530223 0.007737015 -0.111917056 -0.023170132 -0.12304352 -0.02931805 -0.11446235
-0.030751815 -0.12500988 -0.06897 -0.013789743 -0.099915266 -0.053618625 -0.09299808 -0.10695011
-0.034200333 0.06299901 -0.0026328284 0.025563475 0.09280288 -0.077802435 0.032188088 0.046203014
-0.06493785 -0.09559124 0.016870296 -0.066747814 0.024317456 -0.11028237 0.07279562 -0.057737447
0.11298889 0.123255424 -0.11176816 0.106178954 -0.0067245984 0.0644654 0.10835823 -0.06821003
-0.049919676 0.006125725 0.044676535 0.0506279 -0.11510294 0.024271993 0.09305095 -0.11646998
-0.024030074 -0.039674655 0.02174715 -0.098267056 -0.08027805 -0.07980228 0.036604792 -0.09958346
-0.04628488 0.10004407 -0.01913075 0.06794561 -0.08556534 -0.12133143 -0.11272444 0.049238022
-0.0886552 0.028461775 -0.002163503 0.041414678 0.06761796 -0.111053966 0.050306324 0.09824542
0.029175434 -0.11138095 -0.10938787 0.027712872 -0.014746823 -0.012472872 -0.08705167 -0.039655756
00000000: 82d4 87bc b840 e6bd 3afe d63d e175 cdbd
00000010: 8986 5bbd c0ee 82bd 45ea 91bb 3c37 4b3d
00000020: 48c3 f8bd f64b 75bd e289 433d 06cf 6fbd
00000030: d484 9dbd fa1d 6bbd 9e37 d6bd 01a3 57bc
00000040: 3544 423d 80d0 18bd 996c a93b 91c9 55bc
00000050: d0e1 86bd 3569 52bd cb3e 72bd 6116 e0bd
00000060: 08e2 7cbd 9548 f5bc 30ce 943d fca0 80bd
00000070: 36c5 d8bd e99c e93d c194 14bd 2d62 923d
00000080: e9f0 b2bc fcfe 743d 0099 a4bc e4f2 87bd
00000090: 7124 7e3d b54b 343d 4936 933c 7a3f 2fbd
000000a0: 6868 803d 69b2 6ebc 825b d4bc 0dd5 9c3d
000000b0: cf7e c4bd 5c4f b83c 9dea fc3d b8db c3bd
000000c0: 88f1 e03c 835d 6f3c 420a 933d baa6 b83d
000000d0: 5711 8abd 8221 393d c6db 0f3d 7450 b1bd
000000e0: 40c4 363d e78b a13d bf7a e73d 7486 633d
000000f0: 30ee 70bd c08c 39bd 8be5 16bc fc62 ee3c
00000100: 18e7 f13d 9e19 41bd d216 8c3d cd4e 513d
00000110: 8b26 3f3c 39e5 e93d 3d13 13bc 55e1 f7bd
00000120: 1842 aebd 23be 1bbd 81ff fdbd dfca 333d
00000130: 98ae 86bd 070b d23b 57bb 4c3d cba1 93bc
00000140: a87f 5ebd a388 8ebc 4a38 853b bb0e b2b9
00000150: b5e7 b93d 9161 a7bd 1189 49bd 2704 2ebd
00000160: 40eb fa3d 51af 653d ceb5 e9bc 760d e6bc
00000170: 6047 ffbc 206c 0fbd 70ba 24bb 9d08 78bd
00000180: cb33 18bc d727 6abc 82c4 3b3c aba7 72bd
00000190: 1b07 afbd 182b d2bc 0f45 7fbd c5d0 33bd
000001a0: baa2 6dbd 5005 94bd 8cdd e03d 7c68 afbd
000001b0: d0ba 37bd af1b dfbd f80f 96bd 47f5 873c
000001c0: 1ee2 92bd df36 c3bd adee 7abd 7ad6 f7bc
000001d0: 1c89 c73d 8db5 a7bd 2011 33bc 7ee7 b7bd
000001e0: b290 dbbd 83b0 f0bb 66c6 813d 1617 8bbc
000001f0: 2893 823d c53f 78bd 7ea5 3a3d 7b1e 1a3c
00000200: 3747 0dbd 5f8d c5bd 21bb af3d 0a7d 913d
00000210: 1fab a7bd 64d0 463d 2446 f1bd 06ef e13c
00000220: 7c6a 753d fc4d f33b 9973 f3bd 23c1 423d
00000230: a9cb adbd 9730 a1bc a833 923d 65db ee3d
00000240: b82f f5bc 3413 a43d 7e84 353c 5ba3 bf3d
00000250: 1c1f 91bd 8e6a a63c aa44 2a3c 4bf0 9d3d
00000260: 869c a2bd 6928 cdbd ee05 d0bd 4803 05bd
00000270: 9a58 cd3c 3111 cf3c 8cea 453d 29e9 763d
00000280: 8450 0ebd 39bb ec3c 80dc 7e3d 4ac4 4c3d
00000290: d73e 80bc ce9a db3c 2e61 e5bd 2e89 6cbd
000002a0: 0759 e3ba 22c4 ed3d dde6 95bd 3e38 eb3d
000002b0: 1928 d2bd e730 7a3c 2340 d63c 220d f3bd
000002c0: b0f3 d23d 5ee9 f13c c986 fd3b c534 e5bd
000002d0: 4acf bdbc 3efe fbbd 682c f0bc 3d6b eabd
000002e0: 3beb fbbc 9702 00be 2540 8dbd 60ee 61bc
000002f0: 60a0 ccbd 349f 5bbd c775 bebd a908 dbbd
00000300: a615 0cbd a005 813d 888b 2cbb 7e6a d13c
00000310: 700f be3d e256 9fbd a8d7 033d 5f3f 3d3d
00000320: 23fe 84bd 57c5 c3bd 9333 8a3c 14b3 88bd
00000330: 6735 c73c b9db e1bd df15 953d 1a7e 6cbd
00000340: b866 e73d 576d fc3d b4e6 e4bd 5a74 d93d
00000350: 055a dcbb 7006 843d ebea dd3d b3b1 8bbd
00000360: 9378 4cbd 4eba c83b befe 363d 335f 4f3d
00000370: 17bb ebbd 0fd6 c63c 7f91 be3d d087 eebd
00000380: b8da c4bc e481 22bd 1427 b23c 3d40 c9bd
00000390: d168 a4bd 616f a3bd e8ee 153d 6af2 cbbd
000003a0: 3795 3dbd e8e3 cc3d 17b8 9cbc 1127 8b3d
000003b0: e23c afbd 9d7c f8bd 12dc e6bd cfad 493d
000003c0: dc90 b5bd ab28 e93c 8fc9 0dbb 70a2 293d
000003d0: 497b 8a3d 4370 e3bd 010e 4e3d e534 c93d
000003e0: 5201 ef3c b21b e4bd bf06 e0bd 1b06 e33c
000003f0: a99c 71bc 045b 4cbc 2548 b2bd 136e 22bd

lstm.weight_hh_l1 f4 [256, 64]
0.108792864 0.09474812 0.039182216 -0.081035085 -0.052846674 0.06372456 0.11129064 0.07407184
-0.08972693 -0.0865773 -0.0052326038 0.018071294 -0.10141787 0.08608996 -0.10735779 -0.047011945
-0.0084713455 0.09891496 0.052244846 -0.10145678 -0.053655438 0.018853525 -0.0962425 -0.027596917
0.053047836 -0.0510701 -0.11228397 -0.07452403 -0.11140512 -0.0048438446 0.016171094 -0.06699429
0.05389256 -0.021077458 -0.028098132 -0.10808267 0.122405164 0.10763845 -0.102890454 -0.062270187
0.10201036 0.071607396 0.020583624 -0.09997498 0.08162012 0.04884967 0.11120098 -0.034607496
-0.023152424 -0.009344092 0.080332115 0.02960348 -0.027355729 -0.04509466 0.11426803 -0.08785088
0.06921134 0.0048416355 -0.068889126 -0.095583595 -0.103136055 0.10145175 -0.02279052 -0.084249094
0.050643492 -0.046927188 -0.08640027 -0.019499801 -0.09555494 0.030868625 -0.017197395 -0.085902244
-0.024198286 0.09697847 -0.048492674 0.114490114 0.12404585 0.046457846 -0.11069225 0.041302096
0.123499796 -0.06061335 0.023422481 0.019995628 0.10333457 0.046511833 0.029958451 -0.07990832
0.102120124 -0.023721384 0.09576487 0.02060465 0.015710352 0.07173935 -0.10086437 0.06529633
-0.06930264 -0.059203207 0.09693152 -0.1262882 0.007086105 0.09080215 0.08471461 -0.09921391
-0.031518407 -0.07523223 0.09640925 0.07217739 -0.027337171 0.048154432 -0.01981725 0.012686867
-0.029910713 0.026802676 -0.04296886 -0.076181635 0.113263465 -0.08516787 -0.038281355 -0.008187575
-0.11481878 0.115390085 0.10176556 0.018179622 0.02049255 0.017906548 -0.096552916 0.07935593
0.057561263 0.070371665 -0.0634934 -0.03670274 0.10524501 -0.07274873 0.023543365 -0.119814195
-0.018491428 -0.06257387 -0.098290786 0.0068626716 -0.023238774 0.11818228 0.09230579 -0.013604287
-0.030221919 0.11731845 0.032519523 0.01299956 -0.115405396 -0.12537053 -0.11382959 -0.019750793
-0.116152465 0.12486375 0.051980663 0.03795822 -0.013036902 -0.08485564 0.018027646 0.04423835
0.023121558 0.011295772 0.10878911 -0.0850387 -0.00408877 0.032698 0.09232031 0.07877544
-0.07406987 0.08615869 -0.027094973 0.058635484 -0.0062367665 0.10801619 0.10369664 -0.04305932
0.0028755665 0.02669588 -0.039245766 0.11860773 0.105451845 0.07063863 -0.029196981 -0.03337067
-0.09214173 0.006688641 0.03821959 -0.07555707 0.009656677 0.013848146 0.09527115 0.09353722
0.12374697 0.029278254 0.0053022723 -0.10582784 0.0032727472 0.04380914 0.00087500014 -0.08589144
0.100507185 0.116393715 0.05677308 -0.0022524325 0.0570416 -0.073713146 -0.0029626538 0.006862303
0.023580842 0.11912699 0.039023023 -0.07124995 -0.0018035771 0.09630704 -0.06564214 -0.017701661
0.028254483 -0.027029376 0.076048575 0.004305221 0.020925285 -0.027476212 0.07719142 0.014084935
-0.10623618 0.0012775831 0.060381476 0.073108345 -0.0002185354 -0.109014176 0.004699491 0.032895435
-0.048159394 -0.04908702 0.107607454 -0.07128865 0.09718284 -0.018944558 0.11145063 0.012990615
-0.03841926 -0.0025574798 -0.08547784 0.021816496 0.015511412 0.043772463 -0.025384296 -0.011519034
0.036992326 -0.07084009 0.1136401 -0.040198486 0.09316535 0.029683843 0.1042368 -0.0068394993
00000000: cbce de3d 4d0b c23d 887d 203d b9f5 a5bd
00000010: c175 58bd 0682 823d 59ec e33d fab2 973d
00000020: c1c2 b7bd 714f b1bd 4376 abbb 400a 943c
00000030: 2cb4 cfbd ef4f b03d 67de dbbd 998f 40bd
00000040: 66cb 0abc ed93 ca3d b1fe 553d 93c8 cfbd
00000050: cec5 5bbd b572 9a3c ca1a c5bd ee12 e2bc
00000060: b048 593d e22e 51bd 23f5 e5bd 0ea0 98bd
00000070: 5e28 e4bd 1db9 9ebb 3e79 843c 4d34 89bd
00000080: 72be 5c3d a2aa acbc 0e2e e6bc 725a ddbd
00000090: 8faf fa3d 8c71 dc3d 3bb8 d2bd 060f 7fbd
000000a0: cfea d03d e6a6 923d fd9e a83c afbf ccbd
000000b0: 7328 a73d 9716 483d 57bd e33d 97c0 0dbd
000000c0: 27aa bdbc f617 19bc 2a85 a43d ff82 f23c
000000d0: 1f19 e0bc 2eb5 38bd 5b05 ea3d 2aeb b3bd
000000e0: adbe 8d3d 95a6 9e3b be15 8dbd 55c1 c3bd
000000f0: ff38 d3bd efc5 cf3d 2fb3 babc ca8a acbd
00000100: 8d6f 4f3d b936 40bd a0f2 b0bd 0cbe 9fbc
00000110: 4fb2 c3bd 33e0 fc3c 8de1 8cbc 84ed afbd
00000120: 7c3b c6bc a69c c63d 41a0 46bd cb79 ea3d
00000130: c00b fe3d 954a 3e3d 9eb2 e2bd 632c 293d
00000140: 76ed fc3d b445 78bd 81e0 bf3c dfcd a33c
00000150: 13a1 d33d 3183 3e3d 6d6b f53c f9a6 a3bd
00000160: 5b24 d13d 5953 c2bc 5f20 c43d 15cb a83c
00000170: ffb2 803c 15ec 923d fb91 cebd 15ba 853d
00000180: 8bee 8dbd 107f 72bd 0884 c63d b251 01be
00000190: 8f32 e83b 7af6 b93d da7e ad3d aa30 cbbd
000001a0: 7219 01bd 5b13 9abd 3672 c53d bdd1 933d
000001b0: 34f2 dfbc 953d 453d c957 a2bc 94dc 4f3c
000001c0: 5007 f5bc 4991 db3c 1e00 30bd 1e05 9cbd
000001d0: adf6 e73d 7e6c aebd e9cc 1cbd 2e25 06bc
000001e0: 1c26 ebbd a351 ec3d 766a d03d 6eed 943c
000001f0: fedf a73c c1b0 923c 89bd c5bd 5d85 a23d
00000200: 5cc5 6b3d 051f 903d d408 82bd 9d55 16bd
00000210: b28a d73d 49fd 94bd 04de c03c 2561 f5bd
00000220: 567b 97bc bb26 80bd ae4c c9bd 43e0 e03b
00000230: 3e5f bebc 8d09 f23d d10a bd3d 84e4 5ebc
00000240: f593 f7bc a844 f03d 3133 053d 1bfc 543c
00000250: aa59 ecbd 2261 00be 7d1f e9bd 6acc a1bc
00000260: 58e1 edbd 91b8 ff3d ade9 543d 147a 1b3d
00000270: bb98 55bc cbc8 adbd b7ae 933c 4633 353d
00000280: 6c69 bd3c e711 393c d3cc de3d c528 aebd
00000290: 17fb 85bb 57ee 053d 6e12 bd3d 0555 a13d
000002a0: f2b1 97bd f873 b03d 47f6 ddbc c32b 703d
000002b0: ca5d ccbb 9837 dd3d e75e d43d f85e 30bd
000002c0: 0074 3c3b 51b1 da3c 2bc0 20bd 9ce8 f23d
000002d0: 23f7 d73d fcaa 903d 822e efbc afaf 08bd
000002e0: ceb4 bcbd 632c db3b 258c 1c3d aabd 9abd
000002f0: 0a37 1e3c 56e3 623c 851d c33d 7190 bf3d
00000300: 0d6f fd3d f3d8 ef3c afbe ad3b 44bc d8bd
00000310: 967b 563b 3671 333d 4460 653a dae7 afbd
00000320: b6d6 cd3d d45f ee3d e48a 683d 8c9d 13bb
00000330: 74a4 693d ebf6 96bd 1529 42bb 2bdd e03b
00000340: 9c2c c13c daf8 f33d 9bd6 1f3d 7eeb 91bd
00000350: 0166 ecba a03c c53d 636f 86bd 1303 91bc
00000360: f275 e73c b66c ddbc 5bbf 9b3d d012 8d3b
00000370: 816b ab3c cb15 e1bc 8916 9e3d 80c4 663c
00000380: 5b92 d9bd 9374 a73a 9152 773d d4b9 953d
00000390: a626 65b9 d342 dfbd 30fe 993b 5dbd 063d
000003a0: c942 45bd 790f 49bd 4c61 dc3d c9ff 91bd
000003b0: cc07 c73d 9e31 9bbc 3a40 e43d 97d6 543c
000003c0: 845d 1dbd 649b 27bb 010f afbd 82b8 b23c
000003d0: 9423 7e3c c14a 333d baf2 cfbc 55ba 3cbc
000003e0: 4485 173d 9c14 91bd 24bc e83d 2ba7 24bd
000003f0: 7acd be3d 882b f33c 1a7a d53d e11d e0bb

lstm.bias_ih_l1 f4 [256]
0.121739805 -0.008597665 0.087604985 0.018795006 0.051612753 -0.060421128 -0.12367671 0.056560997
0.018673731 -0.027525285 -0.061291795 0.019658769 -0.1255732 -0.073397405 -0.041225158 -0.119550124
0.11359806 -0.10423929 0.10158228 -0.07939236 0.016767437 0.10399411 -0.12097639 0.07863029
-0.06254173 0.022183925 0.032020215 0.035939243 -0.08177444 0.035128463 -0.09420899 -0.0017010369
-0.08515738 0.08485285 -0.09380346 -0.059416283 0.06273841 0.003981693 -0.057607144 -0.005014952
-0.02567975 -0.031047404 -0.015985003 0.08670114 0.072704464 0.1032992 -0.037676807 -0.013528792
-0.08337626 -0.08878803 -0.03579929 0.0040518986 -0.044371217 0.040439352 0.10352065 0.11721501
0.053872723 0.038654298 0.122058116 -0.04500218 -0.12096953 -0.008096823 0.06036022 -0.12443568
-0.09382237 0.10089089 -0.059230417 -0.085571006 -0.061812017 -0.12337857 -0.1232453 -0.07316846
0.07029487 -0.057768147 0.018252382 -0.071022294 0.06974691 0.09622285 0.009503704 0.050342444
-0.080899924 -0.003668774 -0.10248447 -0.0054349196 0.10182915 0.07195921 -0.045842867 0.09211715
0.05081317 0.06505799 0.097445965 0.017017674 -0.037439562 0.04957355 -0.011641892 0.11832835
0.029409394 0.04707826 0.045753144 0.07087659 0.018444825 0.013998933 -0.005546803 -0.026520865
0.10691261 -0.007627935 -0.051624987 0.03672379 -0.031817306 -0.017879685 0.11617459 -0.10772752
0.07958618 -0.029332282 -0.07065836 0.00451308 -0.04640942 0.02318287 -0.043216247 0.0784299
-0.081583805 -0.023220124 0.07425407 -0.058904175 0.043147173 0.032133523 0.03352768 -0.036062766
0.049482945 -0.10854093 0.10668666 0.065514974 0.011756195 0.008120535 0.11990078 -0.10863836
-0.105329596 0.052747726 0.07995226 -0.08604741 -0.052633967 -0.11778415 0.06036655 -0.060017653
0.06257745 -0.02972261 -0.015804866 -0.030034477 0.12158532 0.0035344975 0.029637102 0.03333416
0.013036005 -0.11524221 -0.067523256 0.074126124 -0.02324519 -0.096342765 0.069106944 0.010734333
-0.11415792 -0.10384499 -0.1129404 0.041867297 -0.003914865 -0.115476355 -0.010459316 0.051553402
0.043392748 0.10051932 -0.11237318 2.1954165e-06 -0.09535845 -0.109421246 -0.04623408 -0.03265146
0.03824184 0.030132838 -0.09952142 0.104793645 0.09779672 0.05347507 0.008916168 -0.058222268
0.039567646 0.05948765 -0.07303648 0.018178133 -0.03128694 0.019204233 0.10367202 0.09076267
0.04810093 -0.026650153 0.038045138 -0.05343761 0.09616381 0.060805667 -0.10432244 0.103991024
-0.115357764 0.02486863 -0.033093363 0.11591061 0.085048996 0.12265945 -0.11406145 0.10024536
-0.07286033 -0.060707994 0.06036683 0.027626399 -0.088718764 -0.06801118 0.01727216 0.021235088
0.06572992 0.09092602 -0.0043972055 -0.12584236 -0.04288383 0.118708804 0.002125674 -0.113586724
-0.09703418 -0.060822275 -0.0060774647 -0.041593503 0.057471886 0.01861532 -0.09655199 -0.12316742
-0.03564278 -0.0518716 0.036226172 0.061271343 -0.10560131 -0.03871353 0.018215662 -0.006369019
-0.00796217 0.046304844 -0.099720575 0.11030933 0.026795676 0.082935214 0.00894624 0.08127695
0.024220716 0.05282683 -0.007430255 0.05745598 0.04092011 0.09519106 0.10635339 -0.052684996
00000000: b852 f93d 38dd 0cbc 3e6a b33d fcf7 993c
00000010: e567 533d 257c 77bd 374a fdbd 81ac 673d
00000020: a7f9 983c b57c e1bc 1b0d 7bbd 6d0b a13c
00000030: 4396 00be 6151 96bd b6db 28bd b2d6 f4bd
00000040: 1aa6 e83d 697b d5bd 5f0a d03d 7698 a2bd
00000050: dd5b 893c ddfa d43d 78c2 f7bd eb08 a13d
00000060: e115 80bd 10bb b53c a127 033d 0735 133d
00000070: 5c79 a7bd dde2 0f3d a5f0 c0bd 54f5 deba
00000080: fe66 aebd 55c7 ad3d 071c c0bd 7d5e 73bd
00000090: ff7c 803d dd78 823b 78f5 6bbd 7754 a4bb
000000a0: 575e d2bc 2057 febc fbf2 82bc 5e90 b13d
000000b0: 14e6 943d 888e d33d ff52 1abd dea7 5dbc
000000c0: 2cc1 aabd 80d6 b5bd 47a2 12bd cac5 843b
000000d0: 98be 35bd bca3 253d a202 d43d 6c0e f03d
000000e0: a5a9 5c3d f853 1e3d 9bf9 f93d 3554 38bd
000000f0: dfbe f7bd 89a8 04bc 473c 773d 22d8 febd
00000100: f125 c0bd e29f ce3d 989b 72bd da3f afbd
00000110: 992e 7dbd e7ad fcbd 0868 fcbd 58d9 95bd
00000120: c2f6 8f3d 4b9e 6cbd 0586 953c 2374 91bd
00000130: 78d7 8e3d 7c10 c53d 6cb5 1b3c e133 4e3d
00000140: dcae a5bd d06f 70bb 61e3 d1bd 6917 b2bb
00000150: cd8b d03d 5a5f 933d bbc5 3bbd eba7 bc3d
00000160: 7821 503d 203d 853d c091 c73d a668 8b3c
00000170: 3a5a 19bd a20d 4b3d a2bd 3ebc 2256 f23d
00000180: f8eb f03c 22d5 403d a667 3b3d bf27 913d
00000190: 9a19 973c c85b 653c f5c1 b5bb 4942 d9bc
000001a0: 00f5 da3d c2f3 f9bb b974 53bd af6b 163d
000001b0: dd52 02bd 6b78 92bc f2ec ed3d 3fa0 dcbd
000001c0: 14fe a23d 414a f0bc 55b5 90bd 76e2 933b
000001d0: ce17 3ebd 01ea bd3c 8503 31bd db9f a03d
000001e0: 6915 a7bd 2138 bebc 8512 983d 8145 71bd
000001f0: 17bb 303d 719e 033d 5254 093d 8db6 13bd
00000200: a1ae 4a3d b54a debd 897e da3d b72c 863d
00000210: 0e9d 403c fe0b 053c 8a8e f53d ca7d debd
00000220: 0bb7 d7bd 000e 583d 03be a33d a039 b0bd
00000230: b796 57bd d138 f1bd ea42 773d 12d5 75bd
00000240: 9b28 803d d57c f3bc 3579 81bc dd0a f6bc
00000250: b901 f93d 07a3 673b 82c9 f23c 6689 083d
00000260: f894 553c 1c04 ecbd a249 8abd 70cf 973d
00000270: b26c bebc 5b4f c5bd f187 8d3d 0edf 2f3c
00000280: a1cb e9bd afac d4bd 4c4d e7bd 0b7d 2b3d
00000290: 4548 80bb de7e ecbd 8d5d 2bbc a929 533d
000002a0: 98bc 313d 13dd cd3d e923 e6bd f854 1336
000002b0: 4b4b c3bd 3f18 e0bd f25f 3dbd 8abd 05bd
000002c0: 7aa3 1c3d 24d9 f63c e3d1 cbbd 0d9e d63d
000002d0: a649 c83d ad08 5b3d 1e15 123c 797a 6ebd
000002e0: af11 223d 52a9 733d 2694 95bd 4fea 943c
000002f0: bc26 00bd 3252 9d3c ff51 d43d c7e1 b93d
00000300: 7b05 453d 6c51 dabc 38d5 1b3d 65e1 5abd
00000310: 88f1 c43d 5d0f 793d 01a7 d5bd 3ff9 d43d
00000320: b140 ecbd 4cb9 cb3c e88c 07bd 8b62 ed3d
00000330: 2b2e ae3d e134 fb3d 0d99 e9bd 704d cd3d
00000340: cc37 95bd f2a8 78bd 3643 773d c250 e23c
00000350: 2fb2 b5bd 7249 8bbd 587e 8d3c 35f5 ad3c
00000360: 699d 863d 6c37 ba3d 6f16 90bb d2dc 00be
00000370: f4a6 2fbd 9a1d f33d e44e 0b3b 28a0 e8bd
00000380: dbb9 c6bd c720 79bd 7825 c7bb f35d 2abd
00000390: a467 6b3d 287f 983c 0dbd c5bd 333f fcbd
000003a0: 2afe 11bd 5177 54bd e561 143d a9f7 7a3d
000003b0: 8045 d8bd 1492 1ebd 0339 953c 34b3 d0bb
000003c0: c373 02bc 26aa 3d3d 4d3a ccbd dce9 e13d
000003d0: 9b82 db3c f0d9 a93d 4093 123c 8874 a63d
000003e0: 866a c63c f260 583d 7f79 f3bb f656 6b3d
000003f0: d89b 273d 88f3 c23d cecf d93d 39cc 57bd
