Personal/DACON/데이터·AI를 활용한 물가 예측 경진대회  농산물 가격을 중심으로/models/best_model_무.pth (torch, 306936 bytes, 10 tensors)

lstm.weight_ih_l0 f4 [256, 100]
0.09509352 -0.04511824 -0.08207585 -0.031128205 0.050161257 0.107403316 -0.08085647 0.00116365
0.016490996 -0.11615987 0.02819633 0.07672967 0.101193935 0.037125796 0.006895241 -0.09064433
0.073074356 0.018822476 0.031762183 0.10343283 0.044782717 0.115161955 0.1216029 0.10301031
-0.016546328 -0.034946106 0.057764754 -0.08019868 -0.114364326 -0.007946729 0.0035407692 -0.07439259
0.1150617 0.12158695 -0.025724769 0.11832509 -0.039435957 -0.06571323 -0.020253286 0.09098257
0.06603706 0.10539702 0.046765402 -0.07100764 -0.09660165 -0.10274193 0.11464884 -0.073553786
-0.02056995 0.06701888 -0.07767853 0.109137625 -0.07498355 0.02050023 -0.057129383 0.013332648
0.07910555 -0.06927812 -0.06622729 -0.10410664 0.01040144 -0.10263136 0.019623697 -0.11002271
-0.11140765 0.08177086 -0.097647384 -0.07442944 0.104239404 -0.014744535 -0.06948946 0.032433555
0.058629043 -0.036424994 -0.09951726 -0.09073396 -0.06802898 -0.040353626 0.12383765 0.04643148
0.092262425 -0.06000957 0.037317734 -0.025659954 0.08380467 -0.040159713 0.014822765 0.021336729
0.117735736 -0.10357167 0.022748271 0.052569274 -0.107002296 -0.07559291 0.007815841 -0.048513316
-0.023703173 -0.03277826 -0.09644583 -0.002621218 0.017123193 -0.08519858 0.019945398 0.03763419
-0.05971243 -0.018681733 0.09423117 -0.05651214 -0.08822541 0.0089452565 0.03907155 0.03563683
-0.08391009 0.0085874945 0.0050351936 -0.01763262 -0.07465975 -0.10949077 0.017319724 0.030908506
0.070424326 0.11083172 0.08438214 0.054231443 -0.009450862 0.10715339 0.10625248 0.119392104
-0.10489121 -0.05465545 -0.0018416941 0.11380735 -0.024381071 0.017651036 -0.10228866 0.055164676
-0.0056904666 -0.0045070774 0.05582145 0.06932749 0.11034988 -0.09090841 -0.046822146 -0.050556105
-0.11049758 -0.036520515 0.014437615 -0.08838894 0.0152106285 -0.004836574 0.092864804 -0.042728387
-0.10063115 0.030594207 0.10022709 -0.12384576 -0.11616691 0.07162376 -0.011026046 -0.11968557
-0.110942826 -0.07620172 -0.016998053 0.0077878684 0.11949501 0.12138695 0.08730495 -0.013256475
0.05322407 0.044106856 0.075519554 0.086860225 0.058472447 -0.004306026 0.0019292211 0.0016912763
0.08707774 0.026169278 0.063148975 -0.039716195 -0.107827686 -0.09885912 0.08651703 -0.083687074
-0.084324665 -0.018446311 -0.020987336 -0.018282184 0.005445566 0.090383835 0.07436995 0.026624992
-0.05830714 -0.08282841 0.03048328 0.085671835 0.08976155 -0.060430463 0.04764779 -0.016856695
0.034109175 0.044404514 -0.10078734 -0.08447838 -0.054401543 -0.01592978 -0.09637447 0.09666793
0.027949035 -0.06832896 -0.09657831 -0.08773024 -0.04947391 0.09151806 0.08398063 0.09138993
-0.09169541 -0.002304241 0.0329421 0.0018046055 -0.04778316 0.079725884 0.09521196 -0.071162924
-0.04883322 0.11003967 -0.060290143 0.029331438 -0.012933612 -0.084916174 0.030888945 0.11373755
0.08198622 0.0006774217 -0.10625562 0.09346638 -0.042443726 0.101303734 0.05458328 0.021615997
-0.035601154 -0.0785443 -0.03571488 0.018473685 0.10469352 -0.027958961 -0.11196314 0.018846849
-0.04208924 0.007328406 0.11074868 -0.09146653 -0.011192888 -0.092045955 -0.113363504 0.07693375
00000000: 64c0 c23d e7cd 38bd 6217 a8bd 9400 ffbc
00000010: e475 4d3d 45f6 db3d 1498 a5bd 9d85 983a
00000020: 2018 873c 3ae5 edbd fdfb e63c 7224 9d3d
00000030: c43e cf3d 3811 183d 79f1 e13b bca3 b9bd
00000040: 02a8 953d 9831 9a3c 1019 023d 97d4 d33d
00000050: 156e 373d 08da eb3d f10a f93d 12f7 d23d
00000060: 2a8c 87bc a623 0fbd bc9a 6c3d 353f a4bd
00000070: d837 eabd ff32 02bc 400c 683b 245b 98bd
00000080: 78a5 eb3d 9402 f93d c0bc d2bc 6d54 f23d
00000090: 9987 21bd a894 86bd 38ea a5bc 1255 ba3d
000000a0: 703e 873d 65da d73d 148d 3f3d 746c 91bd
000000b0: 16d7 c5bd 5c6a d2bd 03cd ea3d 5ea3 96bd
000000c0: 5082 a8bc 3241 893d ec15 9fbd 8c83 df3d
000000d0: fa90 99bd 19f0 a73c 8000 6abd 2e71 5a3c
000000e0: 1702 a23d b0e1 8dbd 2ca2 87bd dd35 d5bd
000000f0: cd6a 2a3c 6430 d2bd e0c1 a03c 9653 e1bd
00000100: b229 e4bd 7b77 a73d 5afb c7bd 766e 98bd
00000110: 787b d53d 1093 71bc 7d50 8ebd 0cd9 043d
00000120: 0225 703d 6032 15bd b5cf cbbd bad2 b9bd
00000130: c752 8bbd d849 25bd 989e fd3d f02e 3e3d
00000140: 15f4 bc3d 98cc 75bd 7bda 183d d334 d2bc
00000150: c8a1 ab3d 837e 24bd 2fdb 723c 5dca ae3c
00000160: 6f1f f13d 621d d4bd 955a ba3c e152 573d
00000170: 0524 dbbd 75d0 9abd 030e 003c e6b5 46bd
00000180: 282d c2bc 7f42 06bd 6485 c5bd bec8 2bbb
00000190: f045 8c3c 987c aebd 8864 a33c 4f26 1a3d
000001a0: 0595 74bd 6f0a 99bc 46fc c03d 4679 67bd
000001b0: 86af b4bd 208f 123c 7d09 203d edf7 113d
000001c0: 0ed9 abbd 90b2 0c3c 44fe a43b 4972 90bc
000001d0: 36e7 98bd b23c e0bd 18e2 8d3c d633 fd3c
000001e0: a13a 903d befb e23d 8bd0 ac3d ca21 5e3d
000001f0: cad7 1abc 3d73 db3d e69a d93d d983 f43d
00000200: 34d1 d6bd 65de 5fbd 0065 f1ba d413 e93d
00000210: d0ba c7bc e898 903c b87c d1bd 5bf4 613d
00000220: 1877 babb 1bb0 93bb 08a5 643d 92fb 8d3d
00000230: 1eff e13d 302e babd 94c8 3fbd eb13 4fbd
00000240: 8e4c e2bd 8996 15bd bf8b 6c3c 4305 b5bd
00000250: 0036 793c 207c 9ebb e72f be3d f603 2fbd
00000260: b417 cebd b4a0 fa3c dc43 cd3d d9a2 fdbd
00000270: ebe8 edbd 7aaf 923d 97a6 34bc b51d f5bd
00000280: fe35 e3bd a60f 9cbd 803f 8bbc 6031 ff3b
00000290: cdb9 f43d b999 f83d f0cc b23d b031 59bc
000002a0: 7c01 5a3d 64a9 343d ffa9 9a3d c6e3 b13d
000002b0: ce80 6f3d 9019 8dbb ebdd fc3a d1ad dd3a
000002c0: d055 b23d f460 d63c 4054 813d 73ad 22bd
000002d0: c3d4 dcbd a676 cabd d72f b13d 2164 abbd
000002e0: 69b2 acbd b81c 97bc a2ed abbc 85c4 95bc
000002f0: b870 b23b 291b b93d 464f 983d a81c da3c
00000300: 78d3 6ebd f1a1 a9bd 12b8 f93c b774 af3d
00000310: e7d4 b73d ef85 77bd 542a 433d 0d17 8abc
00000320: 10b6 0b3d 82e1 353d 9869 cebd 0003 adbd
00000330: 27d4 5ebd 2c7f 82bc fa5f c5bd d6f9 c53d
00000340: 60f5 e43c 0ef0 8bbd d9ca c5bd e9ab b3bd
00000350: 28a5 4abd d26d bb3d 09fe ab3d a52a bb3d
00000360: ceca bbbd c002 17bb 4cee 063d 8388 ec3a
00000370: 46b8 43bd 5347 a33d 7dfe c23d debd 91bd
00000380: 5805 48bd 7a5c e13d ccf2 76bd 7c48 f03c
00000390: 80e7 53bc 88e8 adbd d00a fd3c 3cef e83d
000003a0: 64e8 a73d 0095 313a 8c9c d9bd 4d6b bf3d
000003b0: 79d9 2dbd 5578 cf3d b892 5f3d 0814 b13c
000003c0: 84d2 11bd d5db a0bd c449 12bd 2056 973c
000003d0: 8e69 d63d 310a e5bc ee4c e5bd b564 9a3c
000003e0: c465 2cbd 2023 f03b 34d0 e23d ce52 bbbd
000003f0: 6062 37bc 9782 bcbd 202b e8bd 718f 9d3d

lstm.weight_hh_l0 f4 [256, 64]
-0.023677256 0.03371217 0.087762095 -0.10438346 0.08238164 -0.048709378 0.09517015 -0.057772923
-0.09524892 0.10673685 0.110229015 0.103098966 -0.095740855 -0.11520521 -0.115548916 0.049394876
0.07386123 -0.116903774 -0.08438101 0.07415806 -0.06337708 0.08599338 -0.11224553 -0.091651976
0.08554196 0.017970286 -0.10581901 0.033569705 -0.036492553 0.031209437 -0.10270137 -0.08698461
0.066580206 0.087691665 -0.09655227 -0.09635258 0.10193839 0.016546585 0.0979167 0.0854209
-0.091445945 0.01156004 0.03674232 -0.040681016 0.094780736 0.07350533 -0.08479996 -0.039965387
-0.08472359 -0.08137506 -0.09149485 0.10568148 0.012572569 -0.12367343 -0.08081974 -0.013169854
-0.12069935 -0.12393097 -0.04486639 -0.01384995 -0.036561143 -0.045927115 0.107706256 -0.020169767
0.07004499 0.10081157 0.111255296 0.07384673 0.11393956 -0.07433682 0.112301156 0.06642365
-0.11336735 0.05597989 -0.030038178 0.08947079 -0.12149402 -0.012494442 0.040756192 0.027812686
0.06513054 -0.046283334 0.05753824 -0.118874736 -0.11445746 -0.025150966 0.008144925 -0.11523594
-0.000108901506 0.033237338 -0.10058428 0.12243759 -0.05068713 0.110018305 0.071755536 0.030423548
-0.015339148 -0.101334274 0.05444001 -0.063007616 0.009274068 -0.028809473 0.052089624 0.014464124
0.06558434 0.018144201 -0.074489266 -0.11470944 -0.072548985 0.06192911 -0.07227699 -0.004177706
0.053774446 0.028912155 0.030250251 0.014160616 -0.11710068 0.08616544 -0.08033281 -0.0315292
0.08460109 -0.079598665 -0.0056646094 0.021172352 0.086326376 0.09194032 -0.12003142 -0.034101326
0.091633536 0.12245582 0.050093766 -0.08804909 0.038263965 -0.094559096 0.0687876 0.012687569
-0.080688305 0.02262082 -0.12172513 -0.05574867 0.0051194313 0.0585108 -0.01214747 -0.109634906
0.023893468 0.042194743 -0.109238856 0.086749166 0.05121998 -0.09366034 0.022178913 0.08588511
0.07702941 0.10150928 -0.052364342 -0.05333638 0.06877804 0.082630485 -0.0123636685 -0.11741112
-0.048649855 0.019192778 0.09644325 -0.075283416 0.07925216 -0.105114825 -0.12507583 0.042187735
-0.098215505 -0.10782447 0.10937312 -0.12249653 -0.01920289 -0.118114665 -0.09948364 -0.11438755
-0.123592 -0.09522062 -0.054476816 -0.11203269 0.007117623 -0.006960359 -0.0797472 -0.12266283
0.029648202 -0.016278872 -0.03746498 -0.03715156 -0.11535344 -0.12464186 -0.08854146 -0.09910939
0.06277951 -0.06100462 0.06283675 0.014802822 0.039406117 0.07818666 0.054187737 0.06559831
-0.023044476 -0.040288486 -0.10530667 -0.10336332 -0.006381577 -0.09366711 0.00695047 -0.08947821
-0.08617303 0.11797401 -0.068208925 0.066593945 -0.075576514 -0.108231656 0.06477302 0.02155209
0.042109746 -0.12251444 -0.103875704 0.11137218 0.12024608 -0.09987831 -0.11358679 0.08207135
0.0652895 -0.06637074 -0.011340985 -0.10215162 -0.099427596 -0.045863114 0.067032516 0.097087756
-0.0037400485 0.10475916 0.112785086 -0.043044865 0.045972742 0.038587414 -0.06388096 0.034899164
0.09267883 0.027637176 -0.036409598 -0.038612735 0.044956226 -0.025535373 -0.008472698 -0.056527026
0.06738575 -0.09028867 -0.04735188 0.042784147 -0.02629897 -0.12149018 -0.07609334 0.025357729
00000000: cef6 c1bc c615 0a3d 9dbc b33d ffc6 d5bd
00000010: b5b7 a83d 7c83 47bd 91e8 c23d 4da3 6cbd
00000020: de11 c3bd da98 da3d c0bf e13d 8d25 d33d
00000030: c813 c4bd b6f0 ebbd e9a4 ecbd 4852 4a3d
00000040: 8e44 973d 3f6b efbd f3cf acbd 2ee0 973d
00000050: d8cb 81bd 4c1d b03d fce0 e5bd 08b4 bbbd
00000060: a030 af3d 6c36 933c a3b7 d8bd 6380 093d
00000070: 3779 15bd efaa ff3c 1955 d2bd fd24 b2bd
00000080: 345b 883d b097 b33d 32bd c5bd 8054 c5bd
00000090: 13c5 d03d b48c 873c 8d88 c83d 27f1 ae3d
000000a0: 0348 bbbd 5266 3d3c 1d7f 163d 23a1 26bd
000000b0: 671c c23d f689 963d 9aab adbd bfb2 23bd
000000c0: 9083 adbd f8a7 a6bd a761 bbbd 886f d83d
000000d0: 2dfd 4d3c 7f48 fdbd d284 a5bd 5fc6 57bc
000000e0: 3931 f7bd 85cf fdbd d2c5 37bd e7ea 62bc
000000f0: 23c1 15bd 121e 3cbd 1995 dc3d 113b a5bc
00000100: bf73 8f3d 4c76 ce3d d1d9 e33d f43c 973d
00000110: 2559 e93d e73d 98bd 26fe e53d 1f09 883d
00000120: 242d e8bd 2b4b 653d a012 f6bc 763c b73d
00000130: dbd1 f8bd 7db5 4cbc f7ef 263d 6ed7 e33c
00000140: 2963 853d 9893 3dbd 38ad 6b3d 9974 f3bd
00000150: ac68 eabd 6609 cebc 4b72 053c d200 ecbd
00000160: 0d62 e4b8 e023 083d 22ff cdbd 8fc0 fa3d
00000170: 4f9d 4fbd 4751 e13d 91f4 923d ce3a f93c
00000180: 0d51 7bbc 5888 cfbd 7dfc 5e3d 230a 81bd
00000190: 43f2 173c d801 ecbc ee5b 553d effa 6c3c
000001a0: 1551 863d 26a3 943c d48d 98bd c8ec eabd
000001b0: 9094 94bd 61a9 7d3d f505 94bd 23e5 88bb
000001c0: 9842 5c3d 2fd9 ec3c 60cf f73c ee01 683c
000001d0: 7bd2 efbd 8277 b03d 8785 a4bd c324 01bd
000001e0: 5643 ad3d a004 a3bd 309e b9bb a471 ad3c
000001f0: e2cb b03d 354b bc3d 08d3 f5bd d5ad 0bbd
00000200: 5daa bb3d 1eca fa3d 1f2f 4d3d 1553 b4bd
00000210: adba 1c3d 33a8 c1bd 83e0 8c3d 85df 4f3c
00000220: e93f a5bd 4c4f b93c 064b f9bd b858 64bd
00000230: e7c0 a73b 05a9 6f3d 2f06 47bc 4488 e0bd
00000240: 3cbc c33c 65d4 2c3d 9fb8 dfbd 8ca9 b13d
00000250: 0bcc 513d fed0 bfbd 8db0 b53c 88e4 af3d
00000260: 98c1 9d3d 19e4 cf3d fe7b 56bd 3f77 5abd
00000270: 80db 8c3d 2c3a a93d fc90 4abc 3e75 f0bd
00000280: 1245 47bd 2c3a 9d3c 0a84 c53d 312e 9abd
00000290: f54e a23d 7146 d7bd e113 00be 0ccd 2c3d
000002a0: 3625 c9bd 13d3 dcbd 04ff df3d 76df fabd
000002b0: 614f 9dbc 1ae6 f1bd 14be cbbd 0544 eabd
000002c0: cd1d fdbd 0703 c3bd 1523 5fbd 6571 e5bd
000002d0: f33a e93b b913 e4bb 8052 a3bd a636 fbbd
000002e0: c9e0 f23c 455b 85bc e174 19bd 3c2c 18bd
000002f0: 6d3e ecbd 3b44 ffbd 3a55 b5bd ddf9 cabd
00000300: 8b92 803d fbdf 79bd 8eb0 803d 8987 723c
00000310: 4f68 213d 5420 a03d f6f3 5d3d 6858 863d
00000320: c5c7 bcbc 8a05 25bd 06ab d7bd 26b0 d3bd
00000330: 8c1c d1bb 8bd4 bfbd c5c0 e33b 5a40 b7bd
00000340: 7c7b b0bd 5c9c f13d 1fb1 8bbd 6862 883d
00000350: dcc7 9abd 8fa8 ddbd b8a7 843d 028e b03c
00000360: 457b 2c3d dae8 fabd c9bc d4bd 1917 e43d
00000370: 9443 f63d 008d ccbd 31a0 e8bd 0615 a83d
00000380: 80b6 853d 62ed 87bd 8acf 39bc de34 d1bd
00000390: b2a0 cbbd f6da 3bbd 5848 893d f2d5 c63d
000003a0: 9a1b 75bb f88b d63d defb e63d d04f 30bd
000003b0: ea4d 3c3d d60d 1e3d 05d4 82bd 6df2 0e3d
000003c0: 66ce bd3d 5c67 e23c 3b22 15bd 6328 1ebd
000003d0: 0524 383d 8f2f d1bc 12d1 0abc e288 67bd
000003e0: 8a01 8a3d 44e9 b8bd 0cf4 41bd 6e3e 2f3d
000003f0: f070 d7bc d8cf f8bd d3d6 9bbd 03bb cf3c

lstm.bias_ih_l0 f4 [256]
-0.100167185 0.023497615 0.10504273 0.015953388 0.107916474 -0.066165045 -0.015358232 -0.016045686
0.1167792 0.0023182025 0.05537569 0.073551804 -0.119204454 -0.09372494 -0.015393384 -0.10946728
0.03938594 -0.07266922 0.0439365 0.029505495 0.015089809 -0.072087355 -0.01533657 0.114102766
-0.122782 -0.026253788 -0.12312802 0.088910386 -0.079190284 0.10631657 0.025074556 -0.10428122
-0.079492904 0.035163242 -0.008989751 -0.016694697 -0.03132419 -0.09147885 -0.06890854 -0.033548836
-0.034525532 -0.11083481 0.11778425 -0.10532321 -0.04974356 -0.10295346 -0.11267881 -0.021783646
-0.06969356 -0.051411416 -0.049092833 0.08912504 -0.011593322 0.053910207 0.11622143 -0.118169785
0.1062956 0.03623513 0.115599036 0.050939705 0.10042882 -0.102123685 0.007469811 0.06842045
-0.039048873 0.059978455 -0.11045501 -0.025325384 -0.056611657 0.092632316 -0.064246066 -0.05047864
0.006091927 -0.10644191 0.0065710773 0.10054468 -0.045275167 -0.00042974635 0.038764425 0.030083992
-0.10128151 0.11379924 -0.025809018 0.07677503 0.01723764 -0.09284262 -0.0798196 -0.115900524
-0.09107089 0.11633586 0.009845276 0.10056503 0.006100949 -0.07614567 -0.06945692 0.051666617
0.0084932 -0.04065413 -0.047305882 0.05973056 -0.07942131 -0.061785456 0.024450602 0.04800044
-0.06028728 -0.021781502 -0.089428626 0.052620143 -0.050609656 -0.028351432 -0.100535296 -0.024641285
-0.041603576 -0.096661225 0.008679854 0.023015076 0.1040456 0.115738034 0.046819787 0.051454477
-0.12401998 0.07152479 0.116177395 0.08279172 -0.018209178 -0.042371783 -0.05694715 0.119719975
0.0848235 -0.1224021 0.11970397 -0.09810951 -0.02123617 -0.11558376 0.047125228 0.09564976
-0.06397066 0.09803451 0.01716611 -0.09864955 0.0009516919 0.06999181 -0.004674861 -0.025882443
-0.08460261 -0.07326962 0.04335551 -0.03325209 0.0932918 -0.010775668 0.11481718 0.113295734
-0.053600747 0.069329016 -0.105034076 -0.100682944 0.025383499 -0.06832467 0.051457476 -0.082588755
0.06679232 -0.008456594 -0.103974245 -0.02661101 0.080529325 0.05390391 0.025188178 -0.07020108
0.045383796 -0.10147418 0.12147646 -0.09875821 0.03975483 0.014786429 0.12445007 -0.005709327
-0.11300596 -0.020054158 -0.002717919 0.07674859 -0.10130356 0.07142585 0.05447138 -0.12358201
-0.095986106 0.029475365 0.035645764 0.024620911 -0.08070032 0.068414174 -0.12054763 0.08440676
-0.09346209 0.124198176 -0.06537119 0.00460287 -0.023994887 -0.04098006 -0.020747293 -0.03644855
-0.06812295 0.05028658 0.027092822 -0.033996783 0.12402724 0.10683788 0.014273877 -0.056568064
0.024986874 0.059563737 -0.011187651 0.0010747578 0.10500623 0.021762311 0.0052770074 0.00527002
0.07081907 -0.043480255 0.114893295 -0.028430596 0.055707056 0.09123481 0.09829806 0.06908779
0.055111706 -0.00048499147 -0.049896512 -0.0701532 0.030048039 -0.090697214 -0.069544405 0.10409018
0.06388017 -0.019196251 -0.06553159 0.11411297 -0.053819325 -0.043385502 0.07042147 -0.09481673
0.077837735 -0.10583742 0.089360945 -0.0773341 0.10705504 -0.047041547 0.07972396 0.09354447
0.031837706 0.050459865 0.08032213 0.048865624 0.062200412 -0.100049116 -0.05609046 -0.08475324
00000000: 7424 cdbd 127e c03c a520 d73d aeb0 823c
00000010: 5003 dd3d 8a81 87bd 18a1 7bbc 3e72 83bc
00000020: ef29 ef3d fcec 173b 9fd1 623d 54a2 963d
00000030: 7721 f4bd ddf2 bfbd 8834 7cbc 6230 e0bd
00000040: 2753 213d 9ad3 94bd c2f6 333d 82b5 f13c
00000050: 3f3b 773c 89a2 93bd 3d46 7bbc b6ae e93d
00000060: 2175 fbbd 2f12 d7bc 8b2a fcbd a616 b63d
00000070: 842e a2bd 80bc d93d 2869 cd3c 6491 d5bd
00000080: 2dcd a2bd 5507 103d c049 13bc 51c3 88bc
00000090: cb4d 00bd 4359 bbbd ec1f 8dbd 816a 09bd
000000a0: a56a 0dbd 5cfd e2bd de38 f13d b2b3 d7bd
000000b0: e7bf 4bbd 43d9 d2bd 26c4 e6bd 9e73 b2bc
000000c0: 7fbb 8ebd c794 52bd 9115 49bd 3087 b63d
000000d0: ebf1 3dbc f3d0 5c3d 8005 ee3d 0003 f2bd
000000e0: 82b1 d93d 4a6b 143d 30bf ec3d 27a6 503d
000000f0: a0ad cd3d 3926 d1bd 51c5 f43b 0520 8c3d
00000100: b6f1 1fbd f8ab 753d 3c36 e2bd 2e77 cfbc
00000110: a0e1 67bd 03b6 bd3d 7193 83bd b1c2 4ebd
00000120: ca9e c73b 37fe d9bd 3152 d73b 5fea cd3d
00000130: 7472 39bd 944f e1b9 72c7 1e3d b472 f63c
00000140: ae6c cfbd 930f e93d 6f6d d3bc 3a3c 9d3d
00000150: f435 8d3c 4624 bebd 7578 a3bd 415d edbd
00000160: 6083 babd 7f41 ee3d 154e 213c 0af5 cd3d
00000170: 78ea c73b 43f2 9bbd 6e3f 8ebd 60a0 533d
00000180: 1027 0b3c f284 26bd d0c3 41bd 08a8 743d
00000190: a4a7 a2bd bf12 7dbd a14c c83c 1c9c 443d
000001a0: cbef 76bd 1f6f b2bc 5b26 b7bd 3888 573d
000001b0: 124c 4fbd 4341 e8bc 73e5 cdbd 85dc c9bc
000001c0: 8368 2abd 52f6 c5bd f235 0e3c 1d8a bc3c
000001d0: dc15 d53d 1008 ed3d 1bc6 3f3d eec1 523d
000001e0: 30fe fdbd 977b 923d 6aee ed3d b58e a93d
000001f0: 6a2b 95bc 098e 2dbd 6a41 69bd bf2f f53d
00000200: f1b7 ad3d f4ad fabd 5b27 f53d a4ed c8bd
00000210: 7af7 adbc 2eb7 ecbd 6206 413d 05e4 c33d
00000220: 0d03 83bd 51c6 c83d f19f 8c3c c608 cabd
00000230: f67a 793a de57 8f3d 942f 99bb 6b07 d4bc
00000240: 2244 adbd 620e 96bd 8c95 313d 5833 08bd
00000250: c50f bf3d 6d8c 30bc 4525 eb3d 9807 e83d
00000260: 758c 5bbd 5ffc 8d3d 1b1c d7bd dc32 cebd
00000270: 0ef1 cf3c ceed 8bbd 13c5 523d 4b24 a9bd
00000280: 69ca 883d 878d 0abc 73f0 d4bd 55ff d9bc
00000290: 8fec a43d 59ca 5c3d 7057 ce3c 95c5 8fbd
000002a0: 5ce4 393d b2d1 cfbd a6c8 f83d bf41 cabd
000002b0: f6d5 223d c742 723c aedf fe3d 4e15 bbbb
000002c0: ab6f e7bd 9e48 a4bc 1d1f 32bb 5d2e 9d3d
000002d0: 3e78 cfbd b747 923d 621d 5f3d 9118 fdbd
000002e0: 5d94 c4bd 5276 f13c 4b01 123d cbb1 c93c
000002f0: 3646 a5bd bb1c 8c3d ade1 f6bd 74dd ac3d
00000300: 0d69 bfbd 9d5b fe3d 55e1 85bd acd3 963b
00000310: ed90 c4bc b5da 27bd 3af6 a9bc 134b 15bd
00000320: 0c84 8bbd 4df9 4d3d c4f1 dd3c 3640 0bbd
00000330: fe01 fe3d d2cd da3d fbdc 693c eab3 67bd
00000340: 46b1 cc3c 1bf9 733d 694c 37bc e3de 8c3a
00000350: 820d d73d e046 b23c bfea ac3b 22b0 ac3b
00000360: 9709 913d 5a18 32bd 2d4d eb3d 48e7 e8bc
00000370: 152d 643d 51d9 ba3d 7e50 c93d e67d 8d3d
00000380: d0bc 613d 7446 feb9 4960 4cbd 7bac 8fbd
00000390: 4e27 f63c 76bf b9bd 4c6d 8ebd 3b2d d53d
000003a0: 9bd3 823d 7541 9dbc 6d35 86bd 10b4 e93d
000003b0: a771 5cbd ffb4 31bd 2239 903d 462f c2bd
000003c0: 6469 9f3d 4ac1 d8bd df02 b73d 5761 9ebd
000003d0: ac3f db3d a3ae 40bd 5146 a33d 3e94 bf3d
000003e0: 4168 023d 01af 4e3d ee7f a43d 5227 483d
000003f0: dcc5 7e3d 8de6 ccbd 1cbf 65bd 1b93 adbd

lstm.bias_hh_l0 f4 [256]
-0.11948331 0.10026406 -0.087188385 -0.12513818 0.0073179654 0.040274177 0.02711796 -0.0555995
0.07794479 -0.045504745 0.019831037 -0.12206304 0.116313 0.067062266 0.10724653 -0.069951415
-0.10514031 -0.027760698 -0.101652704 0.102908365 0.08939253 -0.043858025 0.1143649 -0.0041026943
0.02471358 0.011694612 -0.085156344 -0.044101864 0.1029342 0.05266609 0.03571623 -0.07454099
-0.049735956 0.071351334 -0.115334705 -0.0031918893 -0.022226775 -0.022175467 -0.10436073 0.0070462264
-0.0382413 0.040991973 0.076722085 -0.114288256 -0.1033049 -0.031199737 0.04675037 -0.011992042
-0.04558796 0.044649024 0.026737321 0.010540459 -0.007946639 0.020438794 0.018995153 -0.0824424
0.08299425 -0.024531135 -0.04961935 0.0028605394 0.03601572 -0.11157132 0.1037523 -0.12176024
0.06890417 0.060562447 0.062109984 -0.11386132 0.10743142 -0.10208749 -0.09591978 0.11992265
0.0068267034 0.10889342 -0.012563268 0.03207997 0.10665458 -0.08029448 -0.002323593 0.06504542
0.009642472 0.117768906 -0.026647223 0.07430026 0.07628856 -0.072135404 0.03542523 -0.05730063
0.02788983 -0.06665001 -0.021002077 -0.046201415 0.074582525 -0.074037574 0.08725053 -0.077104084
-0.09164852 -0.053172 0.06743673 -0.051442325 0.108289525 0.10548894 -0.021391211 -0.028597467
-0.094018415 0.09340086 -0.04222541 -0.113565944 -0.015631825 0.039406385 0.0038031063 -0.04874633
-0.11582862 0.059777018 -0.0016069695 0.042446267 0.09241551 0.059593104 -0.052330066 0.10410844
0.054571286 0.0832367 0.07377805 0.08049721 0.0022891467 -0.0919092 0.067314155 0.0687351
0.045945626 0.06667529 0.09160759 -0.10759677 -0.094828956 -0.028677277 -0.060321935 -0.067351095
-0.09569941 0.099082924 -0.059901953 0.08699326 0.1145151 0.0727689 -0.04539937 -0.052800115
0.022492992 0.042256434 -0.008397118 -0.042103082 0.047652703 -0.07591408 0.04239865 -0.06342775
-0.11772942 0.057960447 0.054072216 0.026433364 0.030817268 0.028746832 -0.03197283 -0.10265156
-0.070628084 0.051764112 -0.11511793 0.07678364 0.085553 -0.061513033 -0.05557332 -0.075933896
-0.082302615 0.004844854 0.09848602 0.045920964 0.10532309 -0.04947076 0.06478995 -0.095450014
0.07099598 0.078012526 -0.032704957 -0.008192208 -0.07588263 -0.10288403 -0.07976852 0.11447724
0.024254253 0.0068007424 0.101797685 -0.089284115 0.022369001 -0.071202554 0.11667391 0.10479589
0.12086285 -0.09455734 -0.07523245 0.07520256 -0.10700469 -0.10328087 -0.05192321 -0.06783714
0.12013966 0.027295833 -0.038865563 -0.052157395 0.10995552 -0.08941908 0.05463931 -0.021635031
-0.094344154 -0.061312143 -0.09997681 -0.022912962 -0.07642613 0.08287399 0.07377394 0.11199305
-0.044252988 -0.024888128 -0.10552416 -0.0018089977 0.04134712 -0.10659943 0.020934999 0.10843186
-0.056198597 0.0426872 0.0048160255 -0.12227557 -0.0309936 -0.09270634 0.024852687 -0.10055723
-0.038101353 -0.021144787 -0.006394066 0.11877824 0.0202466 -0.0065653017 0.11560251 0.10988541
0.030592658 0.045582753 0.010310454 -0.035341304 -0.07206248 -0.04168446 0.030615179 -0.035684608
-0.105191804 -0.050737243 -0.093647316 0.013644506 -0.11689807 -0.050528474 0.104657404 -0.10510754
00000000: aab3 f4bd 3e57 cd3d d38f b2bd 3924 00be
00000010: 8bcb ef3b 89f6 243d 7c26 de3c 4dbc 63bd
00000020: 85a1 9f3d 2f63 3abd b374 a23c 30fc f9bd
00000030: 8335 ee3d f157 893d 12a4 db3d b042 8fbd
00000040: ce53 d7bd 676a e3bc 4b2f d0bd 9fc1 d23d
00000050: 6e13 b73d 79a4 33bd 2538 ea3d e56f 86bb
00000060: 2274 ca3c c29a 3f3c 7366 aebd 28a4 34bd
00000070: 2acf d23d 66b8 573d 2e4b 123d f2a8 98bd
00000080: eeb7 4bbd a620 923d 9a34 ecbd 042f 51bb
00000090: ed14 b6bc 53a9 b5bc 14bb d5bd 08e4 e63b
000000a0: e9a2 1cbd 33e7 273d 7820 9d3d f60f eabd
000000b0: 8591 d3bd 9796 ffbc 517d 3f3d 457a 44bc
000000c0: 71ba 3abd e5e1 363d 3a08 db3c e4b1 2c3c
000000d0: 9f32 02bc 426f a73c b99b 9b3c 90d7 a8bd
000000e0: e4f8 a93d 85f5 c8bc a93d 4bbd e377 3b3b
000000f0: 3885 133d 817f e4bd 167c d43d 6f5d f9bd
00000100: a11d 8d3d 5410 783d 0a67 7e3d 2030 e9bd
00000110: 0105 dc3d 3f13 d1bd 9771 c4bd 029a f53d
00000120: 8ab2 df3b 8303 df3d 2ad6 4dbc 4966 033d
00000130: b76d da3d 6f71 a4bd 6c47 18bb 8836 853d
00000140: 75fb 1d3c d330 f13d 474b dabc bc2a 983d
00000150: 2d3d 9c3d babb 93bd 0c1a 113d 11b4 6abd
00000160: 3679 e43c cd7f 88bd 8c0c acbc b23d 3dbd
00000170: b9be 983d 03a1 97bd 68b0 b23d bfe8 9dbd
00000180: 38b2 bbbd e2ca 59bd 451c 8a3d 30b5 52bd
00000190: e6c6 dd3d 960a d83d 9f3c afbc 3c45 eabc
000001a0: ba8c c0bd f348 bf3d 8df4 2cbd 4395 e8bd
000001b0: 500e 80bc 9768 213d 893d 793b 3baa 47bd
000001c0: 8e37 edbd bfd8 743d f3a0 d2ba 23dc 2d3d
000001d0: 5844 bd3d e617 743d 0d58 56bd ce36 d53d
000001e0: 2486 5f3d 0178 aa3d f218 973d b9db a43d
000001f0: 8205 163b e43a bcbd 01dc 893d fdc4 8c3d
00000200: 7b31 3c3d 0e8d 883d c39c bb3d b25b dcbd
00000210: af35 c2bd 9cec eabc 2214 77bd 5fef 89bd
00000220: 0dfe c3bd fdeb ca3d c05b 75bd 8629 b23d
00000230: e586 ea3d dc07 953d b1f4 39bd ef44 58bd
00000240: 3943 b83c 1515 2d3d 1194 09bc 4874 2cbd
00000250: 7b2f 433d d778 9bbd 35aa 2d3d 68e6 81bd
00000260: 1f1c f1bd ef67 6d3d d47a 5d3d c88a d83c
00000270: 7f74 fc3c 7a7e eb3c f1f5 02bd fb3a d2bd
00000280: 75a5 90bd 9b06 543d f3c2 ebbd be40 9d3d
00000290: 6936 af3d 17f5 7bbd d9a0 63bd 3b83 9bbd
000002a0: 468e a8bd 95c1 9e3b 0ab3 c93d 9f17 3c3d
000002b0: a2b3 d73d daa1 4abd 98b0 843d 4c7b c3bd
000002c0: 5766 913d 08c5 9f3d a2f5 05bd 9c38 06bc
000002d0: 5a68 9bbd ddb4 d2bd ae5d a3bd 0b73 ea3d
000002e0: dbb0 c63c c3d8 de3b 4e7b d03d 97da b6bd
000002f0: 323f b73c a5d2 91bd bbf2 ee3d 3a9f d63d
00000300: f186 f73d 47a7 c1bd 7913 9abd cd03 9a3d
00000310: 4625 dbbd ec84 d3bd 6fad 54bd 33ee 8abd
00000320: c80b f63d 839b df3c 7f31 1fbd fea2 55bd
00000330: 5c30 e13d 5a21 b7bd 78cd 5f3d f33b b1bc
00000340: 8237 c1bd 7122 7bbd a4c0 ccbd f7b3 bbbc
00000350: 4e85 9cbd d7b9 a93d cb16 973d 9d5c e53d
00000360: 9f42 35bd 30e2 cbbc 0d1d d8bd e41b edba
00000370: 995b 293d cd50 dabd e07f ab3c 8611 de3d
00000380: 8030 66bd c6d8 2e3d c0cf 9d3b 9d6b fabd
00000390: 4ae6 fdbc d2dc bdbd dd97 cb3c f3f0 cdbd
000003a0: 2a10 1cbd d537 adbc 5085 d1bb 0242 f33d
000003b0: 33dc a53c be21 d7bb 02c1 ec3d 9a0b e13d
000003c0: 749d fa3c fbb4 3a3d 2eed 283c 0bc2 10bd
000003d0: 7e95 93bd 53bd 2abd afcc fa3c 062a 12bd
000003e0: cd6e d7bd dbd1 4fbd 2aca bfbd 358d 5f3c
000003f0: 4168 efbd f2f6 4ebd 9f56 d63d 9f42 d7bd

lstm.weight_ih_l1 f4 [256, 64]
-0.01354634 0.057678327 -0.11883141 0.11051768 0.10481789 0.06641855 0.11812305 0.025835328
-0.090681165 0.03663275 0.0992939 0.10712977 0.038674343 -0.10303597 -0.010131452 -0.05988851
0.10125619 -0.078618705 -0.049009852 0.08326904 -0.004331612 0.10655681 0.08148108 -0.06541613
0.07495026 0.049599987 -0.061412256 0.10548753 -0.08187862 -0.048888665 -0.103408046 -0.05304319
-0.029236175 -0.064413615 0.01248407 0.03496915 0.0028442156 -0.11038812 0.010459164 -0.0039592925
0.06573908 -0.046241757 -0.015892526 -0.08351255 -0.09463974 -0.095579 0.022413014 -0.07556515
0.0958651 -0.088335365 -0.11323482 -0.096132174 0.03176393 0.10472944 0.11423713 -0.05294637
-0.02087496 0.12333177 -0.042744376 0.0140183205 -0.034190454 -0.11576374 -0.06518864 -0.089022964
-0.03933206 -0.050144322 -0.086165115 0.07606799 -0.039168987 0.029074935 -0.098762624 0.018035086
0.006529337 0.013732329 -0.12224982 -0.028028047 -0.065324016 -0.023572525 -0.122519635 -0.0826548
-0.033432644 0.07404623 -0.048658725 -0.08222623 0.068166286 0.10818595 0.07438355 -0.013128589
0.10610112 -0.09100269 0.101561464 0.12065566 -0.0010284885 0.10008566 -0.017381046 -0.060412172
0.032318648 0.037982516 -0.08185909 0.026030574 -0.1114593 -0.10843552 0.061150193 -0.10581593
-0.004380581 0.10657291 -0.03171306 0.07250641 0.07988694 -0.0035362078 0.009729556 -0.015918218
-0.022993121 0.10357146 -0.015524547 -0.0060691633 0.04541485 -0.07154707 0.115290366 0.10085519
-0.048008543 0.05756511 0.11144679 -0.07010222 0.08054223 0.060975295 0.09457987 0.005184229
-0.077214986 -0.09521033 0.09261652 -0.0018543385 0.0018925122 0.11189263 -0.11462378 0.047153465
0.057719834 0.0016689781 -0.12265578 -0.06817021 -0.048108034 -0.033979546 0.07933029 0.08956265
-3.6867998e-05 -0.042241715 -0.09475915 -0.05405779 0.08841722 -0.040244855 0.043317195 -0.057199523
-0.026451124 -0.009205177 -0.035321902 -0.060904846 0.040253714 0.0929718 0.021089863 -0.068495125
-0.056472983 -0.11069836 0.10216992 -0.09399552 0.094685376 0.073757395 -0.019579623 -0.08183128
0.025987487 -0.123936325 -0.11377202 -0.0730983 -0.02332309 -0.11322992 -0.0025172448 -0.06038769
-0.00058456894 -0.1167767 -0.0028663771 -0.019085733 -0.101368874 -0.061351586 -0.11620073 0.115497835
0.065434314 0.10986828 0.009769361 0.061076004 0.03431886 0.029977618 -0.047147173 0.012370845
-0.009495249 -0.047400802 -0.03384467 0.056129012 0.08119868 -0.077195175 -0.0016633841 0.08382579
0.07504179 0.09368421 -0.08191318 -0.059744608 -0.0151356375 0.08481784 0.01871733 0.027835
-0.0748169 -0.04069833 0.021682566 0.047633965 0.04865941 0.000160699 -0.00018981953 0.017903024
-0.04982251 -0.09821173 0.024134768 -0.11282123 -0.1046067 -0.10785189 0.048891705 -0.016241401
0.060833048 -0.11747128 0.093766846 -0.021946346 -0.11439134 0.10782465 0.0008298517 -0.07409573
0.0024132472 0.08529753 -0.018431492 0.1226778 -0.09833557 0.03583973 -0.08561815 -0.10961801
-0.08523587 0.07125283 0.054683026 -0.11827476 0.096246034 0.018529933 -0.11106085 -0.0977756
0.09956578 -0.11854063 0.104700774 -0.09665275 0.07901583 -0.11307073 -0.032920085 -0.075267404
00000000: 78f1 5dbc 1c40 6c3d e25d f3bd 1857 e23d
00000010: c3aa d63d 7306 883d 7fea f13d 9ca4 d33c
00000020: 0cb7 b9bd 390c 163d 9a5a cb3d da66 db3d
00000030: fd68 1e3d 8604 d3bd 64fe 25bc a74d 75bd
00000040: 685f cf3d d802 a1bd 8ebe 48bd f588 aa3d
00000050: 32f0 8dbb 753a da3d 8ddf a63d e4f8 85bd
00000060: 867f 993d 5b29 4b3d 6b8b 7bbd d909 d83d
00000070: faaf a7bd 7b3f 48bd 99c7 d3bd d143 59bd
00000080: b480 efbc 49eb 83bd fc89 4c3c d03b 0f3d
00000090: 0566 3a3b 2b13 e2bd ea5c 2b3c f4bc 81bb
000000a0: 36a2 863d ff67 3dbd 0b31 82bc a108 abbd
000000b0: 7bd2 c1bd ecbe c3bd 7f9b b73c e7c1 9abd
000000c0: ec54 c43d 2ce9 b4bd a8e7 e7bd f2e0 c4bd
000000d0: e51a 023d 637c d63d 28f5 e93d 4bde 58bd
000000e0: f701 abbc 5e95 fc3d ba14 2fbd 19ad 653c
000000f0: 4a0b 0cbd 8a15 edbd 9f81 85bd ac51 b6bd
00000100: a71a 21bd 2264 4dbd 5677 b0bd 89c9 9b3d
00000110: a96f 20bd 8f2e ee3c 0f44 cabd 51be 933c
00000120: 0cf4 d53b 90fd 603c 1d5e fabd 139b e5bc
00000130: 99c8 85bd 2b1b c1bc 93eb fabd eb46 a9bd
00000140: abf0 08bd 8da5 973d 5f4e 47bd 3a66 a8bd
00000150: c49a 8b3d 9890 dd3d 6756 983d 4b19 57bc
00000160: 8b4b d93d 9e5f babd 75ff cf3d 511a f73d
00000170: 59ce 86ba b6f9 cc3d b262 8ebc c172 77bd
00000180: 8f60 043d 8e93 1b3d bda5 a7bd 123e d53c
00000190: c644 e4bd 7113 debd a078 7a3d 06b6 d8bd
000001a0: fa8a 8fbb e642 da3d 8ee5 01bd 3e7e 943d
000001b0: c49b a33d b9bf 67bb b768 1f3c ec66 82bc
000001c0: 125c bcbc 461d d43d ab5a 7ebc d5df c6bb
000001d0: ec04 3a3d 4587 92bd 5b1d ec3d 2a8d ce3d
000001e0: 9ba4 44bd 65c9 6b3d 373e e43d c191 8fbd
000001f0: 53f3 a43d 3bc1 793d 17b3 c13d 77e0 a93b
00000200: e422 9ebd a2fd c2bd bbad bd3d 460d f3ba
00000210: 2c0e f83a f727 e53d dfbf eabd fe23 413d
00000220: a26b 6c3d 9dc1 da3a f432 fbbd d39c 8bbd
00000230: ee0c 45bd 232e 0bbd eb77 a23d 9f6c b73d
00000240: b6a2 1ab8 a605 2dbd 1611 c2bd b46b 5dbd
00000250: 1614 b53d cad7 24bd 5f6d 313d 0c4a 6abd
00000260: 07b0 d8bc 50d1 16bc b3ad 10bd 5c77 79bd
00000270: 14e1 243d 0068 be3d a6c4 ac3c 2c47 8cbd
00000280: 3750 67bd d2b5 e2bd 773e d13d b980 c0bd
00000290: 68ea c13d 1e0e 973d 7265 a0bc 2897 a7bd
000002a0: b6e3 d43c 54d2 fdbd 4e01 e9bd 90b4 95bd
000002b0: 1110 bfbc 17e5 e7bd 5cf8 24bb 1559 77bd
000002c0: c23d 19ba 9f28 efbd d4d9 3bbb af59 9cbc
000002d0: 7c9a cfbd cd4b 7bbd a6fa edbd 218a ec3d
000002e0: 6d02 863d 9f02 e13d ab0f 203c d52a 7a3d
000002f0: ef91 0c3d 9f93 f53c 651d 41bd 16af 4a3c
00000300: f691 1bbc 5827 42bd b5a0 0abd 89e7 653d
00000310: 7e4b a63d 8118 9ebd e905 daba dbac ab3d
00000320: 83af 993d 82dd bf3d 19c2 a7bd c3b6 74bd
00000330: 77fb 77bc fab4 ad3d 1655 993c 3a06 e43c
00000340: 9a39 99bd 4bb3 26bd a39f b13c d51b 433d
00000350: 174f 473d 4f81 2839 4b0a 47b9 5da9 923c
00000360: b012 4cbd 3b23 c9bd 47b6 c53c d10e e7bd
00000370: 0a3c d6bd 74e1 dcbd ab42 483d b00c 85bc
00000380: 132c 793d c894 f0bd d508 c03d d3c8 b3bc
00000390: 0246 eabd 2cd3 dc3d 688a 593a 81bf 97bd
000003a0: 9227 1e3b 79b0 ae3d a4fd 96bc 803e fb3d
000003b0: 2964 c9bd aecc 123d 9258 afbd 687f e0bd
000003c0: 2590 aebd 01ed 913d 4ffb 5f3d 0a3a f2bd
000003d0: a41c c53d 16cc 973c df73 e3bd 933e c8bd
000003e0: 25e9 cb3d 6ec5 f2bd 5c6d d63d e1f1 c5bd
000003f0: 0dd3 a13d a091 e7bd 36d7 06bd cc25 9abd

lstm.weight_hh_l1 f4 [256, 64]
-0.086123556 -0.064973205 -0.067009866 0.014543727 0.029034484 0.027707685 0.079074115 -0.08078266
0.018528873 -0.01724437 0.06415906 0.051834594 0.052230194 -0.06898508 -0.083286874 -0.08914836
-0.061428223 -0.018538117 0.09805738 -0.054999 -0.07599606 0.02605023 0.076811194 0.0028779474
-0.012926196 0.016955858 0.010804774 0.065613315 -0.022647113 -0.009401026 -0.04896551 -0.009058164
-0.1082697 0.044226374 -0.118509255 -0.087955065 -0.04366896 -0.07210506 -0.090755776 0.050301623
-0.044662368 -0.015549511 -0.0281681 -0.03846422 0.0046917545 0.11317362 -0.03474631 0.0061922646
-0.0038120481 0.014268859 -0.1260223 -0.07148649 -0.026670719 0.0754956 -0.013121774 0.11261666
-0.11986941 0.12049729 0.0005545852 0.064703844 -0.09992248 -0.09494649 0.02107009 -0.058048036
-0.038996402 -0.10039995 -0.027967982 0.08620282 0.017863719 0.07259404 0.044719964 -0.015383495
-0.08377685 -0.005873983 0.122015394 -0.10346748 -0.075730704 -0.09795771 0.07986799 -0.06948303
-0.122794844 0.02079869 0.022675183 -0.101739265 -0.10908107 -0.11435304 -0.07336708 -0.074259125
0.0523625 -0.0502889 0.09946087 0.10256767 -0.095271885 0.11813373 0.011722672 -0.07886425
0.041966252 -0.10019527 0.0052069183 0.102526374 0.10537547 -0.08036257 -0.10502779 -0.04388461
0.033442773 -0.069357775 -0.053781923 -0.092467375 0.06776072 0.06906827 -0.03978765 -0.063056886
-0.023860566 0.016073074 0.012808036 -0.10545871 -0.012606512 0.1144066 0.054746777 0.12382778
-0.09460045 0.014897904 -0.000770897 0.024187755 0.12266052 -0.052694768 -0.04528333 -0.10879626
0.028272627 -0.0421531 -0.10295204 0.04653553 0.041623153 0.08938566 -0.064077415 0.023220062
0.029218923 -0.10704516 -0.06335318 -0.005921487 0.06343659 0.06803958 0.051477056 0.08440402
0.013154792 0.115280524 -0.05894967 -0.08770946 -0.058093872 -0.030616134 0.12279828 -0.11584028
0.09037275 0.061599568 0.124787964 -0.01534842 -0.11780371 0.09519068 0.110461965 0.072788745
0.123732015 -0.0010209389 -0.073127195 -0.12071559 -0.12322488 0.023335755 0.05803567 -0.06322597
0.055572696 0.06880564 0.049436342 0.007196578 0.10720922 -0.11748183 -0.0514815 0.020906243
-0.020152327 -0.0009505477 0.08427844 -0.019704197 0.085304365 0.0033109204 -0.036643386 -0.08158717
0.07223568 0.00237178 -0.051932827 -0.093612544 0.12144407 0.113785215 0.085344896 -0.023767136
-0.08153463 -0.0378725 0.09403381 0.08618611 -0.07615879 0.053906392 -0.08942741 -0.095610835
-0.08338933 0.026333045 -0.10204245 -0.09613713 -0.11976136 -0.08891326 -0.11308697 0.09009888
-0.08073791 -0.11987927 -0.08879436 0.043351788 -0.015330041 0.10540271 0.025577174 0.094969444
0.038527526 -0.020397538 0.06632094 -0.06504687 0.08473877 0.100992024 -0.060697924 -0.10444878
0.11512976 -0.10322976 -0.1221034 -0.08490215 -0.035703592 0.11316032 0.069735125 0.05278972
-0.0511923 0.0003589943 0.034285318 -0.005251605 -0.11056511 0.0906163 -0.05326146 -0.12008914
-0.11652119 -0.07042546 0.043868396 0.0066978205 -0.059298243 -0.080306366 0.11369426 -0.12201009
0.08729857 -0.007807376 -0.10143064 0.07571669 0.017084062 -0.06684732 0.11196853 0.10542539
00000000: 8c61 b0bd ac10 85bd 783c 89bd d048 6e3c
00000010: bad9 ed3c 3afb e23c 9cf1 a13d 6171 a5bd
00000020: ddc9 973c 1144 8dbc d365 833d 8350 543d
00000030: 54ef 553d 0d48 8dbd 4f92 aabd 6a93 b6bd
00000040: 299c 7bbd 40dd 97bc 4fd2 c83d a246 61bd
00000050: d3a3 9bbd 4b67 d53c 304f 9d3d f29b 3c3b
00000060: 65c8 53bc 03e7 8a3c 8206 313c 4660 863d
00000070: 7086 b9bc c306 1abc 0f90 48bd b268 14bc
00000080: 81bc ddbd b726 353d fbb4 f2bd c921 b4bd
00000090: 39de 32bd d1ab 93bd 2ade b9bd 1309 4e3d
000000a0: e3ef 36bd 60c3 7ebc cac0 e6bc a88c 1dbd
000000b0: 4abd 993b 92c7 e73d 2652 0ebd 7be8 ca3b
000000c0: 8ed3 79bb efc7 693c fd0b 01be 8267 92bd
000000d0: 8d7c dabc 709d 9a3d b6fc 56bc 90a3 e63d
000000e0: 187e f5bd 48c7 f63d 9561 113a 7383 843d
000000f0: 28a4 ccbd 4e73 c2bd 2e9b ac3c c7c3 6dbd
00000100: b1ba 1fbd 7d9e cdbd 1c1d e5bc 1b8b b03d
00000110: ef56 923c 2fac 943d 482c 373d 0e0b 7cbc
00000120: 3293 abbd 8a7a c0bb 35e3 f93d c2e6 d3bd
00000130: b318 9bbd 0d9e c8bd d491 a33d 1e4d 8ebd
00000140: dd7b fbbd 0462 aa3c 4ec1 b93c ad5c d0bd
00000150: e565 dfbd ed31 eabd 7b41 96bd 2b15 98bd
00000160: 107a 563d bcfb 4dbd 24b2 cb3d 000f d23d
00000170: e81d c3bd 19f0 f13d 7310 403c 9483 a1bd
00000180: cee4 2b3d 2d33 cdbd cc9e aa3b 59f9 d13d
00000190: 18cf d73d 2295 a4bd cf18 d7bd 59c0 33bd
000001a0: 4afb 083d 730b 8ebd 6f4a 5cbd 895f bdbd
000001b0: 22c6 8a3d aa73 8d3d 60f8 22bd f823 81bd
000001c0: 3c77 c3bc aeab 833c ccd8 513c bcfa d7bd
000001d0: 8b8b 4ebc 024e ea3d 283e 603d 6b99 fd3d
000001e0: e1bd c1bd 5716 743c 0616 4aba 6625 c63c
000001f0: 7035 fb3d 78d6 57bd 037b 39bd 93d0 debd
00000200: ff9b e73c bba8 2cbd 85d8 d2bd 0a9c 3e3d
00000210: 0a7d 2a3d d40f b73d 053b 83bd 0038 be3c
00000220: 865c ef3c 7e3a dbbd 50bf 81bd 0909 c2bb
00000230: 0beb 813d 5658 8b3d 9bd9 523d 04dc ac3d
00000240: 3287 573c 3218 ec3d 3675 71bd 04a1 b3bd
00000250: d7f3 6dbd b0ce fabc aa7d fb3d ab3d edbd
00000260: 5915 b93d d44f 7c3d d590 ff3d f077 7bbc
00000270: 1243 f1bd 55f3 c23d e239 e23d 4412 953d
00000280: 3667 fd3d 06d1 85ba b6c3 95bd bc39 f7bd
00000290: 535d fcbd a02a bf3c d0b6 6d3d 9e7c 81bd
000002a0: 32a0 633d f9e9 8c3d c37d 4a3d 46d1 eb3b
000002b0: 8290 db3d 509a f0bd 44de 52bd 9243 ab3c
000002c0: 7e16 a5bc 2d2e 79ba 2d9a ac3d b26a a1bc
000002d0: 0eb4 ae3d 07fc 583b 6017 16bd 2d17 a7bd
000002e0: 4df0 933d de6f 1b3b 84b7 54bd efb7 bfbd
000002f0: abb7 f83d 3908 e93d 4ec9 ae3d 4cb3 c2bc
00000300: a1fb a6bd 3220 1bbd cc94 c03d 5882 b03d
00000310: 24f9 9bbd f3cc 5c3d b825 b7bd 9dcf c3bd
00000320: 06c8 aabd 66b8 d73c a2fb d0bd 8be3 c4bd
00000330: 7245 f5bd 2818 b6bd 249a e7bd c385 b83d
00000340: eb59 a5bd 4383 f5bd d1d9 b5bd a591 313d
00000350: da2a 7bbc 60dd d73d 3987 d13c 577f c23d
00000360: 0acf 1d3d bd18 a7bc 46d3 873d 4b37 85bd
00000370: 858b ad3d e8d4 ce3d 639e 78bd 3ee9 d5bd
00000380: 27c9 eb3d 206a d3bd 5911 fabd 2ee1 adbd
00000390: ee3d 12bd 99c0 e73d 4ad1 8e3d 093a 583d
000003a0: 04af 51bd 6637 bc39 c36e 0c3d a815 acbb
000003b0: f66f e2bd 0a95 b93d b028 5abd 4cf1 f5bd
000003c0: a9a2 eebd 393b 90bd 59af 333d 6479 db3b
000003d0: b7e2 72bd aa77 a4bd 89d8 e83d 6de0 f9bd
000003e0: 98c9 b23d 04d5 ffbb deba cfbd 5a11 9b3d
000003f0: e0f3 8b3c 3fe7 88bd c24f e53d 44e9 d73d

lstm.bias_ih_l1 f4 [256]
-0.10271405 0.104841284 -0.0079140365 0.11210065 -0.090884924 0.057851516 -0.095446266 -0.05817455
0.026332866 0.06271758 -0.04653148 -0.1050206 0.07537135 -0.089213856 -0.067542836 -0.11913372
0.106196105 0.0026666925 -0.010477469 0.03316919 0.016275581 0.11766749 -0.0320906 -0.016554948
0.08439297 0.089946486 -0.1233977 0.052068427 0.10047186 0.109782904 -0.07670677 -0.00214769
0.02671227 -0.06544845 0.09505984 -0.08242668 -0.07238804 -0.0081194015 0.09617254 -0.06957482
-0.029894983 -0.066190146 -0.11129599 0.07916136 0.04652235 -0.11339124 -0.12273207 0.036914736
0.10671947 -0.06079638 -0.054313477 -0.104118675 0.11810521 0.0201023 -0.061954208 0.12428816
-0.038851924 0.10236203 0.020550678 -0.059135098 -0.08113686 0.09671621 -0.045496754 -0.08998982
0.07556151 -0.0033614202 0.021172596 0.011856645 -0.10175464 0.10939835 0.011791139 -0.0073222467
-0.07212218 -0.00033583137 0.0994298 -0.052598473 0.1068609 -0.06760914 0.11428554 -0.12557872
-0.02450447 0.11686108 -0.029881947 0.101792365 0.12564377 -0.024734156 -0.0070078354 -0.12130761
0.093357734 0.044195466 -0.12292719 -0.075187 0.019449105 0.06767177 0.045330223 0.039863937
0.07316336 -0.077106945 -0.08889391 0.02408112 0.004035836 0.0843399 -0.07795402 -0.0319854
0.047342632 -0.014237495 -0.12300838 -0.08372441 -0.077029385 -0.11012901 0.019705022 -0.08412732
0.07617811 -0.003137395 -0.020979159 0.028303787 -0.11292386 -0.060426895 -0.075067475 0.110880435
0.015644545 -0.0061303442 0.09309028 0.09398341 0.10509297 0.076336674 -0.12003094 0.1079597
0.052716915 -0.006175127 0.048158877 -0.07134426 0.081705004 0.008894841 0.08326466 -0.08029762
-0.09216145 0.07598066 0.10704677 0.06248697 -0.017115198 -0.019033272 -0.09501492 -0.11361498
0.03878805 -0.08422616 -0.11526719 0.11597154 -0.040322643 -0.12078903 -0.10189516 0.06658038
0.05175889 0.07542479 0.06236919 -0.09876504 0.0547916 0.09888914 0.048240166 0.094935
0.016913923 0.04230968 0.071303666 -0.119227655 -0.11084132 -0.056403883 -0.01202692 0.09139581
-0.09644023 -0.11587718 0.07455399 -0.115879096 0.07844939 -0.0066984883 -0.0018111909 -0.08378342
-0.037960373 0.07340007 -0.09872429 0.0944354 -0.06326215 0.071713425 -0.09336143 -0.027433256
0.08343203 0.09189656 -0.0046274746 -0.048804898 0.030896371 -0.008459281 0.030219948 -0.104000986
-0.1190245 0.108872406 0.10633405 0.09005531 -0.010386629 0.069486596 -0.07642721 0.078040905
0.06478761 0.009297334 -0.018994529 -0.1013448 -0.106667325 0.00042891563 -0.07624303 0.09144276
-0.013610103 0.052242763 0.09715338 -0.07630781 -0.040626217 -0.07858099 0.07260777 0.053364307
-0.0025454948 0.10967032 0.1044267 0.07227399 0.08883726 0.0007548571 -0.10117273 -0.040012185
-0.01885443 -0.048753902 0.053907983 0.12026732 0.0005407822 -0.07289648 -0.09144645 -0.060248576
0.1058022 -0.08827402 -0.1198799 0.01627538 0.0020213644 0.05254977 -0.063336164 0.06355031
0.11644061 -0.0050804825 -0.07323071 0.10392101 0.04161462 -0.08584581 -0.09053169 -0.08771976
-0.051015798 -0.047931656 -0.115867935 -0.12332412 0.071389474 0.020527214 -0.041420203 -0.05145929
00000000: be5b d2bd 07b7 d63d e0a9 01bc 0795 e53d
00000010: e021 babd b6f5 6c3d 5579 c3bd 7048 6ebd
00000020: 06b8 d73c 1372 803d cb97 3ebd 0a15 d7bd
00000030: 4b5c 9a3d c1b5 b6bd e653 8abd 61fc f3bd
00000040: 587d d93d adc3 2e3b b1a9 2bbc 6bdc 073d
00000050: 5e54 853c a7fb f03d 6f71 03bd 3e9e 87bc
00000060: 39d6 ac3d dd35 b83d efb7 fcbd b445 553d
00000070: 31c4 cd3d dcd5 e03d 7018 9dbd 42c0 0cbb
00000080: b1d3 da3c d609 86bd bcae c23d 52cf a8bd
00000090: 2e40 94bd 3d07 05bc 1cf6 c43d 3e7d 8ebd
000000a0: 53e6 f4bc b38e 87bd 27ef e3bd 5a1f a23d
000000b0: 388e 3e3d ab39 e8bd f45a fbbd e833 173d
000000c0: bd8f da3d a005 79bd cf77 5ebd 2c3c d5bd
000000d0: 25e1 f13d 94ad a43c b2c3 7dbd ca8a fe3d
000000e0: 3223 1fbd 2fa3 d13d e559 a83c a537 72bd
000000f0: 152b a6bd 2613 c63d ce5a 3abd 954c b8bd
00000100: febf 9a3d 464b 5cbb 2772 ad3c 6042 423c
00000110: bd64 d0bd 3e0c e03d 9f2f 413c 75ef efbb
00000120: cbb4 93bd 8612 b0b9 daa1 cb3d 7f71 57bd
00000130: e3d9 da3d a976 8abd 8a0e ea3d b597 00be
00000140: 99bd c8bc dd54 ef3d fcca f4bc 8478 d03d
00000150: c3a8 003e 499f cabc fca1 e5bb 2070 f8bd
00000160: 5732 bf3d 4e06 353d 40c1 fbbd a4fb 99bd
00000170: bb53 9f3c 7f97 8a3d 2fac 393d 5e48 233d
00000180: acd6 953d 3fea 9dbd 030e b6bd c545 c53c
00000190: 0c3f 843b 66ba ac3d 5ba6 9fbd 1f03 03bd
000001a0: 59ea 413d 6244 69bc d1eb fbbd b477 abbd
000001b0: 95c1 9dbd 528b e1bd 6d6c a13c f24a acbd
000001c0: 4503 9c3d c19c 4dbb 7cdc abbc 58dd e73c
000001d0: a044 e7bd 3182 77bd fabc 99bd 4815 e33d
000001e0: fd28 803c 0ee1 c8bb 1ea6 be3d 607a c03d
000001f0: fc3a d73d 6756 9c3d c8d2 f5bd fa19 dd3d
00000200: b1ed 573d b858 cabb 3e42 453d f01c 92bd
00000210: f454 a73d abbb 113c a986 aa3d 1473 a4bd
00000220: 24bf bcbd c09b 9b3d 563b db3d 56f2 7f3d
00000230: 2c35 8cbc aaeb 9bbc 2f97 c2bd f8ae e8bd
00000240: 38e0 1e3d c47e acbd 3411 ecbd 7d82 ed3d
00000250: 5b29 25bd 3d60 f7bd 69ae d0bd 4b5b 883d
00000260: 2101 543d 5078 9a3d d676 7f3d 5345 cabd
00000270: 286d 603d 6486 ca3d 7b97 453d 486d c23d
00000280: 118f 8a3c ea4c 2d3d a807 923d a12d f4bd
00000290: c600 e3bd c207 67bd 8f0c 45bc ba2d bb3d
000002a0: 7582 c5bd 0451 edbd c3af 983d 0552 edbd
000002b0: 13aa a03d fe7e dbbb 7b65 edba a496 abbd
000002c0: 567c 1bbd c752 963d f62f cabd 5967 c13d
000002d0: 968f 81bd 7dde 923d 4734 bfbd b5bb e0bc
000002e0: 6ade aa3d 4334 bc3d 12a2 97bb a5e7 47bd
000002f0: 631a fd3c cc98 0abc d38f f73c 78fe d4bd
00000300: 1ec3 f3bd 7ff8 de3d abc5 d93d eb6e b83d
00000310: ae2c 2abc fd4e 8e3d de85 9cbd e9d3 9f3d
00000320: 5eaf 843d d853 183c 6a9a 9bbc dd8d cfbd
00000330: 6674 dabd 15e0 e039 4e25 9cbd 5746 bb3d
00000340: e9fc 5ebc 82fc 553d 5af8 c63d 4547 9cbd
00000350: ad67 26bd 12ef a0bd 62b3 943d 8894 5a3d
00000360: 51d2 26bb d59a e03d aadd d53d 6304 943d
00000370: 4ff0 b53d 9ae1 453a a633 cfbd d1e3 23bd
00000380: 9b74 9abc 2cb2 47bd 9ece 5c3d b64e f63d
00000390: 47c3 0d3a c04a 95bd 4748 bbbd 36c7 76bd
000003a0: d3ae d83d 02c9 b4bd 9883 f5bd f253 853c
000003b0: de78 043b 6d3e 573d 64b6 81bd aa26 823d
000003c0: 6a78 ee3d 2d7a a6bb fcf9 95bd 8ad4 d43d
000003d0: 1774 2a3d eecf afbd ae68 b9bd 6ba6 b3bd
000003e0: f1f5 50bd fc53 44bd 2b4c edbd 5b91 fcbd
000003f0: a534 923d b028 a83c 3ba8 29bd fac6 52bd
