Personal/DACON/데이터·AI를 활용한 물가 예측 경진대회  농산물 가격을 중심으로/models/best_model_대파.pth (torch, 282360 bytes, 10 tensors)

lstm.weight_ih_l0 f4 [256, 76]
00000000: 144c b73d 86f7 423c c5a7 9ebd dfc5 af3d
00000010: d836 5abb 7c2c 13bc 0734 a13d 5bc2 f6bc
00000020: b3fe e13c 722b ba3d 49a6 88bd 468e 253d
00000030: ca25 ccbd b6a2 9e3d df4d 9b3d a7ef 6abd
00000040: c7c7 96bd 983f b7bd fa02 e3bd a47e 81bd
00000050: 46d7 eabd 581f bbbc 68c1 abbc e5a5 d8bc
00000060: 36c5 94bd e026 49bc 17e3 b2bd 01ad 64bd
00000070: 0a2d fdbd 7adb dc3b d75c 7bbd 7190 87bc
00000080: eeb9 35bd 8ec2 9f3d e090 f6bd d6ff 833d
00000090: 3c62 96bc ecaa b7bc e81d fabc 23a4 7a3c
000000a0: 2c46 ac3d f001 9dbc 9418 c7bc 16f0 873d
000000b0: a2dd 0a3d e6a9 6e3d ec38 f73d b66c 19bd
000000c0: 992d 41bd f9c2 f8bd 8a7c 64bd 66b2 8bbd
000000d0: dc4c ccbd c1be dd3d eb3a 08bd bc09 3a3d
000000e0: 0486 89bc a834 87bd 18fd 3c3d 10ea 48bd
000000f0: a042 c23b 8a89 f7bd 3d85 ecbd daf9 ec3d
00000100: e612 e03d 02cf f8bd 8d2d 783d 9be9 dfbc
00000110: fecd 0d3d e2d7 d93d 90dc 94bc 3df2 e43d
00000120: 5927 afbd ae0a b83d 12a4 6bbd 8820 893d
00000130: 90c9 113a 0e64 75bd c747 f9bd 8e76 36bd
00000140: 9cfa 4abd aa35 8c3d f009 ed3c 1d10 cfbd
00000150: 8332 fdbd d049 78bc 6a6b 9a3d 9150 ce3d
00000160: c283 f43d 487c bf3c 63db 953c 0af6 c6bc
00000170: 283b 883c 7c12 953c c181 34bd a548 99bd
00000180: ccd4 afbd 7890 383d 7439 27bd 0d5a 433d
00000190: 0c8a 8a3d 9ccb 68bd f2ff 84bc 83e9 723d
000001a0: 29e8 7b3d 3084 d03a 1069 e4bc 7da9 813d
000001b0: 75b6 883d 3873 d2bd 96e7 b6bd bbc3 d2bd
000001c0: 9811 9abd 47a6 d33d 208b 41bd e96a 67bd
000001d0: 0032 9b3c 5c0c aabd 1f42 993d 58d2 763d
000001e0: 7b93 b4bd ab82 c23d 0d49 493c 8a67 f1bd
000001f0: 2ea2 85bd fd32 a7bd 9b08 80bd 090a fabc
00000200: 1534 983b b815 b73d 19e5 953d 324e ce3d
00000210: e2b0 ccbd 847d 713b 9878 e4bd 0cc3 033d
00000220: b43d 2a3d 0bbb 86bd 4a5f 8cbd 4e95 e2bd
00000230: f14d d13c cc7b 8dbd 65a2 05bd 1b31 c4bd
00000240: b968 fe3d 043a cc3d 6c69 50bd 2bd7 113d
00000250: 9b7c acbd 4701 c1bd 1948 b6bd a235 a53d
00000260: 6806 64bd 2265 bb3d 377f a3bc 9672 d33d
00000270: c0fd bcbd 996b f53d 7539 ebbd edeb 27bd
00000280: ffe2 c73d 7936 663c eb75 72bd a96d 11bc
00000290: 26da c13d 4075 1b3c 82ce ca3d 3f34 11bc
000002a0: 095d 8fbb 9206 f73d 4b32 153d 01ce 92bc
000002b0: 5e95 c1bd 700b a33c 378c 463c 4bbd 663d
000002c0: a8a8 c23c a830 9cbd 1ada 5f3d 108b 8ebd
000002d0: 532a 1cbd 5700 b83c 472f 88bd 8076 193d
000002e0: 30c5 073d 534d bbbd c032 dd3d fc7e f3bd
000002f0: 04ed 823d 2c71 a7bd 348c 6fbd cc91 bc3d
00000300: 1c28 0bbd a2d7 d23d bba4 3dbd 5e61 a5bb
00000310: 25a7 253d 8772 90bd 4d14 a33a 3736 fa3d
00000320: 3f9e ccbd 7351 e0bd ab56 f03d 2c1a 9bbb
00000330: ed17 ce3d 7d35 063d ca7f b73d 8e43 973d
00000340: 7727 c3bd 9c74 bf3d e297 8f3d 7cd2 febd
00000350: a4d7 eebd 38af 943c 0357 833d 6b6b 8c3d
00000360: bee2 823d 4ee1 e8bd 72cf cebc 5c3c ecbd
00000370: 77b4 a4bd 1f9d 723d 5e77 17bd 3c9b febd
00000380: 35f1 ed3d de20 f83d f237 2d3c 0244 fd3d
00000390: 7ddd dbbc c518 b8bc 4fc6 a33d ab6e 923d
000003a0: 5acb 613d 716b b4bd b5d0 e53a f429 70bd
000003b0: d856 b53d 2c8f ec3c f011 85bc f2fd 9c3d
000003c0: d075 5b3c 70df ffbc 4188 883c d082 08bd
000003d0: 2d02 ebbd 282e c7bb 3dec d13c 6c7b 8c3d
000003e0: f879 9b3d 9c88 8e3d 751c 143c 8f4d b9bd
000003f0: b0b6 13bd b4a1 f13d 32b0 373c ace0 e43d
0.089500576 0.0118998345 -0.07746843 0.08582663 -0.003329685 -0.008982774 0.078712516 -0.030121973
0.02758727 0.09090318 -0.066723414 0.040418886 -0.09968145 0.077458784 0.07583212 -0.057357457
-0.07362323 -0.089476764 -0.11084552 -0.06322983 -0.114668414 -0.022842094 -0.020966247 -0.026446292
-0.072641775 -0.012277335 -0.0873472 -0.055829052 -0.12362106 0.006740031 -0.061367836 -0.016548367
-0.04436677 0.0780078 -0.120393515 0.06445281 -0.018357389 -0.02242037 -0.030531839 0.015297922
0.08411822 -0.019165963 -0.024303712 0.0663759 0.03390277 0.058267497 0.12071404 -0.03745719
-0.047162626 -0.12146563 -0.055782832 -0.06821136 -0.09975597 0.10827399 -0.033259314 0.04541944
-0.016787536 -0.0660184 0.046139807 -0.049051344 0.0059283525 -0.1208678 -0.11548851 0.11571093
0.109411046 -0.121488586 0.060590316 -0.027333071 0.034620278 0.106368795 -0.018171579 0.11179016
-0.08552427 0.08986412 -0.057529517 0.06695658 0.0005561346 -0.059909873 -0.121718936 -0.044546656
-0.049555406 0.06846173 0.028935403 -0.10110495 -0.1236315 -0.015154317 0.07540019 0.100739606
0.11939193 0.023374692 0.018293088 -0.024287242 0.01662977 0.01819729 -0.044069055 -0.07484559
-0.0858551 0.04505965 -0.040826276 0.0476933 0.067646116 -0.056834802 -0.016235325 0.059304725
0.061500702 0.0015908536 -0.027882129 0.063311554 0.06675426 -0.102758825 -0.0893089 -0.10291239
-0.07522887 0.10334449 -0.04725182 -0.05649844 0.01894474 -0.083031386 0.07483315 0.060259193
-0.08817192 0.09497579 0.012285483 -0.11787327 -0.06525074 -0.08164022 -0.06251641 -0.030522363
0.0046448805 0.089396894 0.073190875 0.10073508 -0.09994675 0.0036848495 -0.11155814 0.032168433
0.04156275 -0.06578644 -0.068541124 -0.11063634 0.02554986 -0.06908378 -0.032625575 -0.095796786
0.12422318 0.09972003 -0.050881788 0.03560559 -0.08422204 -0.09424072 -0.0890047 0.0806687
-0.055670172 0.09150149 -0.019958122 0.1032459 -0.092280865 0.11983413 -0.114855684 -0.04099648
0.09760093 0.014051073 -0.059194487 -0.008876243 0.09465437 0.009488404 0.099026695 -0.008862554
-0.0043751043 0.120618 0.036424916 -0.017920496 -0.09452318 0.019902915 0.012118391 0.056332868
0.023762062 -0.07626468 0.054651357 -0.06960118 -0.0381263 0.0224611 -0.066496424 0.037466526
0.033147037 -0.09145608 0.108006954 -0.11889455 0.063928634 -0.08175883 -0.058483317 0.09207496
-0.0339738 0.10295035 -0.046299677 -0.0050470075 0.040442605 -0.07053094 0.0012441963 0.12217372
-0.099911205 -0.10953035 0.117352806 -0.0047333445 0.10063157 0.032765854 0.08959921 0.07385932
-0.09529012 0.09348413 0.07011391 -0.124424905 -0.11662224 0.018149957 0.064130805 0.06856426
0.06390904 -0.113710985 -0.025245402 -0.1153495 -0.080422334 0.059231874 -0.03697907 -0.12431952
0.11618272 0.12115644 0.01057242 0.12366487 -0.026839012 -0.022472749 0.07996809 0.071500145
0.05512557 -0.08809555 0.0017533513 -0.05863376 0.08854455 0.028876863 -0.016243905 0.07665624
0.013394788 -0.031234473 0.016666533 -0.033327878 -0.11475024 -0.0060785003 0.025625343 0.06859478
0.07591623 0.0695965 0.009039988 -0.09047996 -0.036062896 0.117984205 0.011211442 0.11175665

lstm.weight_hh_l0 f4 [256, 64]
00000000: 502e 91bd de71 f93d d6ae 30bd 5fb8 e4bd
00000010: 3365 633d da4b 67bc 96cd f63d fc80 92bc
00000020: 2df7 b23d 320f 86bd 7ba4 803c ca69 94bd
00000030: ede9 9dbd 01b7 6a3c c819 0abd 26b2 cf3d
00000040: fba6 b73d 640a b9bc cc57 8f3c eb2b ca3c
00000050: 65bc e6bd c01b 813c 99fb b7bc c6ff 183d
00000060: 333b 9fbd c25f babd 7ffd aa3d 7818 ab3d
00000070: 7a0b 05bd 95c7 ebba 3a3d 4cbd 26b1 683d
00000080: aa10 9c3b ca30 fabd a772 f53d 6d9c fcbc
00000090: 7257 efbc c65f 45bd 98f7 e83d 03b5 df3d
000000a0: 20e4 723b 4637 d1bd fba8 afbd 5b0b b2bd
000000b0: c511 b1bb 45a0 b0bd 820b 9ebd 16dd e43c
000000c0: 443a fc3d b4a8 60bd 7894 de3d d316 eabd
000000d0: 836f d2bd ea64 84bd 482d bdbc 2b2c 71bd
000000e0: 1051 ef3d ca35 913d f79a f53d 0310 023d
000000f0: 7ee3 ca3d ef88 ed3a ced4 f33d 5b9c 753d
00000100: 862d 41bd 6cd3 803d bcc0 5fbd 7f90 90bd
00000110: 7394 b5bd e095 a2bd b47b 80bd fdd4 3fbd
00000120: 39c4 90bd a798 553d dbda fc3d fada b3bd
00000130: fcfb b73d eca1 f73d f8d7 cd3d 3bd8 f0bd
00000140: f133 e83d b0f0 b6bd 2f5b ddbd 93c1 94bc
00000150: a8a2 d8bd 6b49 d83d 4518 f03b 8bed dc3d
00000160: fb47 853c 5ba3 e23d 1e94 1b3d 1483 923d
00000170: 9e90 adbd c7bf a23d b4e8 c93c 840b b9bd
00000180: 37ac f73d 89de 2d3d e2a5 d83d bdda a83c
00000190: cdde 87bd 14b0 813d 2d7c e0bd 5e39 f33d
000001a0: 481c 64bb ea45 f13d bbac 053d c31a be3d
000001b0: 584e 873c 9ae4 0ebb 9b51 b93d 26e1 fdbd
000001c0: 2a82 89bd a59f a83b 73c2 503d f6ed 273d
000001d0: ccd0 493d d061 a7bd 6e59 adbd a176 a03d
000001e0: a529 b83d a467 deba 8215 ee3d 1f41 553d
000001f0: 521a bf3d bda7 e9bd 4daa 70bd 94ca 88bc
00000200: fd44 07bd 54a4 dfbd 1c11 42bc 4f04 a5bd
00000210: 9bee a6bc 3c6c 98bd 19ee f53c 143f f5bd
00000220: a7bb dd3b ac23 653d eb61 9fbc adb0 d13d
00000230: 9fb0 d83d 7db4 a2bd f6f8 ae3d ebe2 6b3d
00000240: 7d74 cdbc 1a6a a03d a82a f1bd 964c b23d
00000250: b522 103d d3d0 88bc fcce 84bd 4f01 a93d
00000260: 640d 2d3d 2df3 053c a514 603d b83f c0bd
00000270: 3ed5 08bc 5152 b8bd 7394 63bd e3e0 b83d
00000280: 0885 e23d 9184 a0bc 70e4 3ebc 0df4 b73d
00000290: 3f11 01bd dedf bb3d 9d8e 513d f723 c1bd
000002a0: 58c2 25bd 28aa e3bd 6d0f a2bb 88c7 a43d
000002b0: 64f6 8c3d 1c35 4e3a 7810 9f3d e9de fe3d
000002c0: 9868 e23d a91c a33d 7df2 33bd 0175 b23d
000002d0: 00b0 313d cd21 3dbc d61b f8bd 25a7 dc3d
000002e0: a8c6 d13d 098b 46bd af87 4cbd c2db e33c
000002f0: 0f5e eabd a687 f93d 1455 c7bc 1d04 023d
00000300: 4ffc 3c3c 02b5 d2ba 157c 4c3d 2a5f 5c3d
00000310: 68da c43d 4221 5ebb 62f2 e9bd 6c38 e23d
00000320: b890 29bd eab3 d8bd ed0e 053d 0e7c 733c
00000330: f2d9 c8bc 8d27 afbc 1219 253d 6b5b 92bd
00000340: 0fe3 823c fd5e 15bd eb08 a53d b00f 583d
00000350: 5a1a a73d bd4d fabd f29b 74ba 5d7c c73d
00000360: 4f55 ff3d 0d79 a5bd bdbf ffbc 2153 5b3c
00000370: d8ad 9fbc ba07 b63c 5463 e63d 95d7 e93d
00000380: 06af 213d c5a4 543d 564f be3d 4a3a 9abd
00000390: bdb0 1cbd 6661 2fbd 482e e23d bf26 98bd
000003a0: 97e4 d83d 29cf ca3d df8e bd3d 485a 4d3d
000003b0: 3fdb 70bc 2d59 88bd 55da 22bc c45c a63d
000003c0: 36a6 b43c 0e0a a23d 89ee fa3d c5d1 a03c
000003d0: 6aa9 debd 9e8f 6d3b 5dd2 9ebd 5165 6d3d
000003e0: c7dc 273d 0bbb 923d 6c0e 6fbd 1c0c c73c
000003f0: 67ff 183c 6ca7 bdbd 67d9 4b3d d2b3 ab3c
-0.070889115 0.121799216 -0.043135487 -0.111679785 0.055516433 -0.0141172055 0.12050931 -0.01788377
0.08738551 -0.06545867 0.01570343 -0.0724674 -0.077106334 0.014325858 -0.033715993 0.10141401
0.08967396 -0.022587962 0.01749792 0.024679145 -0.11266402 0.015760303 -0.022458838 0.0373533
-0.07774963 -0.091002956 0.08349132 0.083542764 -0.032481648 -0.0017988557 -0.049863078 0.056809567
0.0047627287 -0.12216337 0.11984759 -0.030836308 -0.029216502 -0.04818704 0.1137535 0.10923197
0.0037062243 -0.10215621 -0.08577152 -0.08693572 -0.0054037296 -0.08624319 -0.07717039 0.027937453
0.12315801 -0.054848388 0.10868162 -0.114301346 -0.102751754 -0.0646456 -0.02309288 -0.058880012
0.11685383 0.070903376 0.11992448 0.03175355 0.09906672 0.0018122474 0.11905824 0.059963565
-0.047162555 0.062903255 -0.054627165 -0.070588104 -0.08866205 -0.07938743 -0.062735945 -0.04683398
-0.070686765 0.052147534 0.12346431 -0.08782001 0.08983609 0.12091431 0.100509584 -0.11759993
0.11338032 -0.08932626 -0.108084075 -0.01815871 -0.10577899 0.10560878 0.007327112 0.10787495
0.016269675 0.11066314 0.037983052 0.071539074 -0.08474849 0.07946735 0.024647094 -0.090353996
0.12093394 0.042448554 0.10578515 0.020612115 -0.06634293 0.06332412 -0.10961185 0.11876176
-0.0034806896 0.11780913 0.03263543 0.09282448 0.01651685 -0.0021803738 0.09048768 -0.12396459
-0.0671428 0.0051459842 0.05096669 0.04099842 0.04927139 -0.08172953 -0.08464323 0.07835127
0.08992318 -0.0016968143 0.11625196 0.052064057 0.09331192 -0.11408947 -0.05875616 -0.01669816
-0.033024777 -0.10920015 -0.0118448995 -0.080574624 -0.020377448 -0.07442519 0.03002076 -0.11974922
0.0067667547 0.055942222 -0.01945587 0.10238776 0.10580563 -0.07944582 0.08543579 0.057589453
-0.02507996 0.07832737 -0.11775714 0.08706014 0.03518935 -0.016701138 -0.06484792 0.08252203
0.0422491 0.008175653 0.05470719 -0.093871534 -0.008351622 -0.090000756 -0.055561494 0.09027269
0.1106053 -0.019594463 -0.011651143 0.08982096 -0.031510588 0.09173559 0.051161397 -0.09430688
-0.040468544 -0.11116439 -0.0049456866 0.0804587 0.06882933 0.000786619 0.07766813 0.124448605
0.11055106 0.07964451 -0.043932427 0.08713723 0.043380737 -0.011543703 -0.12114684 0.10774068
0.10242969 -0.048472438 -0.049934085 0.02781475 -0.114437215 0.12184076 -0.02433256 0.031742204
0.011534764 -0.0016075673 0.04992302 0.053801693 0.0961197 -0.0033894335 -0.11423184 0.11045918
-0.04139778 -0.10581191 0.032484937 0.01486112 -0.024517987 -0.021381164 0.040307112 -0.07146343
0.01597741 -0.03646754 0.080583416 0.052749336 0.08159323 -0.12221859 -0.0009331099 0.09740517
0.12467443 -0.08079729 -0.031219358 0.013386519 -0.019492075 0.022220481 0.11249414 0.11418072
0.039473556 0.05191495 0.09292476 -0.07530649 -0.03825449 -0.042817496 0.11043984 -0.07429265
0.10590475 0.09902794 0.09255766 0.050134927 -0.01470071 -0.06657634 -0.00993975 0.081231624
0.022051912 0.07912074 0.12252528 0.019631276 -0.10872157 0.0036248933 -0.07754967 0.05795795
0.040982034 0.07164582 -0.058363363 0.024297766 0.009338236 -0.09260449 0.049767878 0.020959768

lstm.bias_ih_l0 f4 [256]
00000000: d0d7 f4bc 7f7e 6fbc 9a33 cc3d d59a bb3d
00000010: d7f9 ddbd 9a7f eebd b2f6 a0bc 5253 98bd
00000020: 6f87 55bd 2a90 3fbd f944 ee3d 69a9 47bd
00000030: 51b7 983c 88d9 e7bc bd0a 99bd 0fcd 79bd
00000040: 605e a53d a814 023b 438f f6bc a563 92bd
00000050: f9d9 46bd f9fe 113d f40b f4bd bde4 df3d
00000060: 264e 75bd 0cfe e73c 05c0 8fbd 1cc0 dd3d
00000070: e094 233d 895a eb3d 0bbf f13d 8b98 5b3c
00000080: 35a6 25bd c693 c6bc 208d 95bd c9ec 90bd
00000090: e0cc 09bd ce24 fe3d 6c0b 313d dd6f 7fbd
000000a0: e95e 77bc d1a5 8fbd 2ba3 edbd 3096 dbbd
000000b0: 19b0 82bd 4788 e6bd c038 28bd 87b4 713c
000000c0: 473e c2bd e85a e9bd 498e 263d c488 babb
000000d0: 3e24 93bd 5817 49bd 5243 55bd 8e89 debd
000000e0: 8293 1d3d 95b9 fa3a 25bd c03d c807 e7bc
000000f0: 6dd5 48bd b03c 0d3b 78b7 3a3d e7e5 c9bd
00000100: 4083 b9bd 8bf4 3c3d f1e6 84bd 4fc5 f4bd
00000110: 9584 ee3c 26e4 87bb 6f3c 5d3d a5b1 ecbd
00000120: aeff c63d 63db fbbd b433 7c3d e862 94bb
00000130: d6c6 283b 29b4 ac3d 8b7e 553d e18d 8dbb
00000140: 8ad6 e53b b94d bbbd ea79 9abd 3bd0 2d3d
00000150: a63c 0ebd dcd9 f83d 33a7 833d c76f 82bd
00000160: 2aae 833d a490 bdbd 0f83 423c 9823 aebd
00000170: 8e27 f53d b629 88bd a63e bf3c ad01 dd3d
00000180: 73c2 863d 1ef5 bebc 3813 3c3d b8d8 ddbd
00000190: 1ef2 f63b 56b4 a0bd 53c9 293c 33ee cf3d
000001a0: 2f12 f93d 75fc eabd 745b e03c 26d8 b4bd
000001b0: dfa6 4abc b7e6 e0bd fe78 9bbd de9a d1bd
000001c0: c743 da3d 2bfb 073d 2a23 64bb a6c0 ea3d
000001d0: 9e7f c2bd c9ff cdbd 069e ebbc 9ae8 a3bd
000001e0: bff2 713d 389d cabc a583 96bd ebf0 7b3d
000001f0: 4b7d 723d 22c5 16bd d867 dc3d 1fdc cf3d
00000200: 10ac f13d 1922 d73c 4f4c f5b9 689d f43d
00000210: 41eb 03bb cfab a83c bba5 b43d b527 f73d
00000220: 18cf f4bd b71f c93d 251d 6abd 24f1 f63d
00000230: 9a5d 87bd 2e54 1cbd 4752 9bbd 6a84 3c3d
00000240: 7aa8 5d3d 74e0 8abd ce6d c1bc 632d fdbd
00000250: 10bc 28bd 2d8f ef3d 48a0 c63d 3056 493d
00000260: 7338 6cbd dd95 b83d 051c 4e3d 63ad d33d
00000270: 1478 b9bd 5328 7c3c 04dd b5bd 72a5 a83d
00000280: 32ac ddbd 3a86 e2bd 48e2 9f3d e2c3 273c
00000290: 4adb 7cbb 7ac4 843d 4c50 6d3d f448 06bc
000002a0: 6339 ddbc 523c c93d caa0 a8bd f1ba d83d
000002b0: a6fe a8bd 40b8 f33d 6ad1 b03c 4157 9b3d
000002c0: 3efd a2bd 9bed 9fbd 9597 a9bd acc9 b2bd
000002d0: f65b f83d a247 7e3d 3aac b63c 005f afbd
000002e0: cc4b d3bc c52c a03c b0c9 983d ac4b ddbd
000002f0: aac1 b33d 9723 bc3d 7aa8 2b3d 1065 e0bd
00000300: b60d 4bbc 9dd4 573d d5ad 8f3d 50b8 5c3d
00000310: e4ef ddbd b322 08bc 437a 59bd 8280 38bd
00000320: ae79 cfbd 69cf f8bd dd20 8b3d 8738 b23d
00000330: 0822 d9bd 7eaa 99bd 5af3 75bd 7f76 f9bd
00000340: c9f6 e73d 6370 d5bd 89a7 7bbd f8dc d8bd
00000350: c0af cebc 248b f9bd 21d6 99bd a4ac d43d
00000360: 586e 90bd fa09 283d 7aa8 b6bd 4343 d03d
00000370: 8946 0ebd 8209 58bb b4e8 853d ffad efbc
00000380: ca22 b4bd 359c 1d3d 61b0 ca39 ef31 363d
00000390: 7384 eb3c 9965 c23d c8f6 b53d 17e5 bbbd
000003a0: ada7 f83d 9c93 79bc 3394 f3bd 3e5d e5bd
000003b0: 7a8a 8cbd 95a3 c83d c0f5 4a3d 03a1 bc3d
000003c0: 3209 00bd 565e d3bd 1b5a 093d 1649 c83d
000003d0: ff46 9a3d 2aeb 863d 8561 ad3d 6a44 ef3d
000003e0: 51fa 53bd 43f0 943d eeb8 fd3b a6c5 993d
000003f0: a1ef 243d 3f82 b23d 3fbc a5bc e4c8 6fbc
-0.029888064 -0.014617561 0.0997078 0.09160391 -0.10838669 -0.11645432 -0.019648883 -0.07437767
-0.052131113 -0.046768345 0.11634249 -0.048745546 0.0186421 -0.02830197 -0.07472751 -0.060986575
0.08074641 0.0019848738 -0.03009761 -0.07147912 -0.04854772 0.03564355 -0.119163424 0.109323
-0.05988898 0.028319381 -0.07019047 0.108276576 0.0399369 0.114918776 0.11804017 0.013403068
-0.04044171 -0.024240386 -0.07302308 -0.07076413 -0.03364265 0.12409364 0.043223783 -0.06236254
-0.015098312 -0.07014049 -0.116033874 -0.10722005 -0.06381244 -0.112564616 -0.041069746 0.014752514
-0.09484535 -0.11394292 0.040663037 -0.0056925733 -0.07184647 -0.049094528 -0.052066155 -0.1086608
0.038470753 0.0019128794 0.094110765 -0.028201953 -0.049031664 0.0021551065 0.045585126 -0.098583035
-0.09058237 0.04613165 -0.06489361 -0.11951696 0.029115954 -0.0041470705 0.054012712 -0.115573205
0.09716736 -0.12297704 0.061572745 -0.004528392 0.002575328 0.084328 0.052122634 -0.004319892
0.0070141004 -0.09145684 -0.075427845 0.042434912 -0.034725808 0.121509284 0.06428375 -0.06368976
0.064297035 -0.09256104 0.011872067 -0.08502883 0.11970435 -0.06648581 0.023345303 0.10791335
0.06580057 -0.02331024 0.045916766 -0.108323514 0.007536187 -0.07846896 0.010362941 0.10152855
0.12161671 -0.114739336 0.027387358 -0.088302895 -0.012368887 -0.10981505 -0.07591437 -0.10234617
0.10657459 0.033198517 -0.0034810998 0.11462526 -0.09496997 -0.10058553 -0.028761875 -0.080033496
0.05906939 -0.02473317 -0.07349328 0.061509054 0.05920152 -0.036809094 0.10761994 0.10149407
0.118003964 0.026261376 -0.00046786896 0.11944085 -0.0020129236 0.020589737 0.08820673 0.120681204
-0.119535625 0.09820502 -0.0571567 0.12057713 -0.0660965 -0.038166218 -0.075840525 0.046024717
0.05411575 -0.06781092 -0.02361193 -0.123621725 -0.041194975 0.116972305 0.0969854 0.04915446
-0.05767102 0.09012959 0.05031969 0.10335805 -0.09056106 0.015390473 -0.08880046 0.08234681
-0.10823859 -0.11060758 0.078068316 0.010239573 -0.0038582855 0.064827874 0.057937905 -0.008196104
-0.027004903 0.09825958 -0.08233793 0.10582531 -0.08251695 0.11900377 0.021584231 0.07585002
-0.07958458 -0.078089915 -0.08280865 -0.08729872 0.12126915 0.062080033 0.02229892 -0.08563042
-0.025792979 0.019552598 0.07460344 -0.10805449 0.08777173 0.09186476 0.04190872 -0.10956776
-0.012393406 0.052693 0.07015578 0.05388671 -0.10836771 -0.008309054 -0.053095113 -0.04504443
-0.101306304 -0.12148935 0.067933775 0.08702188 -0.10602194 -0.07503222 -0.06004653 -0.121808045
0.113263674 -0.10421827 -0.06143907 -0.105890214 -0.025230289 -0.12184742 -0.07511545 0.10384491
-0.070522964 0.04102514 -0.08918853 0.10169079 -0.034735236 -0.0032964651 0.06538525 -0.029257772
-0.08795698 0.03847905 0.00038659855 0.044481214 0.02874968 0.094920345 0.088849604 -0.09174555
0.121413566 -0.015232947 -0.11893501 -0.11199425 -0.0686235 0.09796826 0.04955077 0.09210398
-0.03125877 -0.103207275 0.033533197 0.09779565 0.07533073 0.06587823 0.08465866 0.11682971
-0.051752392 0.07272389 0.0077429926 0.075084016 0.04026759 0.08716249 -0.020231364 -0.014635298

lstm.bias_hh_l0 f4 [256]
00000000: b221 c43d ef30 92bd 188a 85bc bdca ea3d
00000010: 2345 cdbd a3dc 43bd 931a 483d 36fa 823d
00000020: 733b 8c3d c1da d63d 57fc dbbc 358a 793c
00000030: cc52 7f3d 62dc a33d 0cc6 f43b 15fb 4e3d
00000040: ea07 ee3d e9c0 72bd aeb1 9e3d c665 2d3d
00000050: 219b a8bd 4b2e 85b7 3555 3fbd 07c0 a7bd
00000060: a358 a23d dbf8 a8bd 71d4 733d 5e30 bcbd
00000070: b1b9 f73d d782 ce3d b30f 57bd 68cc c2bb
00000080: bbd2 e03d 9395 64bd 53e2 9f3c 110f 293d
00000090: 6923 b63c 7a3b 92bd 343b 41bd 0f65 57bb
000000a0: d3a5 cbbd 507c 70bc 3d39 5d3d f6a8 9b3b
000000b0: 48dc 113d d134 bcbd 1d0e b9bd 0afc 03bd
000000c0: 7ddb d0bd 7863 f33d 18a5 a4bd a4ca afbd
000000d0: d6ab c2bd 84a8 783d beb8 66bd c801 d3bd
000000e0: f277 b13d c334 ba3c 08c5 acbc ddd3 7e3c
000000f0: 1690 a5bd 44d3 dfbd b7ba adb9 c66f 7f3c
00000100: 42de d13d 3291 e7bd 8986 a63d d39d fbbd
00000110: a244 06bd a541 ffbd 5510 1bbd a342 ed3d
00000120: e63d c5bd f324 f8bc 3c2e e03d adf8 8ebd
00000130: ebc8 ccbd 7d0d b1bd 7770 a53d 737a 40bc
00000140: f1c7 663d 9955 ec3d b53e 36bd 5ca8 a5bb
00000150: 26fb 003d e4bd 053d fa09 3b3c df7e de3d
00000160: 5685 35bd 30fc d33c 9850 9abd f895 92bd
00000170: c418 64bd 0ac9 fb3d faf9 c0bc 69de 9f3d
00000180: 030c e43d 8c9b e3bd 3fc7 f9bd cb8b 4b3d
00000190: a9c6 3cbd f200 9f3c 1c1c 993d 8938 af3c
000001a0: da63 5eb8 47cf f93d 530a 453d 76b0 853d
000001b0: ed84 573d 1183 b6bd c15d 843c 3a52 723d
000001c0: 4bb3 f7bd f726 603d 03f1 55bd e6d0 7f3d
000001d0: 3297 833d eb81 a9bd 8e81 4a3d 6156 11bd
000001e0: 8254 f13d 900a cdbc 5181 f5bd dff5 a7bd
000001f0: bd7b 8f3d 3e2b 493d 567d b53c 71fe a7bd
00000200: bceb c73d a913 0e3d c9d6 80bd 2e1a 41bb
00000210: 6991 033d abdc 383d da41 633d c914 10bb
00000220: ea21 d03d b503 b13d f62a f43b f8ea a83d
00000230: 7995 c0bc 98b1 28bb cfb1 ebbd 6aa0 993d
00000240: b4ef bd3d 2bf3 773d 3af6 a5bd 999f c5bd
00000250: 7608 b93d c12e 49bd f62c 3e3c f0e2 4d3d
00000260: 7960 833d bf1d 013d b031 e3bd cb6d 843d
00000270: 3e73 db3d 059f 9c3d 130b a13b c227 fc3b
00000280: 8aa5 8d3d 0c24 833d 886f 7f3d 139c c13d
00000290: b7f1 a4bd 5f13 093c 0bbb 923d 835e a03d
000002a0: 679a 35bb a805 ebbd b890 0e3d 56aa 74bd
000002b0: 9044 b6bd e856 f13d d077 ba3d cfe7 9dbd
000002c0: cac2 a0bd 9b49 b5bd b110 123c 4e2e 023d
000002d0: 3162 203d c63c 213a fe9b 99bc e41f d6bd
000002e0: 94eb aebc 5be4 943d 02f6 963d c883 d3bd
000002f0: 94ae 06bd 33d0 adbd 35c0 d43d 0227 723d
00000300: 7be3 e03c 0d00 543d b9dd b03d 8a44 d6bd
00000310: 14ee 87bd 4d80 5ebd 4f4e a33d 8e09 fe3d
00000320: 2a04 dd3d fbad cdbd df18 f3bd 7bd0 e3bd
00000330: 46d3 c43d 2c23 a43d 72a1 173d 194b 813d
00000340: fb72 b33d 7768 83bd 1e2a f63d f27b 8cbd
00000350: 9d93 6abd 0c8b edbd 457a c73d 4ae5 90bd
00000360: 9282 a8bd 3447 bf3d 4c89 8ebd 270f b93b
00000370: 1087 fdbd a95c abbd a292 3d3d 9f42 c2bc
00000380: 607f 243b 10db d8bc de26 d0bd 751e 79bd
00000390: 402d a93d 8344 5dbd ba98 85bd 2214 753c
000003a0: e1b4 1a3d 0887 41bd 6e72 ecbc 8ce1 96bd
000003b0: e413 e33d cbce aabd 4153 b6bd c72f dcbd
000003c0: f889 9abd ba67 2a3d ba22 963d 6655 e43d
000003d0: b357 89bd 7420 33bd 2bc2 afbd 4224 17bd
000003e0: 2b62 2a3d 7666 36bd f476 86bd 1871 b6bd
000003f0: 7ee1 d1bd f44a 2c3c 19ac f2bd 3145 323b
0.09576739 -0.071382396 -0.0163012 0.114644505 -0.100229524 -0.047817837 0.04885347 0.0639538
0.068472765 0.10490943 -0.026853723 0.015230705 0.06233482 0.08001019 0.007469898 0.05053242
0.11622603 -0.059266005 0.077487335 0.042333387 -0.082327135 -1.5876392e-05 -0.04671212 -0.08190923
0.07927062 -0.082505904 0.05952877 -0.09188913 0.12095965 0.100835495 -0.052505206 -0.0059447773
0.10977694 -0.055806708 0.0195171 0.041274134 0.022233682 -0.071402505 -0.0471756 -0.0032866632
-0.09943738 -0.014678076 0.054009665 0.0047503663 0.035610467 -0.091897614 -0.09035895 -0.032222785
-0.10198114 0.118842065 -0.08039302 -0.085835725 -0.09505431 0.060707584 -0.056328528 -0.10303074
0.08665456 0.022730237 -0.021090046 0.015553442 -0.08084123 -0.109289676 -0.00033136245 0.015590614
0.102474704 -0.11306991 0.08131129 -0.12285962 -0.032780297 -0.124636926 -0.037857372 0.115849756
-0.09630947 -0.030291056 0.109463185 -0.06981025 -0.099992596 -0.08645151 0.080780916 -0.011747944
0.056343023 0.11539764 -0.044493396 -0.0050554704 0.031489514 0.032651797 0.011415953 0.108640425
-0.044316612 0.025877088 -0.07534903 -0.071575105 -0.05568768 0.122942045 -0.023556698 0.07806093
0.111351036 -0.111136526 -0.12196206 0.049693864 -0.046087895 0.01940963 0.074760646 0.021389263
-5.302192e-05 0.12197738 0.04810555 0.06527798 0.052617002 -0.08911718 0.016157987 0.05916045
-0.12094744 0.05472466 -0.0522318 0.06245508 0.064253226 -0.08276733 0.04943996 -0.035482768
0.11783697 -0.02502945 -0.11987556 -0.08201193 0.07006023 0.049113505 0.022154491 -0.08202828
0.0976176 0.034686718 -0.06290967 -0.0029465067 0.032121096 0.04513232 0.055482723 -0.0021985045
0.101627186 0.08643285 0.0074514104 0.08247942 -0.023508774 -0.002574062 -0.11508524 0.075013
0.09274235 0.060534637 -0.081036046 -0.096495815 0.09034817 -0.049116854 0.011607399 0.050265253
0.06414885 0.03152251 -0.110934615 0.06466254 0.1071534 0.07647518 0.00491465 0.007695169
0.0691634 0.0640336 0.062362224 0.09453597 -0.08053916 0.008366435 0.07164582 0.07830527
-0.002771044 -0.11475688 0.034805983 -0.059732758 -0.08899796 0.11784154 0.09104884 -0.077102296
-0.07849653 -0.0885193 0.008915112 0.03178244 0.039156143 0.00061507185 -0.01875114 -0.104553014
-0.021352567 0.07270118 0.07371141 -0.1032787 -0.032881334 -0.084869765 0.10388223 0.059119232
0.027452221 0.05175786 0.0863604 -0.104622915 -0.06637207 -0.054321576 0.079739206 0.12404166
0.1079181 -0.1004295 -0.11869978 -0.11123749 0.0961061 0.08014521 0.0370192 0.06313152
0.08762165 -0.064164095 0.12019752 -0.06859578 -0.05726968 -0.11598787 0.09740118 -0.070749834
-0.08228029 0.09339753 -0.06959781 0.0056475583 -0.12379277 -0.08367283 0.046282418 -0.023713408
0.0025100335 -0.026471645 -0.10163663 -0.06082006 0.08260584 -0.054020416 -0.06523271 0.014958413
0.037770156 -0.047247916 -0.028863158 -0.073672384 0.11087778 -0.08340224 -0.08902598 -0.107513
-0.07545847 0.041602828 0.07330842 0.11149101 -0.067061804 -0.04373212 -0.085819565 -0.036899813
0.041597527 -0.044531308 -0.06565657 -0.0890829 -0.10248087 0.010515917 -0.11849231 0.0027201886

lstm.weight_ih_l1 f4 [256, 64]
00000000: cd93 1cbd 7595 91bd 07f1 cf3d 174c e3bd
00000010: dcce 8c3d 15ce a2bd ab2c b43d ce15 7ebd
00000020: 040b 453d ba29 83bd 81a0 febc aa78 04bc
00000030: 8ed1 aabb 9def 473d 3194 f7bd 287c 4abd
00000040: 0074 42bd 3e54 dcbc fd00 61bd dfaf 56bc
00000050: 2fbd a63d e6b0 95bd a4ad 74bd deeb c83d
00000060: 227d b2bd 913a 433d b26c d43d 2887 30bc
00000070: 5d9c 8d3c b0f2 753d c13a ac3c c292 fc3d
00000080: ad05 e7bd 73d3 bc3d b8b1 83bd 2f99 aabc
00000090: f814 db3d 56cc f23d 55ea 893d 88b6 8f3d
000000a0: 872c abbd 85fa 29bd 69bc 3e3d 8f32 17bc
000000b0: b228 3c3d 8bb9 643d 4f96 db3d 5a38 e43d
000000c0: d108 fd3c 44f5 91bd 8a59 d6bd 8919 86bd
000000d0: e762 fc3c 10aa e0bd 5ce1 5dbd a734 983d
000000e0: 835b 363d 55dd c53b 61a9 d23d 374f 1ebd
000000f0: 7e7f ef3d b00a 6b3c 0933 fdbd 5a74 3cbd
00000100: 9775 8ebd 53c8 db3d 038d cf3d 9c1e cfbd
00000110: b65a 17bd 5ea2 d23d 1b97 d0bd e80e ffbd
00000120: bb3d e83c 0fd8 fdbc 588d c03c d45b 5ebd
00000130: f576 16bc 86e4 a73d 2006 423d 7342 d0bd
00000140: fddb b53d fd8a c2bd aa40 df3d 9d92 7ebd
00000150: f5c4 a33d 20a3 dc3d 2eb6 0ebb 9ce0 b43d
00000160: b0f2 f7bb a356 e0bc 3372 803d d65d ff3c
00000170: 1e0b cbbd d330 353d a0c3 193d b61b 63bd
00000180: fb2a 803d 45ef 8bbd 9362 adbd 4fcb 5b3d
00000190: 9962 f93d 3fdc 82bd e9a4 68bb 8c8a ce3d
000001a0: b0d4 213d 82b0 e3bc c747 853d b542 0ebd
000001b0: 5431 e7bd 9507 acbd 9ae5 4dbd a5cb 5d3d
000001c0: c296 b9bc b629 843d ff84 0a3d 8bdf 97bd
000001d0: e1e4 e439 1526 843d 6b12 debc 4ed5 c7bd
000001e0: 9cec 2d3d 873b ec3d 4dbc 283d a684 88bd
000001f0: 902b 733b 034f 3c3d 0da9 c33d ace1 9abd
00000200: 1b5e d33c 181f 46bd 5eb4 d4bd 4e46 6ebd
00000210: 74e4 f73d 0f6b a6bd e8ac 923d aaa5 8b3d
00000220: f628 f0ba 4f24 e1bd 4930 0b3d 50d1 95bc
00000230: ea9f 8b3d 2b6c 27bc e098 4ebd c645 31bd
00000240: 904d 4ebd ccef abbd 4d77 ebbd e903 35bd
00000250: 9e6c 84bd 2333 823d 40c8 923d ca38 00bc
00000260: 54b8 a0bd 2556 e2bc 0d7a 9a3d ae9d 76bc
00000270: ac12 1f3d 3d64 513d 1ad7 143c 3d9e e13d
00000280: 57c9 e4bd 2235 bdbd 9509 be3d 19f3 96bd
00000290: 1ce7 7b3d 4afe fa3d 3cd0 c0bd ca1b 1d3b
000002a0: 377f be3d 2272 d3bd f284 363d b248 663d
000002b0: ba9a 833d be84 ec3d 0b90 aabd 5060 2abd
000002c0: fcc5 d3bd 778e e9bd c5f4 bfbd 56cb 293c
000002d0: 96d0 a8bc 50e8 403d 04bf b53d f6b6 b9bd
000002e0: 5706 813c 9b55 b53d 00f7 e4bd 6316 c3bd
000002f0: 7803 bfbd 03b3 f0bd ac9f ba3d 76da 923d
00000300: d7a8 ae3c fc86 c33d 24ee cc3d 206f cebd
00000310: df6b 85bb e57d 593d 9161 db3d 46d6 e13d
00000320: e395 87bd 13aa 44b9 c367 a1bd e175 293b
00000330: 304b 803d 191b c5bd c99a 32bd 7eca 913d
00000340: 6507 bc3d b547 71bd 982c e93d 0da1 413d
00000350: 1271 c0bd 68fe 23bd 4bd0 ccbd 9e75 eabd
00000360: 781f e03d c495 8bbc 32fa 98bb ac5d de3d
00000370: bdd5 0e3d ec8e 893d 718a 64bc c5d9 71bd
00000380: e428 bd3c ba17 103d 7bb4 cebd 9ff2 db3d
00000390: b292 01bd 3a84 babb 8f1f acbd b70b 7e3d
000003a0: 4f4e cfbc a411 88bd 4597 b23d df7b 4abd
000003b0: 00f6 913d 1ba7 5fbd 88ca d6bb d7f4 f33d
000003c0: 46bc be3d d550 e4bd 837f a03b 5efc 8d3c
000003d0: 3d8b 6f3d d0aa a2bd 63e3 37bd 9373 a5bd
000003e0: de15 f5bc 9835 363d 76e3 c93d c542 d8bd
000003f0: 0e37 593d c890 e43d f9cf 843d 5a74 6c3d
-0.03822689 -0.07108585 0.10153394 -0.11098497 0.06875393 -0.07949463 0.08797582 -0.062032513
0.04810621 -0.06404443 -0.031082394 -0.008085409 -0.005212969 0.048812497 -0.12088812 -0.04943481
-0.047473907 -0.026895639 -0.054932583 -0.013103454 0.08141553 -0.07309131 -0.05973591 0.09810613
-0.087152734 0.047663275 0.103722945 -0.010774411 0.017286474 0.060045898 0.02102411 0.12332679
-0.112803794 0.09220018 -0.064303815 -0.020824997 0.10697359 0.1185538 0.067341484 0.07017237
-0.08358102 -0.04149868 0.0465664 -0.009228363 0.045937248 0.05584101 0.107220285 0.11143561
0.030887993 -0.07126859 -0.10466297 -0.06547839 0.030808879 -0.10969937 -0.054169998 0.07431918
0.044520866 0.0060383477 0.10286213 -0.038649764 0.11694239 0.01434581 -0.1236325 -0.0460094
-0.06956022 0.10731568 0.10134318 -0.1011326 -0.036951743 0.10284875 -0.10185071 -0.12454015
0.028349748 -0.030986814 0.023504898 -0.054286793 -0.009183635 0.08197884 0.047369123 -0.10168924
0.0887985 -0.09499166 0.109010056 -0.06215154 0.07996551 0.10773301 -0.0021776068 0.08831903
-0.0075667724 -0.027385062 0.06271782 0.031172674 -0.0991423 0.044236016 0.03754008 -0.05544635
0.06258198 -0.068327464 -0.08466067 0.053660687 0.12177009 -0.06389665 -0.0035498685 0.100850195
0.039509475 -0.027794126 0.06507831 -0.034731586 -0.112887055 -0.08399884 -0.050267793 0.05414929
-0.022654895 0.06453268 0.03381824 -0.07415684 0.00043658077 0.06452576 -0.027108392 -0.097574815
0.042461976 0.115347914 0.041195203 -0.06665926 0.0037104823 0.04597379 0.09553728 -0.07562575
0.025801709 -0.048369497 -0.10385965 -0.058172517 0.12104121 -0.081258886 0.071618855 0.06818707
-0.0018322754 -0.109932534 0.033981595 -0.018288285 0.068176106 -0.01021866 -0.05043876 -0.04327943
-0.050366938 -0.08395347 -0.11497364 -0.044193182 -0.064660296 0.0635741 0.07167101 -0.00782604
-0.07847658 -0.027628968 0.075428106 -0.015052242 0.038836166 0.051120985 0.009084487 0.1101651
-0.11171215 -0.0923865 0.092791714 -0.07370586 0.0614997 0.12255533 -0.094147176 0.0023972862
0.09301608 -0.103245035 0.04456038 0.05622167 0.06425996 0.11548756 -0.08328255 -0.041595757
-0.10340497 -0.11404126 -0.09372858 0.0103634205 -0.020607274 0.04709655 0.08874324 -0.090681
0.015750093 0.088542186 -0.11179924 -0.09525754 -0.093268335 -0.11752894 0.09112486 0.07170574
0.021320743 0.095472306 0.10006359 -0.10079789 -0.004071697 0.053098578 0.10711969 0.110271975
-0.066203855 -0.00018755374 -0.07881119 0.0025857615 0.06264341 -0.09624309 -0.043604646 0.071187004
0.09181098 -0.058906276 0.11385459 0.04727273 -0.093965665 -0.040037543 -0.10000666 -0.11448215
0.10943502 -0.017039187 -0.0046684975 0.1085771 0.034871805 0.06716713 -0.013949023 -0.05904557
0.023090787 0.035178877 -0.10093018 0.10739636 -0.03163404 -0.005692032 -0.08404457 0.06202289
-0.025305895 -0.0664399 0.087202586 -0.04943454 0.07126999 -0.054602724 -0.0065549053 0.11911934
0.09313254 -0.1114823 0.004898013 0.017332252 0.058482397 -0.07942736 -0.044894587 -0.08078685
-0.029917654 0.044484705 0.09857838 -0.1055961 0.05303102 0.11160427 0.0648498 0.05772815

lstm.weight_hh_l1 f4 [256, 64]
00000000: 505e 1c3b 2cbc adbd e37c 193d b7af a53d
00000010: 2d5f c5bd 7645 e63c 5ca9 df3d a2b5 d23d
00000020: 80f3 b6bd 78cc b6bd b447 babd 84ed df3b
00000030: bd74 8e3d 9508 753c 9067 ae3d bd78 033d
00000040: 9206 6abd 0b5e bcbc 86d8 b43d d5ea b4bd
00000050: 5909 f93c 6519 aabc 2557 a73b 6bd6 cb3d
00000060: c753 9fbd bc26 a1bd 9011 cf3d 6771 7abc
00000070: aa1b aa3c 625a d13d db40 943d 9a84 623a
00000080: 9d6c f73d 21e4 be3d fc86 1dbc 7c6d 41bc
00000090: ee45 2dbd af3d bfbc f58e f03d 6116 a13d
000000a0: 69df afbd 2a96 563c 5fb9 e63d 99c6 d937
000000b0: c64e be3d 6880 04bc 1936 fbbd a060 81bc
000000c0: ed80 b73d 4b6e e73d d2f7 8d3d eeea 663c
000000d0: de2b c53c f0e6 063c 861b d63d 82cc 2f3d
000000e0: 3926 d9bd d0f0 d5bc 3a7d e2bd c249 9dbd
000000f0: a447 3dbd 4f55 f23d d245 84bc e14c 1bbc
00000100: cbb5 b3bd 6c41 9bbd c538 d7bd f2f8 703d
00000110: 9a83 24bd 3e88 df3d 7d74 4e3c e46d 17bd
00000120: 553a 3f3d b981 f23d 8a3a f3bd a005 93bc
00000130: c852 b2bd 51d1 babb 0811 c9bc 52ca afbd
00000140: 9c8d 53bd 0cf2 a6bd 31e1 8d3d 6a87 97bc
00000150: 672c 8abd 53e0 e13c 3aa3 dd3d 35d0 03bd
00000160: f27c 293d 690d 01bd d4d0 8fbc f018 bcbd
00000170: a304 de3c 278e 5cba 7f63 bcbd d346 e23d
00000180: 251d 87bd 88cd 9fbd cfbd 753d 710d 663b
00000190: 8a77 483d 077e 2abd 590e 313d b7ee f9bd
000001a0: f064 afba dad4 22bd 55ad b83d 363a 733d
000001b0: 844c 38bd 2919 fbbc 176d c1bd c48c 5abd
000001c0: a1a8 7ebd 5cb7 bfbd 58e5 b83d 7e78 973c
000001d0: 4251 8b3c 35d5 2bbb 91bb 77bd 950a c1bd
000001e0: af5c 97bd ea8f 203d ed4a 62bd 4eb6 a6bd
000001f0: acef 8cbd 36b8 a03d fe52 b2bd 5b99 3d3c
00000200: 7930 9f3c bc5a 513d 6782 f63a 0bbb 263b
00000210: 20a0 aebc 99c9 f6bd d79a 64bd 320b 72bc
00000220: 2894 203c e123 073d e12d b23c 4b79 cf3d
00000230: 8d9d adbd b9f5 c03d eb58 ce3d e79f e5bd
00000240: 25be f2bd bb37 9bbd 4b1e 13bd 64fa e4bd
00000250: 9580 f3bd fd17 cc3d 6da9 f6bb 6900 953d
00000260: 1544 90bc 999f 3a3c c953 16bd 9776 933d
00000270: 280d 75bd c622 a1bd b2df efbd 84ba ba3d
00000280: 017a 783b 6737 eebd cf93 f83c 451a f63d
00000290: 12ad 593d cd7a 90bd 92ac d4bd 28ab 34bd
000002a0: acf0 873d af23 94bd e82d 143d 4463 c23d
000002b0: 17be 9fbc 2c94 b9bd a8cd 573d 319b d03c
000002c0: 6bec bfbd e3cf b93d 2258 89bd 024e b3bd
000002d0: 8c17 923c 9aeb 363c 5a8c 873d 10e1 d7bc
000002e0: 9476 cb3c 7d56 9cbd afac c7bd 302f cfbc
000002f0: 9cc4 4e3d bdc7 b73d 0bcc 913d 7378 90bd
00000300: 8833 cabd ab46 35bd 7468 adbd 9b2e a33d
00000310: 4d3a 3d3d a676 2cbd 1e87 563d 679c acbd
00000320: a3aa ccbd 5028 63bd c33c 433c d895 d13d
00000330: 1c4c c6bb 1390 88ba 89b1 7b3d 51ae b5bc
00000340: f81b 27bb 8890 8cbc 2d00 26bd 4823 aebd
00000350: 0c21 16bc 14b1 bf3d 66a7 b73d ed9c 49bd
00000360: 2d10 c4bd af1c b7bd 796f d53d cd5e 363d
00000370: 7e25 ddbd e24a 943d db9b 213d aba5 78bc
00000380: a95c c2bd 9a46 be3d 5877 45bd c12e 92bc
00000390: 88c3 a33b 506c e83d 5c55 79bc c944 aebd
000003a0: 7771 0fbd b480 8dbd b384 bfbb 4b6d 653d
000003b0: e628 f9bd b442 c2bd 3afc 443d f6da f03d
000003c0: 0649 363d c6e7 f73a 3c28 e3bd 5f05 383d
000003d0: 99a6 453d b402 343d 9653 f13d df24 eb3d
000003e0: d0c7 23bd 6830 1ebd d7d1 d83d dc7e f63d
000003f0: 502a 8abc 5a4d b33c 4ae9 51bd d41e 0c3d
0.0023859926 -0.084831566 0.037472617 0.080901556 -0.09637294 0.028109293 0.109209746 0.1028855
-0.08933163 -0.08925718 -0.090957075 0.006833734 0.0695586 0.014955659 0.08515847 0.032097567
-0.057135172 -0.022994062 0.08830361 -0.08833853 0.030399965 -0.020764062 0.005106824 0.09953006
-0.07779651 -0.07868716 0.10110772 -0.015285826 0.020765144 0.10222317 0.07238933 0.0008640975
0.12081263 0.09320856 -0.009614702 -0.011805888 -0.04230302 -0.023344843 0.11746017 0.078655966
-0.08587534 0.013097325 0.112658255 2.5960895e-05 0.092923686 -0.008087255 -0.12266178 -0.015793145
0.089601375 0.113003336 0.069320336 0.014094098 0.024068769 0.008233771 0.104544684 0.042919643
-0.106029935 -0.026115805 -0.11059041 -0.07680084 -0.0462109 0.118326776 -0.016146574 -0.009478779
-0.08774909 -0.075808376 -0.10508875 0.058831163 -0.040164568 0.10914658 0.012601015 -0.036970034
0.04668649 0.11841149 -0.118764 -0.017947018 -0.087071955 -0.005701222 -0.024544254 -0.085835114
-0.05164872 -0.081516355 0.069277175 -0.018497188 -0.0674675 0.027572786 0.108221486 -0.032180984
0.041378923 -0.03150693 -0.017555632 -0.09184444 0.02710182 -0.00084135163 -0.09198665 0.11048665
-0.06597356 -0.07802874 0.05999547 0.0035103227 0.048942126 -0.041624095 0.043226574 -0.12203734
-0.0013381522 -0.039753772 0.090174355 0.059381686 -0.044994846 -0.030651646 -0.09444635 -0.0533569
-0.062172536 -0.09361145 0.09028119 0.018490072 0.01700652 -0.002621961 -0.06048161 -0.094258465
-0.07390725 0.039199747 -0.055247236 -0.081402406 -0.06881651 0.078476354 -0.08707236 0.011572207
0.019432293 0.05111192 0.0018807173 0.0025441076 -0.021316588 -0.120501705 -0.05581173 -0.014773177
0.009800948 0.0329932 0.021750392 0.10130557 -0.08477316 0.09421868 0.100755535 -0.112121396
-0.118526734 -0.07578989 -0.03591756 -0.11180571 -0.118897595 0.09965513 -0.0075275213 0.07275469
-0.017610589 0.01139059 -0.036700998 0.072003536 -0.059827 -0.07867961 -0.11712588 0.09117606
0.0037914517 -0.11631661 0.030343918 0.12016729 0.05314357 -0.070546724 -0.10384478 -0.04410854
0.066377014 -0.072333686 0.036176592 0.0949159 -0.019499822 -0.09061465 0.052686363 0.025464626
-0.09371265 0.09072854 -0.06706263 -0.08755113 0.017833494 0.01116457 0.06618567 -0.026352435
0.024836816 -0.07633684 -0.09749734 -0.025291055 0.05048047 0.08973644 0.07118996 -0.07054224
-0.0987311 -0.044256847 -0.084671885 0.07967874 0.046198178 -0.04210534 0.05237495 -0.08428269
-0.09993484 -0.055458367 0.011916342 0.102336586 -0.0060515534 -0.0010418914 0.061448608 -0.022177847
-0.0025498848 -0.017158762 -0.04052751 -0.08502823 -0.009163152 0.09359947 0.089674756 -0.04922192
-0.09573398 -0.08941018 0.10421652 0.044524003 -0.10798167 0.07240845 0.039455276 -0.015176217
-0.0949033 0.0929081 -0.04820952 -0.01784456 0.0049976744 0.11348784 -0.015218105 -0.085092135
-0.035020318 -0.06909314 -0.0058446764 0.056012433 -0.12166004 -0.09485379 0.048092104 0.117605135
0.044503234 0.0018913678 -0.110916585 0.044926997 0.048254583 0.04394789 0.11783521 0.11481642
-0.039985478 -0.038620383 0.10586899 0.12035915 -0.01686588 0.02188747 -0.051247872 0.034209087

lstm.bias_ih_l1 f4 [256]
00000000: 9e29 9e3d 0a39 cebb 46f3 7d3c fd24 69bd
00000010: 37a8 c0bd 3d0c b73d 7951 d1bd 1721 d03c
00000020: b6b5 a1bd e9af d33c 8d46 a93c 95d4 83bd
00000030: caf8 2abd 32af edbd 7a2f f3bd 12ab b2bd
00000040: 0a70 da3d 2223 64bd 6253 6ebd f986 62bd
00000050: 97bf e1bd ee24 ff3d a764 69bd 5ba1 1c3d
00000060: 60b2 a7bd 4b9c 053d dfb1 c93d eb76 da3d
00000070: 8f1b f1bd feb8 83bd e5a0 fabd 8fef 0bbd
00000080: 387f e33d 4b93 86bc e80a 683d 2c5f 51bd
00000090: 4f2b f3bd 0007 d6bd 5d35 d0bd a0f1 87bd
000000a0: 09fe 2bbd 0d6c c23d 8a41 813c b3b4 cd3b
000000b0: 0ea3 e8bd 036e 9dbd 0573 efbd cdfc f33b
000000c0: ad90 ea3d 18a8 51bd 25e2 98bd 9a2b 09bb
000000d0: 14b1 d6bd a431 b9bd 29d9 98bc f5c8 afbc
000000e0: 5021 01be 6622 f33b e96e cd3d 312d f1bd
000000f0: f987 5abd 9152 353c 1f18 b23d 1a27 aa3d
00000100: 1d1f bf3b abe9 cb3d 683a e2bc e06f 4fbd
00000110: 22e1 babd d6fc bfbd 1e6d 523d b6b0 f93d
00000120: 8d6f bfbc c429 8abd 85fe 843d ed86 da3d
00000130: b1f6 2c3d 68d6 d73c 6676 e03d 8369 c53d
00000140: 1a6f 1a3d 79bb a2bd 2232 98bc 30e4 f9bd
00000150: c9d8 e9bd 7ad1 8cbd a0c7 3ebc 6fd2 83bd
00000160: e2ef 943c a394 9dbd 430c c2bd 388d ba3d
00000170: 8614 fa3d 5238 143d f35a b83d 3372 c93d
00000180: 4158 dbbd c156 d43d 1ae8 d7bd f08b b5bc
00000190: 8730 da3d a227 ce3d 3d8c 133d 6e28 9abd
000001a0: 03ac 7c3d dc91 8d3d 7aed e53d 5395 233c
000001b0: 1b21 0abd 90d1 f6bd 3855 38bd 66c9 5ebb
000001c0: 2500 59bd 9d72 4a3d 4418 e1bd c9ff febc
000001d0: c4d4 7ebd 33f2 7f3c d4ca 6cbb ac78 733d
000001e0: 03f4 d7bb 29da ce3d 4310 a2bd b16c 3bbd
000001f0: 32ce 9dbd e051 ff3d ed0a 2d3d fa06 63bd
00000200: 53cd 41bd 423a 543d 0b0d b6bb 9c33 f1bd
00000210: c2d4 1abc 914a ef3c c47a 19bd bf30 77bd
00000220: cd45 dabd f2a5 92bd 1e6f 973d c6a6 a03c
00000230: fd88 cb3d fac9 28bb acec ab3c 1deb 89bd
00000240: 237a 91bd 192c 75bd 2d6d 0a3c 11d8 b8bd
00000250: 5dad b63d 7518 9c3c 6229 153d 822d b23c
00000260: c577 22bc 636c 11bd 54e3 4e3d b42d 9f3d
00000270: 6bb0 713d 5adc e13c 6ab3 0e3d 2425 96bd
00000280: adc5 8bbd b270 d13d d520 a8bd 19b6 a43d
00000290: 0fc7 253d 56ed f53b 0100 7dbd 4752 8abd
000002a0: c9b1 003d 0a6b 88bc fb59 c5bd 92b3 5bbd
000002b0: a7b0 febc 68b3 d13d b975 89bd 49b2 fdbd
000002c0: f606 c83d 2cf4 09bd 3025 d03d 60d9 edbc
000002d0: e16e 6bbc 90fb cdbd 94b3 dbbd 5f0a f93d
000002e0: 42a1 f23d f502 a6bc ac08 a13d 8ac6 81bd
000002f0: 0b80 c6bd 5011 ea3d 06de bbbd 556a d33d
00000300: f8e1 aa3c bc32 a43c a2ae 833d 9429 9d3c
00000310: 9616 b4bb 8bcd 9ebd 5d05 ac3d 35c1 303d
00000320: 84fe efbd c0ea 82bc 3047 96bd 114e 81ba
00000330: 1a39 bc3d 4ffc 363d b13c c0bd ea43 83bc
00000340: 58a1 683c 4366 49bd f7bd eebc a257 8abd
00000350: de5e 87bc c811 50bd 1147 d63d 7d4c c0bd
00000360: 0115 ea3b 3f69 d23d ac21 dd3d a6bf 313d
00000370: 8272 ba3b acbc 65bc e689 b1bd a4cf 8e3c
00000380: b83a e83d 8842 bd3d 1fb7 243d 339e dd3c
00000390: 3465 643c 745c 4fbd 052f ccbd 7efc f03c
000003a0: 8c49 c8bd 35e8 3bbc e32c c83b 91ea 9cbd
000003b0: c685 3ebc de86 95bb 4472 9f3d 76bf e4bd
000003c0: 43d3 ecbd 0e3a a4bd 6fa3 78ba 35b1 35bd
000003d0: 52ba b9bd e2ba 963a 3aa3 8b3d f268 303d
000003e0: 3589 c23d 61be a4bc 31c2 e93a 54a3 f2bc
000003f0: 67dc da3d e517 c33c 23fc eb3d 822a 72bd
0.077227816 -0.0062934207 0.015499895 -0.05692004 -0.094070844 0.08937881 -0.10220618 0.025406403
-0.07895987 0.025840716 0.020663524 -0.06437031 -0.04174117 -0.116056815 -0.1187429 -0.08724035
0.10665901 -0.055697568 -0.05818499 -0.0553045 -0.11022871 0.12458216 -0.056980755 0.038239818
-0.08188319 0.032619756 0.09848379 0.10667213 -0.117728345 -0.06431769 -0.122377194 -0.034164008
0.111082494 -0.016427657 0.056651026 -0.051116154 -0.11873495 -0.10450554 -0.10166428 -0.06637883
-0.041990314 0.09493265 0.015778322 0.0062776445 -0.11359225 -0.07686999 -0.1169186 0.0074459077
0.11453376 -0.051185697 -0.07465009 -0.002093053 -0.10482994 -0.09042671 -0.018658238 -0.021458128
-0.12610364 0.007419872 0.1003092 -0.11776198 -0.05335233 0.011067049 0.08696007 0.08308239
0.0058325664 0.09956678 -0.02761574 -0.0506438 -0.09124972 -0.093743965 0.051373594 0.12191908
-0.023368621 -0.067462474 0.06493858 0.10670266 0.04222745 0.026347354 0.10960083 0.096392654
0.03770361 -0.07945914 -0.018578593 -0.122017264 -0.114183016 -0.06875892 -0.011644274 -0.064366214
0.018180791 -0.07694366 -0.09474995 0.091089666 0.12210946 0.036186524 0.09001722 0.09836235
-0.107101925 0.103681095 -0.10542317 -0.022161454 0.10653787 0.10066153 0.036022414 -0.075272426
0.06168748 0.06912586 0.11226936 0.009984332 -0.033722978 -0.120516896 -0.045003146 -0.0033994555
-0.052978653 0.04942571 -0.109909564 -0.031127827 -0.062214628 0.01562171 -0.0036131637 0.059441254
-0.0065903678 0.101002045 -0.07913258 -0.045757953 -0.07705344 0.12466788 0.042246748 -0.055426575
-0.047314953 0.05181337 -0.005555754 -0.11777422 -0.0094501395 0.02921036 -0.037470594 -0.060349222
-0.10657845 -0.07160558 0.07394241 0.019610774 0.09938238 -0.0025755153 0.020986877 -0.067342974
-0.07103374 -0.059856508 0.008448881 -0.090255864 0.08919785 0.01905463 0.03641642 0.021750215
-0.009916251 -0.035503756 0.050509766 0.07772389 0.059006136 0.027570892 0.03483907 -0.07331303
-0.06824813 0.10226573 -0.08209387 0.08042545 0.04047304 0.0075050993 -0.06176758 -0.067539744
0.03141955 -0.016652603 -0.09636303 -0.05363805 -0.031090094 0.10239297 -0.06711907 -0.12387521
0.09766953 -0.033680126 0.10163343 -0.029034317 -0.014369697 -0.10057747 -0.10727611 0.12160181
0.11847164 -0.020265082 0.07862982 -0.063366964 -0.09692391 0.11429083 -0.09173207 0.103230156
0.020859703 0.020043723 0.06429793 0.019184865 -0.0054958565 -0.07754048 0.083994605 0.043153007
-0.11718467 -0.015981078 -0.07337797 -0.0009865185 0.09190579 0.044674214 -0.09386576 -0.016023595
0.014198624 -0.04916979 -0.029143317 -0.06754996 -0.016524728 -0.050798208 0.104627736 -0.09389589
0.007143617 0.1027398 0.10797438 0.04339566 0.00568992 -0.014022034 -0.0866888 0.017432995
0.11339325 0.092412055 0.0402137 0.027052974 0.013940144 -0.05062528 -0.09969906 0.029417273
-0.09779653 -0.011468937 0.0061088665 -0.076619275 -0.011628574 -0.0045631966 0.07785466 -0.11169331
-0.115637325 -0.080188856 -0.0009484803 -0.04435845 -0.09068741 0.0011499787 0.06818242 0.043068834
0.094988264 -0.020110311 0.0017834363 -0.029618897 0.1068657 0.023815105 0.11522701 -0.05912257
