Personal/DACON/데이터·AI를 활용한 물가 예측 경진대회  농산물 가격을 중심으로/models/best_model_감자.pth (torch, 306936 bytes, 10 tensors)

lstm.weight_ih_l0 f4 [256, 100]
00000000: d124 f83d b2f7 213c a0d6 d1bb 3dd8 3abd
00000010: 5878 0a3d 45ce 4e3c c6b7 e03d aff1 cd3d
00000020: 78ba 52bd e83c 653d 1efa d2bb 2d6e a63d
00000030: 7c24 a7bd 6864 0cbd 807a 1cbc 6546 09bc
00000040: ec95 173d b81d aebc 9e35 2b3c aea1 ba3c
00000050: b0a4 2a3c 6d12 f13d 34da aebd abde 40bd
00000060: a859 f33c 21ea 9dbd 106a 693c 9812 b1bd
00000070: 84b0 db3d 4eef 213d 7c4d 97bd 0f83 f7bd
00000080: 00e3 21bd 9efe 0fbd 3cdf 3fbd c723 a1bd
00000090: f0e9 03bc 1df3 c93c 6c2a bcbd 1eb0 e63d
000000a0: e33f f3bd 00a8 ac3d 8004 5b3c 4e38 e23d
000000b0: e20c cebd ff3f 433d 127c cf3d f2aa c3bd
000000c0: 10e8 853d b2bd ec3d d84c 343d 54d0 573d
000000d0: 68a7 cebd 43bb 403d 64cf dc3d 47b3 5e3c
000000e0: 5a0b f4bd ed7d 853d 6c86 9f3d ee3d 063a
000000f0: 08c4 9e3c 6555 86bd dc27 c43d 0799 3f3b
00000100: 30b7 09bc 2213 11bc a1f4 b23d df5c b1bd
00000110: 2ed1 063d 6140 a9bd 5cec 04bd 033f 44bd
00000120: 7f78 a43c 53ad 0a3d dcb5 e6bd d259 b6bd
00000130: acaa 7ebd fcf6 f23d 066d 293d 45d4 443d
00000140: f336 233c a14e ed3d 7a38 f5bd 0493 eebd
00000150: e078 bf3c 322a dd3c 10fb b33d 06e7 a43d
00000160: c231 4fbd 2694 47bd 3580 413d cb5d dc3d
00000170: 2339 f03c bc80 0c3d 4019 f63d c42b a83c
00000180: 1efc 91bb 340f fbbd 02ae 833d 64d2 f0bc
00000190: 074b ebbd df17 323b 0e3c fdbd 5ec1 28bd
000001a0: 41f5 df3d 34a5 d73d a2a4 ba3d 1701 bfbd
000001b0: 80bf 9bbb f8f0 e5bc ba66 023d 8f89 dbbd
000001c0: c079 d73d 27cf 66bd c616 e8bd 635f ff3c
000001d0: 48bb a73c 7bcd aa3d c1ca debc abe5 aa3d
000001e0: 1ec1 f1bd d6b7 6cbd 8a3a 89bd cd24 a4bd
000001f0: 571d e13d 6e83 d0bd 1ed2 fdbd f3c4 23bd
00000200: e03d f73c 424b ab3d aa26 c0bd dfa8 0f3d
00000210: 0479 00bd 0905 db3d 0876 f3bd 3e0a ee3a
00000220: e05f ce3c e8f5 853d cebf babd c65a 8d3d
00000230: 70ca c33d a345 adbd cad2 cdbd c728 9c3d
00000240: d824 613d fb5b 81bd ca98 d83d 18c5 df3d
00000250: 6e23 edbd 1c8a c6bd 40a2 0d3b 0486 433d
00000260: e051 33bc 8093 a9bd 1c5d 7fbd ba76 893d
00000270: bf36 903c 793e ab3c c802 aa3c 02d2 05bd
00000280: a82c 84bd d687 ec3c c036 a8bd ca36 ddbd
00000290: 9001 f53d 1ca0 90bd 1f8c ecbd cc8d f8bc
000002a0: bf8d adbd 0aed 14bd 7535 aebd d585 643c
000002b0: c8b3 b83d 1376 88bd 45e7 8c3d cd25 b5bc
000002c0: 93b2 883c 55e9 2a3c 7a25 bebd 138e 993d
000002d0: 0f9c 00be f952 993d 48e9 f73c da53 bebd
000002e0: c054 86bb e095 efbd eb0d f1bd daf2 07bb
000002f0: 71a2 ec3c 25ee 90bc b357 e43d 18ac 8dbd
00000300: 1995 86bd 2f02 8a3d a751 8fbd a8da a0bd
00000310: b73c e13d 5914 9dbd 9c4f 6e3d 0146 84bd
00000320: 8b9c 5cbc f37b 943d e0c6 6abc f2ed c6bd
00000330: bc50 1e3c 8899 a03d 8c8f 4ebd efa2 11bc
00000340: 9c45 adbd a825 efbc 182d d13c e8e0 a13d
00000350: 3ea0 f9bd d78b 943d 74ba 403d dbe9 88bd
00000360: fef4 93bd 5d90 513c 1566 ecbd 7566 e93d
00000370: 6cd5 fdbd 963e 20bc 66cb 0ebc d95a 0c3d
00000380: 8bb5 953d 8643 693c 58d2 a5bc 1474 adbc
00000390: 60e7 e83c 1a59 d6bc a8b7 b83c 25bb 5dbd
000003a0: 882d fb3c 98a2 9fbd f802 c63c 4f01 87bd
000003b0: 00ec b63c abe0 463d 6cf7 fb3d 34cc 9dbd
000003c0: 4847 37bd 5f9a 613d e01a b03d daa1 c33d
000003d0: 204a dabb 3f3e babd 9ad1 84bd 5a6d f33d
000003e0: c682 d63d 0c33 82bd bc57 f5bd 5049 1a3c
000003f0: 88a3 7a3d bcbf c0bd 0ada 96bd 4f55 093d
0.12116397 0.009885715 -0.006403759 -0.045616377 0.033806175 0.012622421 0.10972552 0.10055863
-0.05144736 0.055966288 -0.0064385077 0.08126483 -0.08161256 -0.034275442 -0.009550691 -0.0083786
0.03700821 -0.021254405 0.010449795 0.022782173 0.010415241 0.117710926 -0.08537713 -0.047087353
0.029705837 -0.07710672 0.014246479 -0.086461246 0.10727027 0.03953486 -0.07387826 -0.12085544
-0.039523125 -0.03515493 -0.046843752 -0.07868152 -0.0080513805 0.024652058 -0.09187779 0.112640604
-0.1187742 0.08430481 0.013367772 0.110458955 -0.10061051 0.047668453 0.101310864 -0.095540896
0.06538403 0.11559619 0.044018596 0.05268891 -0.10090524 0.047053587 0.10781744 0.013592548
-0.11916228 0.06518159 0.07789311 0.00051209226 0.019380584 -0.065592565 0.09577915 0.0029235499
-0.008405492 -0.008854659 0.087380655 -0.08660292 0.032914333 -0.082642324 -0.032451972 -0.047911655
0.020076988 0.0338567 -0.11265156 -0.089038506 -0.062174484 0.11863515 0.04136374 0.048054
0.009961831 0.11587263 -0.11973663 -0.11649135 0.023373067 0.02699766 0.08788121 0.08051877
-0.050584562 -0.04872527 0.04724141 0.10760077 0.02932412 0.03430246 0.12016535 0.020528682
-0.0044551035 -0.12258759 0.06429674 -0.029397197 -0.1148892 0.0027174873 -0.1236497 -0.041200034
0.1093545 0.10529557 0.091134325 -0.0932638 -0.004753053 -0.028069004 0.03183625 -0.107195966
0.10521269 -0.0563499 -0.11332469 0.031173414 0.020475045 0.083399735 -0.02719629 0.08344587
-0.11804412 -0.057792507 -0.067006186 -0.08014832 0.10991924 -0.10181318 -0.12393592 -0.039982747
0.030180871 0.08363964 -0.093823746 0.035073157 -0.03136541 0.1069432 -0.11887747 0.0018161011
0.025192201 0.065410435 -0.09118615 0.06902079 0.09560096 -0.08460548 -0.100499704 0.07624965
0.054966778 -0.06316372 0.10576017 0.109262645 -0.11579023 -0.09694311 0.00216116 0.04773523
-0.0109448135 -0.082800865 -0.062344655 0.067120984 0.01760423 0.020903813 0.02075328 -0.032670982
-0.0645383 0.028873365 -0.08213568 -0.10801466 0.11963189 -0.070617884 -0.115501635 -0.030341052
-0.084743015 -0.03635887 -0.0850629 0.013947924 0.090186656 -0.06663146 0.06880049 -0.022112751
0.016686713 0.010431607 -0.09284492 0.07497802 -0.12559532 0.07486529 0.030262604 -0.09293337
-0.0040994585 -0.11698508 -0.11770233 -0.0020744116 0.028886052 -0.017691681 0.1114954 -0.0691759
-0.06571407 0.06738698 -0.06997996 -0.07854205 0.109979086 -0.07669897 0.05818139 -0.06458665
-0.013465057 0.07250204 -0.014329642 -0.09713353 0.009662803 0.07841784 -0.050429866 -0.008888944
-0.084605426 -0.02919276 0.025534198 0.079042256 -0.12188767 0.07253235 0.047052816 -0.066852294
-0.07224463 0.012790767 -0.11542908 0.11396495 -0.123942226 -0.009780547 -0.008715486 0.034266327
0.07310017 0.01423729 -0.020241901 -0.021173514 0.02843064 -0.026165534 0.022548512 -0.054133553
0.03066136 -0.07794684 0.024171337 -0.065920465 0.02232933 0.048554104 0.12303051 -0.07704964
-0.044745713 0.05507886 0.08598876 0.09552355 -0.0066616684 -0.09093904 -0.06485291 0.118860915
0.10474162 -0.06357393 -0.11979625 0.009416893 0.06119111 -0.094115704 -0.073658064 0.033528622

lstm.weight_hh_l0 f4 [256, 64]
00000000: 78a0 c53d 8f7e 1abd e193 cfbd f9d2 d4bd
00000010: dc80 7cbd 28e3 39bc bb05 433d 4298 bfbc
00000020: 0313 37bc 795e 813d 0b08 78bd 50d5 ef3d
00000030: 586c ae3c 31a6 26bd c357 78bd e1a0 d3bd
00000040: e3c8 2ebc 9f2d c33d 49ba e73d 6c90 343d
00000050: 13e6 853d d057 54bd f577 333d 79fc b73d
00000060: 6305 7e3c 4cbd afbd b415 ed3c b37e 9d3d
00000070: 9d73 bf3d a118 7d3d 6506 b03b 7987 383d
00000080: 6168 6d3d 6186 193d 0b62 aebd f5a6 713d
00000090: 7eba 62bd 2e3e e1bd ef7a f53c 959c 1fbd
000000a0: 5573 cbbd 24eb c03d ace1 cd3d e0ad c43d
000000b0: cf91 fbbd 3332 483c a769 f83d 1fc6 35bc
000000c0: 9a97 b9bd bc41 df3d 9d4d d1bc c603 84bd
000000d0: 0e5e 0cbd fbfb 5abd b321 00bc 1d57 993d
000000e0: 042b 90bd bc87 003e fe79 fd3d 95bb b9bd
000000f0: ce2b e5bd 1c75 643d 8b1b cc3d 9ad8 883d
00000100: f380 403d 03fd e23d 8b63 d43d 391e 85bd
00000110: 0ba5 c4bd bcd2 c2bd 02d0 b8bb dc93 90bc
00000120: 35fa cdbb 952a 0cbd 17a7 aa3d 5484 093d
00000130: d479 1f3d 6e47 5c3d 3d3b 7c3c 277c 143d
00000140: 2fe8 7fbc 055c a03d f027 c33d f716 2d3c
00000150: eb9a 94bd 7d83 84bd d1c9 fc3d 608a a83d
00000160: 683e fc3d 9b9e 94bc e421 c7bb 827c d9bd
00000170: 4174 fabc 2960 733d c70c 55bd b08d c33d
00000180: 02fb a13d 1bb4 c3bd 135d 2c3c 846a bbbd
00000190: 8c06 84bd 9f14 c9bc b148 603c 8c98 a0bd
000001a0: df60 7c3c 7b5e 8bbc 06b5 af3d 6449 3cbc
000001b0: 5a42 e83c 5593 3d3d 8293 8d3d 78fc 5b3d
000001c0: fc8d bd3d ac20 19bd 4e1b 5f3d bef2 d73d
000001d0: d48b 2d3d a918 9cbd 24ee 96bb 9e93 f9bd
000001e0: 4732 423d 22b4 80bd d31b 43bd d960 03bd
000001f0: 2e1c f7bc 0ed7 ac3c ea09 11bd 0595 e7bd
00000200: d346 463a e353 283c 5e0a 0ebd 50a1 4d3d
00000210: 427d a33d cd48 b03d cdda 443d 6299 ba3d
00000220: 1814 553d e6b4 583c 2693 cebd 81ca c0bc
00000230: 3005 5b3d 4579 4ebd c308 cc3d 2969 34bb
00000240: 2cf8 fcbd e7f7 a3bd 43fa 503c 67a4 c6bc
00000250: e673 50bd d457 32bd 2c4c d93d cc09 96bd
00000260: e06e b93d 3ef4 a9bd fca1 87bc 5db5 533d
00000270: cbc0 97bd 49f8 bbbd 4c10 32b9 dd91 94bd
00000280: dee9 b23d e701 dbbc 8efd b93c 7c4f be3d
00000290: 7efe dcbd 79d0 bd3c fe54 dbbd 01fa 61bd
000002a0: f5ef bebd 6d8a 123d cab6 e7bc d82c 9739
000002b0: 679a 7cbd c037 983d 610d 1cbd cfb0 bbbd
000002c0: 45e2 373c 273b a03d 5862 d93c e643 c9bd
000002d0: 7bdf cd3d 8a53 203d ab0a cebd d81a 843d
000002e0: 31f3 6c3b 7d22 a6bd 30c6 f0bd 9f88 13bb
000002f0: c6be e9bc 8357 9f3d 74ae 09bc a8ca 63bb
00000300: ca2f 843d 663e 15bd 1916 213d 1500 ccbd
00000310: e9b1 d8bd eea6 e1bd b602 3a3d 6b42 973d
00000320: b928 ab3d 592f 913c 3191 8abb a45f 273d
00000330: 0b9e 01bd b394 6dbd 1e60 64bd e073 92bd
00000340: 6ed6 be3d 3638 29bc 47b6 a53c 7d5d 403c
00000350: 8594 73bd 615e 46bd f0e7 4abd b0eb f8bc
00000360: a685 72bd 0632 7bbc f354 eb3c 42e9 ca3d
00000370: 56fc ccbd 0857 173d 33b3 a1bc 10a6 46bd
00000380: e7e7 953d 1742 663d 880b 5bbd f9b6 453d
00000390: d7ff 5abd ec63 9abd 24ab c43d d062 963d
000003a0: 32f4 8ebd c632 38bc d626 aa3d 511d 0b3d
000003b0: d68d fc3d 4d51 843a 0504 e33d 1091 b4bc
000003c0: e73d 4a3d b0ca a03c a888 ac3c 178a ce3d
000003d0: 9a79 2abd 4fa6 2c3d 965e edbd f065 f8bd
000003e0: c9c8 e2bd edbf 1c3d c5ea 663d a127 c7bd
000003f0: af51 e1bd 1b18 973d 3907 493d a8e0 f03d
0.096497476 -0.037718352 -0.101356275 -0.10391802 -0.061646327 -0.011345662 0.047612887 -0.023388032
-0.011173966 0.06316847 -0.060554545 0.11710608 0.021291897 -0.040685836 -0.06063057 -0.103334196
-0.010668012 0.09530186 0.11314828 0.044083044 0.06538024 -0.051841557 0.04381557 0.08983702
0.015504214 -0.085810274 0.028941013 0.076901816 0.09348223 0.061791066 0.005371856 0.04505107
0.05796087 0.03748167 -0.08514794 0.058997113 -0.055353634 -0.10998188 0.029965846 -0.038967688
-0.09934107 0.094198495 0.10052809 0.096034765 -0.1228367 0.012219 0.121295266 -0.011094599
-0.09062119 0.1090121 -0.025549704 -0.06446032 -0.034269385 -0.053462964 -0.0078205345 0.07487319
-0.070394546 0.12551779 0.12376784 -0.090689816 -0.11189996 0.055775747 0.09966191 0.066819385
0.046997976 0.110834144 0.10370549 -0.06499905 -0.09601792 -0.09512851 -0.005640031 -0.01764863
-0.0062859305 -0.034220297 0.08332651 0.033573464 0.038934544 0.05377906 0.015394983 0.036251213
-0.015619322 0.07830051 0.09529102 0.010564557 -0.07256111 -0.06470392 0.12343181 0.08229518
0.123165905 -0.018142035 -0.006077038 -0.10619451 -0.030573012 0.059417877 -0.05201414 0.09548509
0.07909204 -0.09555837 0.0105202375 -0.091511756 -0.06446561 -0.024545966 0.013689206 -0.07841596
0.015403955 -0.017012825 0.08579449 -0.011492107 0.028351951 0.046283085 0.069129005 0.05370757
0.09255597 -0.037384674 0.0544694 0.10544346 0.04236968 -0.07621891 -0.0046060253 -0.12186359
0.04741123 -0.062843576 -0.047633957 -0.032074783 -0.030164804 0.02109864 -0.035409845 -0.1130772
0.0007563654 0.010273906 -0.034677856 0.050202668 0.079828754 0.08607636 0.048060227 0.09111287
0.052021116 0.013226723 -0.1008666 -0.023534061 0.053471744 -0.05040862 0.09962609 -0.00275285
-0.123520225 -0.08006268 0.01275498 -0.024248315 -0.05089178 -0.04354079 0.10610232 -0.07326087
0.09054351 -0.082985386 -0.016556732 0.051686633 -0.07409819 -0.09178216 -0.00016981474 -0.07254384
0.08736013 -0.026734306 0.022703912 0.09292504 -0.10790728 0.023170697 -0.1070957 -0.055170063
-0.09323112 0.035776544 -0.028285403 0.00028834376 -0.061670687 0.074325085 -0.038098697 -0.09164583
0.01122338 0.078237824 0.026536152 -0.09827404 0.10052391 0.03914217 -0.100606285 0.064504325
0.0036155696 -0.08112047 -0.11756551 -0.0022511852 -0.02853335 0.077803634 -0.008403409 -0.0034758244
0.064544275 -0.03643646 0.039327715 -0.09960953 -0.10580809 -0.110181674 0.04541274 0.07385715
0.083573766 0.017722772 -0.004228734 0.040862694 -0.031644862 -0.05800314 -0.055755727 -0.07151008
0.09318243 -0.010328343 0.020228518 0.011741039 -0.05946781 -0.04842985 -0.0495376 -0.030385822
-0.05920949 -0.015331751 0.02872703 0.09907772 -0.10009067 0.036948234 -0.01973877 -0.048498213
0.073196225 0.056215372 -0.053477794 0.0482702 -0.053466644 -0.0753859 0.09602955 0.07343066
-0.0698017 -0.011242574 0.083081886 0.033963505 0.123317406 0.001009503 0.11084751 -0.022041827
0.04937544 0.019627899 0.021061257 0.10084932 -0.041619875 0.04215079 -0.115903065 -0.12128818
-0.11073453 0.038268972 0.056376237 -0.097243555 -0.11001908 0.07377645 0.049079154 0.117616

lstm.bias_ih_l0 f4 [256]
00000000: 31f7 29bd dc14 dcbd 8f85 3ebc 206b 233b
00000010: 4149 f0bd 5478 44bc 80b0 f83d 7560 be3d
00000020: 6145 f5bd 031c b4bd a743 e43d bfaf cc3b
00000030: 449b 18bd c1d2 abbd f5fd 943d 1a27 953d
00000040: e739 863d ca84 c83d f9b8 22bd 2bd5 b6bc
00000050: 3fd6 b23d 4f90 963d 0f39 24bd 9b16 6ebd
00000060: c03e fabc d6d2 a3bd c3c9 3b3c 5156 2cbc
00000070: 3c26 ad3d 187a c43d f36c 053c 5e7d 49bd
00000080: 0de3 a8bc 9eb6 683d 206f e4bd 5108 213d
00000090: 04a7 3fbd ce6a d1bd 8d6a 853d 339e 4c3d
000000a0: 1fda c4bc 4259 05bd 76e3 d83d 3dac 953d
000000b0: fca6 3dbc c7ca f6bd 3429 8a3d e86b 0bbc
000000c0: 1e7e a6bd ac72 2ebd 669e 62bd d144 4c3d
000000d0: c93f 83bc 044c 9f3d 9b2e bc3b 6023 883d
000000e0: aa7d 603d 03b7 c83d bd52 d6bd e84e 60bd
000000f0: 1de0 b4bc 7298 edbd e756 ed3d 46a2 b93d
00000100: a0a4 40bd 37c4 9f3c 84ca 5bbd 418d ba3d
00000110: ab46 e43d 40af c6bd c48f 0d3d 789b 343d
00000120: b8ed b6bd fcca fa3c 20c9 ccbd de6f a8bd
00000130: bfa5 eebd 1eab 05bd b53b fe3d 6145 f8bd
00000140: d23d f2bc b514 8dbc b091 443d e107 1ebd
00000150: eac5 8a3c 717c f4bd ff53 22bd a5d9 243a
00000160: e77f a93c 43d9 9cbc 90e1 d0bd 21cb cdbd
00000170: 613d 9c3d 34af 9ebd ab76 bdbb 72de c6bd
00000180: f8bd 1bbd dc59 8abd 7691 e4bd 688b c5bd
00000190: e880 be3d dc68 563d ed2f 7b3d 919e ff3c
000001a0: 65b4 7d3d 5edd 08bb 9e74 b93d 5c97 073c
000001b0: ece7 67bd 3708 16bb 1993 f9bd 0fc7 f03d
000001c0: ce35 153d 50fa bfbd 3949 273d e269 d23d
000001d0: 6aee ed3d 190c b5bd e228 5c3d e4b1 c93d
000001e0: 30b3 5a3d ad4f 87bd 5a2a 8c3d eef5 67bd
000001f0: 26b5 d4bd 76e3 9f3d 5f20 f03d 14f8 efbd
00000200: 0bd7 243d 509b 1cbd 3c7e 91bd 2645 943c
00000210: 8d9e aabd c860 ad3d b076 f03d bf95 df3c
00000220: 5332 643d 8f7a 7a3c 9470 c93d 1b78 2dbd
00000230: 2621 61bd 6aaa b5bd 5fed 9f3d 52de bb3d
00000240: b5df ff3d f170 cabc 4758 79bc 9feb e9bd
00000250: 46c5 b53d 04ad babc b530 db3c a200 3e3d
00000260: 11f0 99bd 56d4 54bc 2749 2a3b b3f4 873d
00000270: ecb1 18bd cc17 1d3d b2a3 e7bd 0c33 cebd
00000280: 306f 99bd c771 e1bd d1d8 a0bd 0661 843c
00000290: 4651 d3bd de4f cabd c1da 623b 8bca 3abd
000002a0: 8512 f23c 7f45 34bd 72eb a83d 6da6 eabd
000002b0: 08dd 13bd be1d db3d dfd9 263d 5eab a5bd
000002c0: bb92 6bbc 175c a2bb cdad c33d f54a ad3d
000002d0: f804 f3bb de66 30bd e9d9 ff3d f773 5cbd
000002e0: 8e8b 64bd ce18 cdbd c31f 93bd 1836 abbc
000002f0: ef8e 60bd bd79 60bd faa1 8abd 10a5 613a
00000300: 70a2 843c cb0a e13d 8539 c1bd 7fc0 a0bd
00000310: d6b1 cb3d 56f5 b2bd 6776 cb3c d044 e13d
00000320: a592 803c 7947 d03d 128a 8f3b ad5a c13d
00000330: e00e a4bc d25f 943c d61c 913d ade6 d8bc
00000340: dca2 6abd 1245 d8bd 36b7 ac3d f550 c5bc
00000350: aa8b c33d a070 e5bd 624a 6f3d fa90 6dbc
00000360: 7da1 edbd 92a4 4abb e582 56bd d9ce 4c3d
00000370: 434f 8f3d 32ec 81bd 156f 1fbd a33d 7e3d
00000380: b688 a53d f14d f6bc 00db 8e3d 6a3f bcbd
00000390: 9c38 803d 2e77 b6bb 8656 9c3d 561e 723d
000003a0: 4da1 7f3d 6842 843d 48d8 74bd fbf0 48bd
000003b0: da77 263d c3a5 beba 074d d4bd b03c b73d
000003c0: ce2c d5bd 5390 e13c e271 94bd a02b 3bbc
000003d0: c1df 8f3b ba2a 943b ea73 9b3c d498 9a3c
000003e0: 0817 bf3d 9c83 83bd 6956 c13c 4904 af3d
000003f0: a38e f1bd 1eed 7dbb 755d b23d 0147 c3bd
-0.041495506 -0.10746166 -0.011628523 0.0024935678 -0.11732722 -0.011991579 0.1214304 0.092957415
-0.119761236 -0.08794405 0.11145716 0.0062465365 -0.037257448 -0.083898075 0.07275001 0.07282849
0.06554013 0.097909525 -0.039727185 -0.022318443 0.087322704 0.073517434 -0.040093478 -0.058127027
-0.0305475 -0.07999198 0.011461678 -0.010518626 0.08454558 0.095936 0.008143651 -0.049191825
-0.020616079 0.056814782 -0.11154008 0.03931457 -0.046790138 -0.102254495 0.065144636 0.049955558
-0.02402979 -0.032555826 0.1059026 0.073082425 -0.011575457 -0.120503955 0.0674614 -0.008509614
-0.08129524 -0.04258983 -0.05532684 0.049870316 -0.016021626 0.07778171 0.0057428605 0.06647372
0.054807343 0.09800532 -0.10465 -0.05476275 -0.022079522 -0.11601342 0.11588841 0.09064154
-0.047032 0.019502742 -0.05365993 0.09108973 0.11146291 -0.09701395 0.034560934 0.04409358
-0.0893206 0.030614369 -0.09999299 -0.08224462 -0.11652707 -0.032633893 0.12413732 -0.12122608
-0.029570494 -0.017221788 0.0479905 -0.038581733 0.016940076 -0.11937798 -0.039630886 0.0006288535
0.020690871 -0.019146567 -0.10199273 -0.100485094 0.076288946 -0.07748261 -0.0057819686 -0.09710397
-0.038022965 -0.067554206 -0.11160557 -0.0964573 0.09301931 0.052346095 0.061325002 0.03120354
0.061939616 -0.0020883898 0.09055446 0.008275833 -0.056617662 -0.002289308 -0.1218626 0.117567174
0.036428265 -0.09373915 0.040841315 0.10274102 0.116177395 -0.08840198 0.053749926 0.09848383
0.053393543 -0.06606994 0.068440154 -0.05663102 -0.10386114 0.078070566 0.11724924 -0.11717239
0.040244143 -0.038234055 -0.071041554 0.018099379 -0.083310224 0.08465725 0.11741388 0.027293084
0.055712055 0.015288009 0.09835926 -0.04235087 -0.054963253 -0.088703945 0.07808947 0.091732636
0.124938406 -0.024712058 -0.015218801 -0.11421894 0.088755175 -0.022787578 0.026756624 0.046387322
-0.07516492 -0.012990078 0.0025983544 0.066384695 -0.037279055 0.038352773 -0.11310519 -0.1006833
-0.074919105 -0.110080294 -0.078538544 0.016159546 -0.10318236 -0.09878515 0.003461525 -0.045603316
0.029549846 -0.04401159 0.08248033 -0.114575244 -0.036099464 0.10699032 0.04073512 -0.08089326
-0.014378245 -0.0049548256 0.09554634 0.084615625 -0.007416364 -0.04306685 0.12492735 -0.05382153
-0.055797152 -0.10014497 -0.071837924 -0.020899817 -0.054823812 -0.0548036 -0.06769176 0.0008607665
0.016190737 0.10988387 -0.09434799 -0.07849216 0.09946029 -0.087382 0.024836732 0.10999453
0.015694926 0.10169882 0.004380473 0.09441123 -0.020026624 0.018112097 0.07085578 -0.026477182
-0.05728422 -0.10560049 0.08433382 -0.024086455 0.09548123 -0.11203122 0.058420546 -0.014499897
-0.11603067 -0.0030920845 -0.052370925 0.050001953 0.0699754 -0.06343879 -0.038924295 0.0620705
0.08082716 -0.030066462 0.06975365 -0.09191783 0.062607974 -0.0055684065 0.076336905 0.05911096
0.062409688 0.064579785 -0.059776574 -0.049057942 0.040641643 -0.001454525 -0.10366254 0.08947122
-0.104089364 0.02753464 -0.07248284 -0.011423975 0.004390687 0.004521695 0.01897617 0.018871702
0.09330565 -0.06421587 0.023600774 0.08545739 -0.11794784 -0.003874607 0.08709232 -0.09535027

lstm.bias_hh_l0 f4 [256]
00000000: d1ce 24bd c321 39bd da13 fabd 9b07 2b3d
00000010: 297f 95bc dcd2 c53d 5516 2ebd e81d 813c
00000020: 197e febd 2ac2 5a3d 13c2 e5bc 6c64 b4bd
00000030: 88cd a5bd 718a b53d e9c8 91bd 52d1 c33d
00000040: 2fd8 86bd b44e 95bc 9ba6 b1bc 65de d93c
00000050: cd3f f7bd 785f 1d3d 6418 ba3d 23e5 e83d
00000060: 0803 d83d ed91 1ebc 0751 b1bd c734 94bd
00000070: e887 853d c59d 57bd 4c7d 94bd d827 9f3d
00000080: e1d4 c0bd 5ebb 44bd 2ef8 f6bd 1dee 073d
00000090: b92a a43d 262d 6abd 9155 403d 44fc 293c
000000a0: 8f61 6abd ec31 e5bc a5f8 3dbd 1b1f 28bd
000000b0: af83 dabd 021f 01bc 8ca7 da3d d85a 10bc
000000c0: 882c ed3d 97c0 bdbd 9aa7 5cbd 342a f6bd
000000d0: 7def 28bd 7326 d0bb 7717 4abd a1ad 493d
000000e0: e412 98bd 01fb f7bd 199e 8bbd b94f 93bd
000000f0: fd41 8b3d 063d 7bbc 13ab b13d 4a1d 6fbd
00000100: a1ae ccbd 80f9 51bd 1323 b9bb 773f 9c3d
00000110: 051e ad3d c49b 21bd 4a23 b5bc 43d4 473b
00000120: b580 a93c 9483 5e3c 9386 7e3d 754e 3cbd
00000130: 5a80 6dbd 8e27 3c3d b3bc 87bd 9758 f7bd
00000140: 0b82 a6bd b5f2 1b3d 8efb a1bd b04c 993d
00000150: 2448 983b d33f d1bd fe23 cebd 7c31 c03d
00000160: 56ca 343d 8096 df3d 322e fc3c 72b3 303d
00000170: 6775 863d 2fea 88bb cbdf a2bd 805d 0cbd
00000180: b43d 1fbd 2a9e 6ebd 5a30 2f3d b28b b23d
00000190: 8316 c73b 5a29 a13d cd33 623c cc87 f73d
000001a0: 61b0 ccbc 46f6 953d fe03 81bd cf99 d63c
000001b0: c509 573b fb14 aa3c f1c7 c9bd 65ce dfbd
000001c0: b2be e93d 6758 9a3c e48e bd3d 005c 36bc
000001d0: fc0d 6bbd dc39 c8bc e8ff fd3d 12d6 8ebd
000001e0: f7aa 8fbd dd36 acbd a9a2 f6bb f942 323c
000001f0: f34f 273d 38bf ebbd 13a7 5f3c 0ea9 7c3d
00000200: 6852 bc3d 6d01 babd f24e 163c 935e 6ebd
00000210: 2e1d 40bc 50dd 82bd 90ea 4fbd 2552 b1bd
00000220: 7574 de3d ab2e 0cbd 0058 003e f4ce b9bc
00000230: 2771 a5bd 9919 1a3c 9f4f c63d 6a8e 6e3c
00000240: bbf2 9b3d ea15 593d c14e d53d 16b0 2abd
00000250: 3802 9f3d e43c d23c 93cc c4bd 6651 4bbd
00000260: 3bc3 4b3c 813b 4c3d f79b e4bd cf35 d53c
00000270: 3202 eabb 4432 623d e2f8 cbbb ab8b 23bc
00000280: 706b 943d bd89 f1bd 1792 df3d 71da fabc
00000290: 2202 d43d 4000 89bd c028 c53d b501 903d
000002a0: 7d1e ca3c d541 d2bd 584f b03d 9d03 d8bd
000002b0: c8f9 05bd ae8c ea3d 420e d03d 42b4 903d
000002c0: 3ebb 9e3d b5ef a5bc 5fd7 b93d 5734 f4bd
000002d0: d41e 58bd 21ac 65bc 0145 6fbd f7e7 27bd
000002e0: cc1d 66bc f25f 9fbd 41e1 24bd 0745 fbbd
000002f0: 0307 4bbd d48b 92bd 219f 20bd 87c1 5bbd
00000300: 4389 d5bd 9259 6cbc 4d07 643d 13e4 b13d
00000310: 854c 7fbd a6e3 44bd 6948 caba 8dfd 29bc
00000320: f311 f3bc e142 c5bd e125 e43d fcd4 6fbd
00000330: fda7 bc3d 8803 593d f4a0 acbd c90b f6bd
00000340: 6032 ec3d 2499 ab3d 8a93 eb3d 414d d13d
00000350: 9fa1 723d c7b5 c03b 3ece 43bd e9f3 9abd
00000360: 6bc1 9e3d e884 8d3d ea5f bc3c 4249 e53c
00000370: 2702 bebd b17b 1cbd 68dd a33d 6f87 ac3d
00000380: 3adf c13d 32cb bfbd 0d03 d53a 04bc bebd
00000390: 30e9 983c 8e10 acbb e487 1fbd 0658 bd3d
000003a0: a0c5 8fbd 8b1d 7d3d 542d a7bd 5b14 8d3d
000003b0: be96 42bd 416d cc3c 0d83 afbd 0537 a73c
000003c0: 13fd 363d 626b 323d 042e 96bd 9f11 8dbd
000003d0: 7b89 383d 43b7 dbbd 2ef0 d4bd c4a7 f63b
000003e0: 1f30 6dbb 2c08 9cbd 895e c73c d1e9 c43d
000003f0: b577 b13c 128b 96bc 13d5 513d 7f6c 19bd
-0.040236298 -0.045198213 -0.12210818 0.0417553 -0.018249111 0.09659359 -0.042501766 0.01576133
-0.12426395 0.053407826 -0.028046643 -0.088082165 -0.080958426 0.08864296 -0.07118399 0.09561409
-0.065842025 -0.018226005 -0.021685889 0.026595304 -0.12072716 0.038421124 0.090866834 0.11371829
0.10547453 -0.009678346 -0.08658033 -0.07236629 0.06520063 -0.052640695 -0.07250461 0.077712715
-0.094156034 -0.04803025 -0.12059055 0.033186067 0.08015961 -0.057171963 0.046956602 0.010375086
-0.057221945 -0.027977906 -0.046379704 -0.04104529 -0.10669648 -0.007880928 0.10676488 -0.008810721
0.11580759 -0.09265249 -0.053870775 -0.12019768 -0.04124402 -0.0063522398 -0.049338784 0.04923785
-0.07425478 -0.12108422 -0.06817264 -0.0719294 0.06799696 -0.015334373 0.08675208 -0.05837754
-0.09994245 -0.051263332 -0.005649933 0.076292925 0.084529914 -0.03945519 -0.022111554 0.0030491508
0.020691255 0.013581175 0.06214006 -0.04597326 -0.057983734 0.04593616 -0.066277884 -0.12077444
-0.081302725 0.03807326 -0.079093084 0.0748533 0.0046472717 -0.10217252 -0.10065459 0.093844384
0.044138275 0.109173775 0.030783746 0.043139882 0.065653615 -0.0041783075 -0.07952841 -0.034268856
-0.038877204 -0.058256306 0.04277072 0.08718051 0.0060756817 0.07869215 0.013806296 0.12086448
-0.024986448 0.073223636 -0.062995896 0.026196389 0.003281222 0.020761957 -0.09852589 -0.109280385
0.11413325 0.018840982 0.0925577 -0.011130333 -0.057386383 -0.024441652 0.12402326 -0.069744244
-0.07015031 -0.08408902 -0.007526715 0.010880225 0.04084773 -0.115110815 0.013650673 0.06168466
0.09195405 -0.09082303 0.0091740955 -0.05819566 -0.011725707 -0.06389868 -0.050760806 -0.08658246
0.10862056 -0.034224194 0.1253357 -0.02268169 -0.08078223 0.009405517 0.09683155 0.014560321
0.076146565 0.052999415 0.10415412 -0.041671835 0.07764095 0.0256638 -0.09609332 -0.049638174
0.012436683 0.049861435 -0.111625604 0.026026634 -0.007141375 0.05522372 -0.0062247375 -0.00998203
0.072470546 -0.117938496 0.10916536 -0.03062174 0.10351969 -0.06689501 0.09626913 0.070315756
0.024672741 -0.10266463 0.086088836 -0.10547564 -0.032708913 0.11452614 0.101589695 0.070656314
0.07750557 -0.020255903 0.09074282 -0.119240455 -0.052763775 -0.0140180895 -0.058415417 -0.040992703
-0.01404519 -0.07781972 -0.04025388 -0.12269025 -0.049567234 -0.07155576 -0.039214257 -0.05365136
-0.10426571 -0.014425652 0.055671025 0.0868608 -0.062328834 -0.048068665 -0.0015432957 -0.010375393
-0.029671645 -0.09631897 0.11140037 -0.058552727 0.09211729 0.052981883 -0.08429137 -0.120139666
0.11533046 0.08378819 0.1150275 0.10219813 0.059236165 0.0058810445 -0.04780411 -0.075660534
0.07751735 0.069101155 0.022994954 0.027989034 -0.09277754 -0.0382039 0.08001214 0.084242694
0.09466405 -0.09364928 0.001625152 -0.09313205 0.01866588 -0.005250997 -0.038947955 0.09245305
-0.07020116 0.061795752 -0.081629425 0.06888648 -0.04750704 0.02495444 -0.08569918 0.020411978
0.044674944 0.04355944 -0.073329955 -0.068881266 0.045052987 -0.10728314 -0.10397373 0.0075273234
-0.0036192012 -0.07618746 0.02433707 0.096149094 0.021663526 -0.01837686 0.051228594 -0.037456986

lstm.weight_ih_l1 f4 [256, 64]
00000000: 5b5d 473d bca6 2abc 407c a93d ead1 bc3d
00000010: 7b39 70bc 88d9 a13d 04ea 033d 7742 f6bd
00000020: cd7f 8a3d 4e61 7ebd e447 753d 1939 2f3d
00000030: 2df6 af3d f20a 013d ace2 4fbd 3e54 74bc
00000040: 9ceb fc3d 777d b93d 6300 933c 991a 8cbc
00000050: 75f9 843d 9d72 32bd 59bf 83bd f62e 103d
00000060: e290 eb3c e36e 963b 15c3 933d 4861 e53d
00000070: f9df 8d3d b456 d73d de35 4bbc c362 023d
00000080: f59a 8e3d 1724 1c3c 4ea8 8ebd 1650 84bd
00000090: 518e dfbd 175b a43d c55e aebd 45ac b4bd
000000a0: fed4 2f3d 66cd 7a3d 3548 ae3a 68f9 d9bb
000000b0: ddce f53d cdf8 853c e22d e83d b0f6 c33d
000000c0: 7ec0 85bc 3e26 c53d 7d95 8dbd 7862 8dba
000000d0: cfa4 963d 5736 58bc b117 acbd e5fd 953d
000000e0: 8e2b 09bd 1bee c1bd c5fa acbb 14ab 80bd
000000f0: 2b1d 703c c775 d7bd 39e2 973d df54 febd
00000100: d99e bcbd 63a4 d63c 7ca6 893c bb40 c3bd
00000110: e9d9 bbbd c2d0 87bd 3787 c23d 28a0 3c3c
00000120: 6360 b83d 160e 2f3c c89e ccbc 1f36 033d
00000130: f291 ce3d 00e6 953c a8fe fbbc e514 073d
00000140: 91aa a63c 4df9 adbd 4b98 cabd 8ddd 5cbd
00000150: 4cb2 903c a38b c13d 5de4 f63c 5551 37bd
00000160: 5496 a9bc 3361 a0bd 02ec b0bd 284a b9bd
00000170: efe8 f7bb e96f e4bd 09d4 2dbd 492c f8bc
00000180: e4c2 a33b 14c9 773d c6ed 5fbd 20a3 843d
00000190: 874c 79bd 5cad 723d 8aab 1abd c2b1 9ebd
000001a0: 329a a0bd b5a5 163c 4cd3 94bc 9283 a43d
000001b0: 1c74 ddbc 7980 83bd 5f32 173d 77c3 c2bd
000001c0: 8331 b6bc 72ab 9abd a181 a9bd 1958 153d
000001d0: ba28 60bd 335c b4bd 4eeb 803c bb9f fd3c
000001e0: 9d84 fabd 616f dabb a1c5 ea3d 5edb 8d3d
000001f0: df45 d73c 423c 0d3c 0e59 513d 2575 50bd
00000200: 8701 4a3b 06d9 f33c ba1c bcbd 7290 983d
00000210: 3992 933d 2ee9 d13c f5a9 3b3d ef20 ecbd
00000220: 8a36 8ebd d671 85bd 79ba 473d da71 cabd
00000230: 9477 fe3d 63db e73d 0f20 bcbd 7a7e 473d
00000240: 67f5 093c e8a3 c7bd e4d3 8abd b15d fa3d
00000250: 739c e43d bdcf cebc 332c d33d 53d9 f43d
00000260: 8a43 dcbc ac99 9f3d c993 3cbc 18f7 e43d
00000270: f8e1 223d f47b 9f3c b286 91bc 7c90 85bd
00000280: 139c 4ebd 3097 663c 5475 bdbd e9b0 bebd
00000290: 7ed4 743d afe2 cbbd 1ec4 85bd 4de7 b13c
000002a0: cd37 403d a136 1fbc 16e1 bdbd efb1 6c3d
000002b0: bc27 30bd 78b3 80bd d745 69bd 0462 6cbd
000002c0: 23d8 e5bd 64ff d43d 9bd2 723c 9be6 99bd
000002d0: 3cde bcbd 251d 1a3d 3ffa f2bc 7bc1 09bd
000002e0: cbc8 a33d 6d1c fe3d d25f ab3b cffd ff3d
000002f0: 279d f53d 0450 ce3d d954 86bd 0395 61bd
00000300: eac5 a93d fe02 973c db7a d53d ae17 c2bd
00000310: 4f47 c03d cb3f 5cbd 7963 833a b746 d1bd
00000320: 7c0a 8bbd 4c09 85bd 2efe bd3d aa61 fabc
00000330: dc35 05bd 5fc3 c9bc e27b c3bd 7ccf b2bd
00000340: 6834 8ebd 6e76 2b3d 5370 e1bd 1ffb 2fbc
00000350: 0c8e 9a3d 1591 f5bd 9a49 1f3d 55aa a63d
00000360: e787 693d 9fbf ea3c 6dd1 8abd 4238 52bd
00000370: c54f d13d bfed b2ba 12fc b2bd 5d1a e23d
00000380: e088 f4bb b873 903d 11d8 a8bc 5b41 023d
00000390: 7b98 5ebd 3eae 733b 2b3b efbd 8133 e7bc
000003a0: 7807 f63c 3024 df3d 2e9f f4bd 9d7c 00bd
000003b0: c385 603d 89b1 133d 6a26 a03d 27d0 403c
000003c0: c939 eabd aaa4 89bd 9a38 ddbd 751c bc3d
000003d0: aacd c53d dfbe 7ebc 357e 003e 472c 9dbd
000003e0: ea5c 9cbd 423a 823c 6dcb 943d 5376 10bd
000003f0: 2bb7 06bc 2b08 313d 7793 a5bd fd46 0ebd
0.048673015 -0.010415729 0.08275652 0.092197254 -0.014662142 0.07902819 0.032205597 -0.12024396
0.06762657 -0.062104516 0.059883013 0.042779062 0.08591876 0.03150458 -0.05075328 -0.014912663
0.123496264 0.09057134 0.01794452 -0.017102527 0.06492893 -0.043566335 -0.06432981 0.035201035
0.028755609 0.0045908554 0.07214943 0.112001956 0.06927485 0.10514584 -0.01240298 0.031832468
0.069631495 0.009530089 -0.06965695 -0.06460588 -0.109158166 0.080251865 -0.085141696 -0.0882192
0.042927735 0.06123104 0.0013296666 -0.006652046 0.12002347 0.016353989 0.113368765 0.09568536
-0.016327139 0.09626435 -0.06913278 -0.0010786792 0.073556535 -0.013196549 -0.08402956 0.07323817
-0.033488803 -0.09469243 -0.0052789175 -0.062826306 0.014655392 -0.10520511 0.074161954 -0.124185316
-0.09209985 0.026201433 0.016803019 -0.09533831 -0.091724224 -0.06631614 0.094984464 0.011512794
0.09002759 0.010684511 -0.024978057 0.032034036 0.100864306 0.01829815 -0.030761078 0.03297891
0.020345004 -0.08494816 -0.09892329 -0.053922225 0.017663144 0.09450462 0.030138189 -0.0447553
-0.020701565 -0.07831039 -0.08638765 -0.09047347 -0.0075656096 -0.11154158 -0.04243854 -0.030294554
0.004997598 0.060494497 -0.054670118 0.06476426 -0.060863998 0.05924736 -0.03776125 -0.07748748
-0.078419104 0.009194781 -0.01816716 0.080329075 -0.027032904 -0.064209886 0.036913272 -0.09509938
-0.022240406 -0.07552232 -0.08276678 0.03646097 -0.05472634 -0.08806648 0.015737202 0.030959954
-0.12232325 -0.0066661094 0.11463476 0.069266066 0.026278434 0.008620324 0.05111032 -0.050892968
0.0030823664 0.02976657 -0.09185167 0.07449426 0.07205624 0.025623884 0.04581638 -0.11529719
-0.06943996 -0.06515853 0.04876182 -0.09884997 0.124251515 0.113211416 -0.09185802 0.0487046
0.008420325 -0.097480595 -0.06778696 0.122249015 0.11162653 -0.025245542 0.10311165 0.11955514
-0.026887674 0.077929825 -0.011509844 0.11179942 0.03976628 0.019468285 -0.017764423 -0.06521699
-0.050441813 0.014074132 -0.09250894 -0.09311087 0.05977296 -0.09955346 -0.06531547 0.021716738
0.046928216 -0.009717614 -0.09271447 0.05778688 -0.043006644 -0.06284231 -0.05695137 -0.057710662
-0.112228654 0.104002744 0.01482072 -0.07514688 -0.09222075 0.03762545 -0.029660342 -0.033631783
0.079972826 0.124077655 0.0052299285 0.12499582 0.11992865 0.100738555 -0.06559152 -0.05507375
0.08289702 0.018434044 0.104238234 -0.09477173 0.09388601 -0.053771775 0.0010024152 -0.10218566
-0.06789109 -0.06495914 0.092769966 -0.030564148 -0.032522067 -0.024629293 -0.09545113 -0.08730981
-0.069435894 0.04186099 -0.11007752 -0.010741024 0.075466245 -0.11990563 0.03888855 0.08137957
0.057014372 0.028655825 -0.06778226 -0.051323183 0.10220293 -0.0013651176 -0.08739485 0.11040185
-0.007462606 0.070533216 -0.020610841 0.03180061 -0.054344635 0.0037182714 -0.11681207 -0.028222801
0.030032858 0.10895574 -0.119444236 -0.03136884 0.054815065 0.036057983 0.07819827 0.011768377
-0.11436803 -0.0672086 -0.108018115 0.09185115 0.09658368 -0.015548437 0.12548144 -0.07674461
-0.076349095 0.01589692 0.07265363 -0.035269093 -0.008222382 0.04322068 -0.08084767 -0.03473567

lstm.weight_hh_l1 f4 [256, 64]
00000000: 1438 eabd 7635 a1bd b169 a53d d588 e23d
00000010: c41c 98bd 2a8d babc ef8f 35bd 679b e0bd
00000020: d0a4 503d ed1f 9fbc 3db6 57bd 77a2 5738
00000030: d353 bd3d b6c9 dcbb 721c e6bd 9658 f8bd
00000040: a791 c2bc 5f48 9ebd 731a 74bd aeba e53d
00000050: b8ed eabd 96ad f63c cfe6 3b3c cb03 173d
00000060: 7273 a63d 31c3 213d 1d7e c0bd 26a7 bebd
00000070: c57e ea3d bbc6 b5bd 0c3f e53b d253 54bd
00000080: 4619 04bd 63c5 f3bd 0f9e c03d 6386 27bd
00000090: 3cd0 c93d 2735 ba3d f4d1 cebd 7ec5 fdbd
000000a0: ea4c bf3d bdca 973d 1c8f b03c 65aa aabd
000000b0: 0b14 4fbd a424 663d 4d62 4a3c dcc4 65bd
000000c0: 8e2c 24bd 0c9c 94bd 496a 623d be3f 7d3c
000000d0: e04e c4bd 9c83 12bc 0b87 d13d 9d33 42bd
000000e0: a1c3 f3bd 0f13 29bd 11d9 cebd 42cd c13d
000000f0: 5483 babd 054e d4bc e8df aa3d 46e9 ca3c
00000100: f186 593d 605f f53d 406a ddbb 5e1a 94bc
00000110: 5245 82bd 9fdb b3bc 0bbf a63d 59ea bebd
00000120: 612d 583d 8dd9 583c 8062 f2bd d32f a1bd
00000130: 3377 bbbd ffca c73a c2d1 4f3b aa1c aebd
00000140: d71a cfbd 3821 dc3d 10ee 25bd fc92 a2bd
00000150: 23cc 023d 964f cb3d abb2 38bd 992e 333d
00000160: 28ab abbd 3e57 d0bd 91ed e6bd 1dfc a0bd
00000170: 686a 9e3d c25f 443c 0e0b edbd ff98 15bd
00000180: 87de b93d efd7 a0bd eb32 b0bd 2216 bbbd
00000190: fefc 80bd a046 23bd a0d3 61bd 9f23 9b3c
000001a0: 2ee0 8c3c 15e5 97bb a074 9abb 7afb e53d
000001b0: 1aee a13d e838 dabd 9afe af3c 62f8 9bbd
000001c0: d292 3d3d 4da8 57bc 0665 b33c 651f 613c
000001d0: c7c5 c03d 5309 a9bd a4db 6fbd 24c9 3abd
000001e0: c9f2 e43d 7223 debd f6e5 d03d ce41 f63d
000001f0: 8957 e93d bf0e a43d b099 34bc 31a3 6c3d
00000200: 049d 98bc 7b3b 74bd 5e34 103d e46d 48bd
00000210: 2a64 a0bd 5bd3 a63d 748d cdbd 221d 4b3c
00000220: d1a7 d63d 0e5a 06bd 8ff4 4d3d 8d15 b9bd
00000230: 7fcf 73bd 14b5 5c3d d3d2 543d 7b7d 563d
00000240: cbbc 44bb 7e05 853d 43bb e23c d914 52bc
00000250: d71c ee3d 8191 7e3d 4eaf b7ba 0150 02bd
00000260: e92e af3d 9771 eb3d ac13 d23c 457c af3d
00000270: df70 893d 72cf aebd c9d5 d63d 1195 93bd
00000280: 2f7e 02bc 9181 52bd c824 c9bd ccb1 03bc
00000290: 304a e13d 9fce e23d 3776 b63d f452 dd3d
000002a0: dcb0 90bd e0a3 23bd a286 ccbd 03e7 febd
000002b0: 4f7b 82bd 9f07 9e3d ec7a b63d 9ed1 c53d
000002c0: c358 f43d 4cea 5d3c 8528 52bc 56a7 c43d
000002d0: 9952 963c 3513 2f3d df85 a0bd 80a3 93bd
000002e0: 58c4 883d 7fc7 edbd a952 523d 9d34 51bc
000002f0: 5995 d0bd dbbf 96bd 5472 c1bd c843 ac3d
00000300: 187a e63d 3568 d33c 00cb f4bd c1b3 2ebc
00000310: c921 353d ee1c f1bb 5b42 373b 92e4 b83c
00000320: 2df1 f1bd 4f99 cdbd 6547 e43d ba86 b8bd
00000330: 02e9 a23d b4dc d7bd 01b7 0a3d 55ae 1ebd
00000340: 2c43 a8bd bcfc 823c 8c2a e03d fe57 35bc
00000350: 7d1b ec3b 8ae7 aebd 657c f83d 24e9 4cbd
00000360: 3a4e 3ebd b8c2 e93d e36e e4bd a91f b83d
00000370: 34b3 05bd 821e 8bbc 099e cdbd a891 5fbd
00000380: 92d3 263c 812f 15bd c537 fbbd 8635 a6bd
00000390: 6110 143d 5bd1 6cbd bf94 673d 4bbb adbd
000003a0: 9cec c93d e765 403d 0c95 b1bc 0d42 303d
000003b0: 6749 ecbd bbb2 97bb 4170 e63d ef7d c2bb
000003c0: b736 173c f2de 8f3d e369 743d 659b c5bd
000003d0: 7999 d9bc e7f6 80bd 7859 fb3d 7e1b f7bd
000003e0: 6a21 82bc 538e 053d ca53 e7bd 8e27 a2bd
000003f0: eb6a f0bd b49b bb3d 531d 43bd 6171 8dbd
-0.11436477 -0.07871525 0.080768 0.11061255 -0.074273616 -0.02277239 -0.04432672 -0.10967141
0.050938427 -0.019424403 -0.05266403 5.14113e-05 0.09244504 -0.006737913 -0.11235894 -0.121262714
-0.023751093 -0.077286474 -0.059595536 0.11217247 -0.114711225 0.03011207 0.011468603 0.03686885
0.08127488 0.03949279 -0.09399054 -0.09309225 0.114499606 -0.088757955 0.006996041 -0.05183775
-0.032250665 -0.11902883 0.09405147 -0.040899646 0.09854171 0.09092169 -0.10098639 -0.12391184
0.09340842 0.07411716 0.021552615 -0.083332814 -0.050556224 0.056187287 0.012352538 -0.056095943
-0.040081553 -0.07256326 0.055277143 0.015457092 -0.09585357 -0.008942511 0.102308355 -0.047412504
-0.11902548 -0.04127794 -0.10099996 0.09462978 -0.0910708 -0.025916109 0.08343488 0.024769437
0.053107206 0.11981082 -0.0067570508 -0.01807898 -0.06360878 -0.02195531 0.08141907 -0.09322042
0.05277765 0.013235462 -0.11835194 -0.0787045 -0.09153595 0.0015242993 0.0031710719 -0.08501561
-0.10112541 0.107485235 -0.040510237 -0.07938191 0.03193296 0.09927289 -0.045092266 0.04374561
-0.08382255 -0.1017289 -0.11275781 -0.07860587 0.07735139 0.011985721 -0.11574374 -0.03652286
0.09075647 -0.07853686 -0.08603462 -0.09135081 -0.062982544 -0.039862275 -0.055133462 0.018937884
0.017196741 -0.004635463 -0.00471361 0.11229606 0.079067424 -0.10655385 0.021483708 -0.07615735
0.046282597 -0.013162685 0.021898758 0.013740395 0.09412723 -0.082537316 -0.058559075 -0.04560198
0.1117912 -0.108466044 0.102001116 0.1202427 0.11393649 0.08010625 -0.01102297 0.05777282
-0.018629558 -0.059627037 0.03520619 -0.048932925 -0.07831605 0.081457816 -0.10036746 0.0123970825
0.10481227 -0.032800727 0.050282057 -0.090373136 -0.059524056 0.053883627 0.05195887 0.05236576
-0.0030019756 0.06495188 0.027677184 -0.012822353 0.116265945 0.062150482 -0.0014014037 -0.03181458
0.08553869 0.11496275 0.025644146 0.085686244 0.067109816 -0.08535661 0.10489995 -0.072061665
-0.007964655 -0.051393095 -0.098214686 -0.008037996 0.11000478 0.11074566 0.089092664 0.10806838
-0.07064983 -0.039951205 -0.09986617 -0.12446406 -0.063711755 0.07716297 0.08910164 0.09659122
0.119309925 0.01354463 -0.012827043 0.09602229 0.018349933 0.042742927 -0.07838034 -0.072089195
0.066780746 -0.116103165 0.051348362 -0.012768892 -0.10184736 -0.07360812 -0.094456345 0.08411366
0.11253756 0.025806526 -0.11952782 -0.010662974 0.044221673 -0.007358185 0.0027963135 0.022569928
-0.11813579 -0.10039007 0.1114643 -0.09010072 0.07954599 -0.10540143 0.033865932 -0.038740475
-0.08215937 0.015989654 0.10945615 -0.011068342 0.0072054253 -0.08540256 0.121331014 -0.050027028
-0.04646132 0.11414093 -0.111539625 0.08990414 -0.032641605 -0.01698232 -0.100399084 -0.054582268
0.010182278 -0.036422256 -0.122664966 -0.081156775 0.036148433 -0.057816844 0.05653834 -0.08482989
0.09859583 0.04697218 -0.021677516 0.04303174 -0.11537438 -0.0046294606 0.112518795 -0.0059354226
0.009229354 0.07024945 0.059671294 -0.0964878 -0.02656244 -0.06297093 0.12272924 -0.120657906
-0.015885074 0.032606434 -0.11295278 -0.07917701 -0.11739143 0.091605574 -0.047635388 -0.06906391

lstm.bias_ih_l1 f4 [256]
00000000: 8030 a3bd f73b de3b 6d7d af3d a64d 763d
00000010: b3fd 803d 19b1 f63c 1a62 91bd 226b 0c3c
00000020: 4725 29bd 577d d53a 033e b9bd b3ae f5bd
00000030: 6999 e23d 7311 e0bc 2ed7 aa3d 1a77 c1bc
00000040: 5e11 9a3d 445b dcbd a00a 41bd 412a 46bc
00000050: 8347 f4bd c15f a53d bd11 1fbd 0cec aa3d
00000060: 8fdc 603d 4cef abbd af36 c43d 6a5e ee3d
00000070: 2023 f6bd 39fd a23d 8e04 a1bc e1c2 66bd
00000080: f9b8 edbd be6f aebd aace f33d afbd 8b3d
00000090: 2c2e a23d 2ab7 3b3a 25f7 8bbd 9483 9f3d
000000a0: 5d78 19bd a7e1 bb3d 7482 1dbc 62d4 cb3c
000000b0: 9a60 46bb e8eb 4bbd bacf 58bd d39e 5b3a
000000c0: 7838 84bc e9e7 c8bd 9e75 d7bd 8651 2abd
000000d0: 28a7 b6bd 6120 cc3d 56b6 21bd 6dee 773d
000000e0: 4882 b8bd f850 bfba 33ba b3bd 76b6 e93d
000000f0: ab97 003e 122e c83a c05d 54bd 1251 6c3c
00000100: 5074 87bd 2a3f fdbd 5495 89bc 91e5 d4bd
00000110: 9b03 aa3d 71d1 12bd e5b5 233d e4be dbbd
00000120: 12ef 363d ad85 553d e308 1abd 8d53 913d
00000130: 876c 9b3d b6d9 ec3d c5ca 2dbd 447f c53d
00000140: b284 fdbb ceed 9e3c 08cd c83d 60b0 a2bc
00000150: 43bc d33d 9fa2 19bd 6078 b73d 5b20 56bd
00000160: 77b4 01bd 8ac1 c73d a171 ca3d b94f c93d
00000170: 15b9 eabd cc48 c03d 8ef8 733d 0249 9fbd
00000180: cba7 5fbc 0fd7 dd3d 00db ce3d c5eb 6cbb
00000190: f020 4dbd d173 dcbd dc79 8e3d 0697 863c
000001a0: 6e10 183d ab28 6ebd 9f67 bf3d 85da 98bb
000001b0: 1851 7bbd c15d c6bc 4e32 f5bc 7e17 923d
000001c0: 0dca 033b e863 31bd e3c4 c33d 308f 2e3d
000001d0: 552d 53bd e9b1 853d 558a 8abd cda4 2abd
000001e0: 906d d0bd 2ab4 873d 83a6 0ebd b3e1 b3bd
000001f0: 61ff ecbd f1c6 503d 31e6 f23d 742b c73d
00000200: ee11 ccbd 78fe 42bd 457d 833d 26fa 72bd
00000210: 6ff6 98ba 2fef f53c a9eb 4abd 7b3b b7bd
00000220: b8ce a13d 1630 74bc 8dd7 81bd 6b5d c63d
00000230: a925 793d c762 fabd 4ccd 6a3d 6989 253d
00000240: 1689 9dbc 1bf6 c1bd 5aec 1a3d a43a bc3c
00000250: a642 ec3b dade 1dbd 0429 b8bd eb2b fd3d
00000260: 17d8 903d 20a1 e3bc 559a 563d f123 6f3d
00000270: 28c7 cd3d a03c 473d ccb8 b43d 09b1 5ebd
00000280: 67b3 f43d 6edf 2ebd 380c d83d 5edf d93d
00000290: 9fcf 6cbd 4c8f 823c ca55 e3bd cde2 3d3d
000002a0: 0ccc a33d 2067 893d aa70 ffbd 91d0 e93d
000002b0: 6997 b5bd d4de 3f3d 54eb f03d ee24 84bc
000002c0: 366f 183c 81fa 2abd 60b8 eebd 2b08 a23d
000002d0: 76b2 b5bd 8ed8 e33d 3473 843d e9c4 23bd
000002e0: c126 b03d 8815 653d a781 e9bd 8cd6 35bd
000002f0: 4660 7e3d 97f9 b4bd f57c e33c 8b43 85bd
00000300: 5b85 31bd 389e 67bd fc2f b43d e639 c33d
00000310: 5803 c63c 3695 bebd b32e d1bd f351 df3d
00000320: 388e 713d 13be a9bd 8869 6fbb 83b7 7a3d
00000330: c112 b23c d955 0e3d 2319 bc3d f8ea c4bd
00000340: c8fa acbc 16d5 f4bd def3 f4bd 3187 9abc
00000350: 9225 4d3d 45b9 b93d d9f3 93bc b9c5 dbbd
00000360: 1607 eebd 4338 3bbd 5f85 41bd a884 06bd
00000370: 3191 d0bc 7037 81bc bc74 69bd 0965 af3d
00000380: e0c0 f2bc af15 fb3d b427 ca3d 2ae5 3abc
00000390: 1f26 86bd 7ce6 00bd 7d71 afbd 85cc bcbd
000003a0: 7252 1ebd 8c4c ac3d 8e04 473d 150f 12bd
000003b0: 3e6e f13c f68b adbd f765 013d 3d61 96bb
000003c0: 6a58 81bd 5f7e c63d 56a5 1cbd 109f 20bd
000003d0: 3bc6 be3d 6735 d1bd 845f af3d d916 83bd
000003e0: bd29 243d 938b e53c ee35 8c3d 2c93 133c
000003f0: 083d 003e 1d8f a53d db07 92bd 6fb8 0fbd
-0.07968235 0.0067820507 0.08568845 0.060132645 0.06298389 0.030113744 -0.070987895 0.008570464
-0.041295316 0.0016287965 -0.09045031 -0.11996212 0.11064417 -0.02735207 0.083418235 -0.023616362
0.07522844 -0.10759595 -0.047129273 -0.012095035 -0.11927702 0.08074904 -0.038835276 0.083458036
0.05489784 -0.08395252 0.095807426 0.11639102 -0.12018418 0.07958455 -0.019655492 -0.056338195
-0.11607546 -0.08517407 0.119046524 0.06823289 0.07918963 0.00071607775 -0.068342485 0.077887684
-0.037468303 0.09173899 -0.009613622 0.024881545 -0.0030269981 -0.049785525 -0.05293248 0.00083778537
-0.016140208 -0.09809858 -0.105204806 -0.041581653 -0.08918601 0.09967113 -0.03948053 0.060530115
-0.09009224 -0.0014596274 -0.08775749 0.11411755 0.12557857 0.0015272519 -0.05184722 0.014423626
-0.06613982 -0.12365563 -0.016794838 -0.10395349 0.08301469 -0.03584427 0.03996839 -0.10729769
0.04466159 0.052129436 -0.03760613 0.07096014 0.07589059 0.115649626 -0.042429704 0.096434146
-0.007736766 0.019400503 0.098047316 -0.019859493 0.103386424 -0.037508603 0.089585066 -0.05227695
-0.031666245 0.097537115 0.09884954 0.09829659 -0.11461083 0.09388885 0.059563212 -0.07777597
-0.013650845 0.10832035 0.10100365 -0.0036151272 -0.05008024 -0.10764278 0.069568366 0.016429435
0.037125044 -0.058144253 0.09345936 -0.0046647214 -0.061356634 -0.024214627 -0.029931214 0.07133387
0.0020109445 -0.04330817 0.095590375 0.042617023 -0.051556904 0.06528074 -0.06764666 -0.041661073
-0.101771474 0.066261604 -0.034826767 -0.08783283 -0.11572147 0.050970975 0.11860312 0.09725085
-0.09964357 -0.04760596 0.06420378 -0.05932059 -0.0011670123 0.030021278 -0.04954115 -0.08946892
0.079007566 -0.014904043 -0.06339941 0.09685787 0.06082693 -0.122258715 0.057324693 0.040414248
-0.019230407 -0.09470769 0.03782306 0.02297718 0.0072100936 -0.038542606 -0.08992198 0.12361892
0.07072466 -0.027786791 0.052393276 0.058383886 0.10047752 0.0486418 0.0882431 -0.054368053
0.11948281 -0.042693548 0.105492055 0.10638307 -0.05781519 0.01593747 -0.11100347 0.046358872
0.07997903 0.06709123 -0.12472661 0.11416734 -0.0886677 0.046843365 0.11763635 -0.01613089
0.0093038585 -0.041742805 -0.116562605 0.07911714 -0.08871929 0.11125289 0.06467286 -0.03998271
0.08601142 0.055928737 -0.11401682 -0.04439406 0.062103532 -0.08836668 0.027769545 -0.065070234
-0.04334007 -0.056547374 0.08798215 0.095325276 0.024171516 -0.093058035 -0.10213985 0.109043024
0.05897352 -0.08288207 -0.0036531407 0.061210167 0.021737458 0.03474984 0.09184482 -0.09615129
-0.021115676 -0.119547054 -0.119605765 -0.018863292 0.050084658 0.090685405 -0.018060612 -0.10731072
-0.11622445 -0.045707952 -0.047246333 -0.032841355 -0.025459858 -0.015773505 -0.056996092 0.08564193
-0.029632986 0.12259995 0.09870854 -0.011407176 -0.0655024 -0.031469807 -0.08566568 -0.092186965
-0.038652845 0.08413038 0.048588328 -0.035658915 0.029471513 -0.08473961 0.031591382 -0.0045892284
-0.06315692 0.09692072 -0.038243614 -0.039214194 0.09315153 -0.10215264 0.0856314 -0.06400842
0.040078867 0.028020656 0.06846224 0.0090072565 0.12523282 0.08083937 -0.071304046 -0.035088
