Personal/DACON/데이터·AI를 활용한 물가 예측 경진대회  농산물 가격을 중심으로/models/best_model_사과.pth (torch, 249592 bytes, 10 tensors)

lstm.weight_ih_l0 f4 [256, 44]
00000000: 174c d63d 1a83 ee3d 8a2a 913d 71b7 733d
00000010: 3b92 4cbd 7343 3fbd aae1 e2bc 8ccc 513d
00000020: b432 a0bd 10ed c13c 5b95 473d 5ef6 e93d
00000030: 6f2b 4d3d d039 f73d 762f fd3d 1779 9cbd
00000040: 8ca1 e3bd 126f b23d d675 00be 4050 753d
00000050: 7803 1bbc b931 b3bb c868 01bd 280a 9abd
00000060: 31de 6cbd d4d8 763d c867 62bd 12a2 d1bd
00000070: 4c1d d2bd 5772 643d 4462 72bd d80b 5ebd
00000080: dcae 803d 1074 88bd 8bfe fa3d 4102 5cbc
00000090: 8853 343d 1192 eabd 9b61 5c3d 4c38 a93d
000000a0: 93d3 9bbd 7d7d ec3d 8829 7f3c e21b a23d
000000b0: bc78 2f3d b3f5 563d 2a0b e73c a6c7 a33d
000000c0: d969 eabd 3360 4d3d adc0 a9bd 61ab d63d
000000d0: 085d 8aba b366 913c 9ff0 b53d b8b8 79bd
000000e0: 4fc6 f73d f13e f6bd 0b69 523c 582d 2bbc
000000f0: 1477 123d b9ba dcbd 5182 f0bd 1e1a 8e3d
00000100: 2a2f 48bd 5f59 a1bd 9dc6 1b3d 69eb 233c
00000110: 663b 9ebd 35bf e73d 7226 ae3d b423 29bd
00000120: aa1c 9abd 9de6 903d 1239 06bd 0e6e a43d
00000130: 62a5 fabd b4f0 82bd 2ad6 853d ae19 70bc
00000140: 8f9d 28bc b003 003e 041b 43bc c2b5 56bc
00000150: fe90 e8bd e921 813d 925f e73d b06c b93d
00000160: 69ac 9ebd 20cb 343d d3f7 d33c 1439 ecbd
00000170: 9396 78bd f5a6 443c 23e5 14bd c2e4 d5bd
00000180: ee78 123d 4fb5 b3bc bd03 e8bd 45db a9bd
00000190: bd5b f03d f518 9f3d 6dd0 033d a9b7 4c3d
000001a0: 0dd6 35bc c0ef 883d 0e08 843d a971 313d
000001b0: 8408 8fbc 7c2a 8cbd 86fb 22bd 6004 03bd
000001c0: acfe eebd 6477 8dbd de23 ec3d 30e1 da3d
000001d0: f242 fbbd 1f8e 103c 9fc4 fa3d 75ef b63d
000001e0: 7fce a43c 9ec7 a13c 262a 4bbd 97e1 e1bb
000001f0: 866a b03d 25ee 2f3d eaf4 86bd eec3 913d
00000200: 89e7 1e3d 05e3 8a3d 1745 913d cff7 0bbd
00000210: 6bb2 863d 590f 1b3d aeb7 623d 8efe 853d
00000220: cf91 6e3c accf 993d 71ea a2bd 5079 c73d
00000230: 20eb be3d 09b4 603d 3395 a03d 1d99 c4bd
00000240: 73f9 533d eb0d b73b f6ff 5dbb 120d 8e3c
00000250: b5b2 963d 10ab 663d bf1a 38bd 14ff 693d
00000260: 6847 3bbd 5585 69bd 0c89 ac3d 7a45 6dbd
00000270: 91b8 103c 46b0 ec3c 16ad 8c3d 88fa 363d
00000280: 1490 6cbd 6ebe 57bd bc4a 5f3c a62e bf3c
00000290: cf47 8e3c ae22 aebc 0a9e 2ebd a506 5d3c
000002a0: fc64 a83d 79fd 60bd 1ff6 593c 09d9 e83d
000002b0: 32ab ddbd 2243 8dbd cf51 cebd becc a4bd
000002c0: b9f8 ecbd 5c9b 923d aff3 73bd 5e14 9abc
000002d0: 14f6 debd 2e33 35bd 8945 e8bc ac78 513d
000002e0: 9d76 72bd 2415 3a3d f9a2 ff3c 1703 acbd
000002f0: c812 1b3d 147d 4dbd bc5b 10bd 0363 b23c
00000300: c47b 8c3d 2c72 6fbc de09 db3d 1b72 54bd
00000310: b9c7 9bbd 0e99 c3bc 569a 2cbd c141 003e
00000320: 9417 d7bd c3f4 c9bd a052 e13c 28a8 d0bc
00000330: d286 823d 2c8a d43d 34c6 61bd 7ec6 2ebd
00000340: d829 653d 980c f8bd b72a e73d 5531 e2bd
00000350: c2b4 fa3d 782e e9bd 4c2f 093d 1328 bcbd
00000360: 9962 9e3b a82f a4bd 62ac 82bd 8d07 b23d
00000370: 0888 c83c cc2e 803c 27b5 e33d 9746 b73d
00000380: ebd5 e5bd a963 c83c abf4 d3bd 0e4f 57bc
00000390: 9832 cc3c 26db 453c 0887 81bc e8cc cd3d
000003a0: e746 cfbc c05b 903d 1159 41bd fb58 bf3d
000003b0: 4224 4fbc 444d 883d e4d2 2fbd e416 09bb
000003c0: 0493 44bc d4fc 843d a27b f93d 1580 8f3d
000003d0: bc64 86bc 0beb c23d 948a 243d a8e7 41bd
000003e0: 486b f03c 5102 ea3d 4e5d 973b 538b 15bd
000003f0: 992a 933d 2b06 5439 e1c5 a13d 5b5a b3bc
0.10463732 0.116460994 0.07088192 0.059501115 -0.049944144 -0.046695184 -0.027695496 0.05122046
-0.07822171 0.02367261 0.04872642 0.11423944 0.05009025 0.12071574 0.12362568 -0.076402836
-0.11114797 0.08712591 -0.12544951 0.059890985 -0.009461276 -0.005468574 -0.031594068 -0.075214684
-0.057829086 0.060265377 -0.055274755 -0.102359906 -0.10259494 0.055773105 -0.059175745 -0.054210514
0.06283352 -0.06662762 0.122555815 -0.013428272 0.044024974 -0.11453641 0.05380402 0.08262691
-0.07608714 0.115473725 0.015573867 0.079154745 0.04283975 0.05248041 0.028203566 0.07997064
-0.1144597 0.05014057 -0.08288703 0.10481907 -0.001055629 0.017749166 0.088837855 -0.060967177
0.12098371 -0.12023724 0.012842427 -0.0104478225 0.035758093 -0.10777802 -0.11743606 0.06938575
-0.048873104 -0.07878374 0.03803121 0.010004857 -0.07726173 0.11315767 0.085034266 -0.041293815
-0.075249985 0.07075236 -0.03276927 0.08028804 -0.122385755 -0.06393567 0.06534989 -0.01465456
-0.010291471 0.12501407 -0.0119082965 -0.013104858 -0.1135578 0.06305296 0.112975255 0.090539336
-0.077477284 0.044139028 0.025875008 -0.11534324 -0.060690474 0.012002696 -0.036351334 -0.10444023
0.03575986 -0.02193704 -0.11328838 -0.082937755 0.11736248 0.07768432 0.032181192 0.04997984
-0.011098397 0.06686354 0.06446849 0.043321285 -0.017460115 -0.06844041 -0.039790653 -0.031986594
-0.116696686 -0.069075376 0.115302786 0.10687482 -0.12268628 0.008822947 0.12244534 0.089323916
0.020117996 0.019748505 -0.049600743 -0.0068933475 0.08614068 0.04295172 -0.065896824 0.07117449
0.038795028 0.06781582 0.07093256 -0.034171876 0.06576999 0.037856434 0.05535095 0.06542693
0.014561131 0.075103134 -0.079548724 0.097399354 0.0932219 0.054859195 0.078409575 -0.095995165
0.051751565 0.005586376 -0.0033874488 0.017340217 0.073583044 0.05631548 -0.044947382 0.057128027
-0.045722395 -0.05701192 0.08424577 -0.057927586 0.008833067 0.028892647 0.06868951 0.04467252
-0.05775459 -0.052671842 0.013628658 0.023337673 0.017368225 -0.021256771 -0.042631187 0.013490354
0.08222386 -0.05492923 0.013303309 0.11369521 -0.108236685 -0.0689757 -0.100741975 -0.08046864
-0.115708776 0.07158539 -0.059558567 -0.01880854 -0.108867794 -0.044238262 -0.02835347 0.051140472
-0.05919515 0.045430318 0.031205641 -0.08399027 0.037859708 -0.050168112 -0.035243735 0.021775728
0.06859544 -0.014614623 0.106952414 -0.051866632 -0.076064534 -0.023876693 -0.042139374 0.12525083
-0.10502544 -0.09861138 0.027505219 -0.025470808 0.06373371 0.10377917 -0.05512066 -0.042669766
0.05594811 -0.12111777 0.11287444 -0.110445656 0.12241508 -0.11385816 0.03349237 -0.09187331
0.004833531 -0.08016902 -0.06380536 0.086928464 0.024478927 0.015647314 0.111185364 0.08949011
-0.11222442 0.024461584 -0.10349401 -0.013141407 0.024926469 0.012076175 -0.015811458 0.100488484
-0.025302364 0.0704875 -0.04720408 0.093431436 -0.012642922 0.06655362 -0.04292573 -0.0020918185
-0.011997942 0.06493536 0.12181784 0.070068516 -0.016405456 0.09517487 0.04017122 -0.047340065
0.02934803 0.11426223 0.004619277 -0.036509823 0.07185859 0.00020220193 0.078990705 -0.02189367

lstm.weight_hh_l0 f4 [256, 64]
00000000: b48b d53d a790 d93d a6d9 d0bc 8db7 be3d
00000010: 7b7b fabd 516e 3c3b 0264 a13c 8e05 3bbb
00000020: ac6c 1d3d 8a71 71bd 710c b6bc 7663 3dbc
00000030: 0cd0 c03d 7d7f dc3d 1a93 babc 0bc0 07bd
00000040: 2483 afbd baaf 983d f22a 0fba e5f4 c03d
00000050: 7956 15bb a47e 5abd 6346 cdbd b015 33bc
00000060: 22d6 c0bd 1094 4cbd 90bc d5bc a4b8 42bd
00000070: 7d38 f1bd 9e29 c43c ee70 9cbd 53ff 91bd
00000080: 5f90 fd3c 1d0b 62bc 396d 4a3d ead0 9bbd
00000090: 6c51 65bd 433f 5d3d 0f7d 81bd 1e60 bc3d
000000a0: 5c74 21bd db62 29bd 7843 d9bd acad b0bd
000000b0: 5332 c0bb e39e 97bd e815 5dbd 28ba 27bd
000000c0: 1ef5 f0bc 7f32 ad3d 9648 763d 5bdb 5f3d
000000d0: 672b b3bd 419a 483d b435 f7bd 8055 013d
000000e0: bfcf 403d 6b33 a13d 3517 47bc 72ad 133d
000000f0: 64f5 2a3d d056 f63d 936d ed3d 056d e7bd
00000100: b059 a93d 50e7 d93d 201e e13d 7080 ab3c
00000110: 312a 29bb 8ee5 22bc 14fd debd d1a8 c4bd
00000120: c60b 66bd 5023 ccbd 3cf0 853d f134 34bd
00000130: 5957 f2bd 0912 da3d 8709 1dbd 6d83 90bd
00000140: b916 553d f214 0b3d 5e18 2b3d 71ef a03d
00000150: 5158 1ebd a412 103b f56e 393d 552a 583c
00000160: 8a2a b4bd ef7c ddbd c1ff 973d 1c5d 633d
00000170: c3ae e93d 56b3 a23c 9dfb bb3d 0ede c3bd
00000180: 6956 abbd 3656 a33d f160 dc3d b96f 003e
00000190: 2954 6f3c 566f cb3d bf89 b23d a63b b03d
000001a0: bd83 983d fe21 aabc 5934 a9bd 4795 8fbd
000001b0: 3e2e 7e3d 2d59 e7bc 4144 9d3d e288 573d
000001c0: f234 74bd 71c8 7dbc 3886 fabc 8220 a2bd
000001d0: 9005 8b3d 9d0d 99bd 8fe4 c13c 3e24 0ebc
000001e0: 05c0 2a3d 0324 7cbd 82dc 4b3d f45f d7bc
000001f0: 4fac 39b9 6856 ac3d 7feb b93d 2a1b 833d
00000200: 422e 833d a4d6 303d 49ea 78bd 5bd2 02bd
00000210: 03b3 bc3d 73fa fdbd eca1 f9bd 1735 e9bc
00000220: da56 193d 2b92 743d 5cc8 9dbd f6f6 fe3d
00000230: e8ed 05bd ebfb d7bb ae4e e8bd 1def 77bd
00000240: 8e54 f6bc 0d24 8f3d da16 273d 712c 79bd
00000250: 8ab7 e8bc 1c69 783d af2c 13bd 97f0 8abd
00000260: b148 d83d 69d9 73bd e0de e1bc 9644 ecbd
00000270: 4e12 38bd 000e 633d fde0 fdbb ca3f 9bbd
00000280: a05a 663d 8e1f fabd 73ac f3bb a877 38bd
00000290: 6c1f d5bd 924f e13c f704 b7bc 3eb8 c9bc
000002a0: 83b0 afbd 424e d63c 80f9 e23d 1216 c6bb
000002b0: a0bb b73d 41ce 8dbd 6333 55bd 15ba 2a3d
000002c0: dce6 bb3d 1c4e d93d 7baf 90bc ffcb 9e3d
000002d0: 8473 d73d 85bb babc 91f5 1dbc 00d4 f23d
000002e0: 681e d0bd c051 18bd 6cb0 813b 213e ca3d
000002f0: 2374 b03d 8c99 87bd 8fa5 a6bd a545 013d
00000300: 3585 5fbd 07ca dfbd 2232 a63d 288a 313c
00000310: 54bc 8abd 67ca 993c d48d c53d b283 83bc
00000320: dd8d c93d 86da d93d 649d 8dbd 33fa ebbd
00000330: 9e03 db3d a3b7 8bbc 1c27 9fbd b8b2 a43d
00000340: 0898 e7bd 0224 c13c 6673 b73d 3e8a abbd
00000350: bb43 39bc 7fe8 ad3d 7a83 9a3d 3a96 95bc
00000360: deb7 c63d 3aa2 b9bd 190e f03d 7a5b 203b
00000370: 9f9c d43d 2a7a 243c e6ca a2bd 5c16 c2bc
00000380: 2b16 403d 0ab8 e0bb e2e1 843d 78bd 86bd
00000390: c051 193d f52c 57bd 06a7 c93d feb9 60bd
000003a0: 8ebb c03c 1a0d e9bc dde5 ed3d c6fb cdbd
000003b0: 0c83 b2bd 7d44 29bd 3b12 7a3d 9f50 8c3d
000003c0: 69ce 05bd 14a8 8c3d 9698 d43d 25a1 d2bd
000003d0: c3fa 27bd 65e9 993d c8ed abbd b68c 843d
000003e0: 12b5 f43d 1130 fe3d ff93 8c3d 2c42 72bd
000003f0: d537 cfbd 6499 f0bd e522 e8bd 8933 f1bd
0.10427037 0.10623293 -0.025494408 0.09312353 -0.12230583 0.0028752277 0.019701008 -0.0028537246
0.038433716 -0.05894617 -0.02222273 -0.011559358 0.09414682 0.10766504 -0.022775222 -0.03314213
-0.08569935 0.07455392 -0.00054614164 0.0942171 -0.0022787137 -0.05334343 -0.10023191 -0.010930464
-0.094158426 -0.04994589 -0.02609089 -0.04753937 -0.117783524 0.023945626 -0.07638727 -0.07128777
0.03095263 -0.013796595 0.04942057 -0.076082066 -0.055985853 0.05401541 -0.06322681 0.091980204
-0.03941761 -0.04135404 -0.10608572 -0.08626875 -0.005865374 -0.07403352 -0.05397597 -0.040949017
-0.029413756 0.08456897 0.060127817 0.054652553 -0.08748513 0.048975233 -0.1207079 0.03157568
0.047073122 0.07871135 -0.012151529 0.036054082 0.04173793 0.12028277 0.11593165 -0.11300091
0.0826906 0.106398225 0.10992074 0.020935267 -0.0025812502 -0.009942425 -0.108881146 -0.09602512
-0.05616357 -0.09967673 0.06539962 -0.0439958 -0.118330665 0.10647971 -0.038339164 -0.070563175
0.052023623 0.033955522 0.041771285 0.0785817 -0.038658444 0.0021983767 0.045271832 0.0131936865
-0.08797176 -0.10814845 0.07421828 0.055508718 0.11410286 0.019860905 0.09178851 -0.09563838
-0.08366091 0.07975428 0.107606776 0.12542619 0.014607468 0.09933345 0.08717679 0.08605127
0.07447002 -0.020768162 -0.08261938 -0.07010894 0.06205582 -0.028240765 0.07679034 0.052620776
-0.059620805 -0.0154896835 -0.030581579 -0.079163566 0.0678817 -0.074733 0.023668556 -0.008675633
0.04168703 -0.06155778 0.04977084 -0.026290871 -0.00017707165 0.08414918 0.090781204 0.064016655
0.06405307 0.043173447 -0.060770307 -0.03193889 0.09213831 -0.12401285 -0.12189087 -0.028467698
0.037436344 0.05970971 -0.07704231 0.12449448 -0.03269759 -0.0065913103 -0.11343132 -0.06053077
-0.030069616 0.06989298 0.040793277 -0.0608334 -0.02840783 0.060647115 -0.035931285 -0.0678417
0.1056074 -0.05953351 -0.027572095 -0.11536519 -0.04493933 0.055433273 -0.007747768 -0.07580526
0.05623877 -0.1221305 -0.007436329 -0.045035988 -0.10406384 0.027503762 -0.022341235 -0.024623986
-0.08578589 0.026160363 0.110827446 -0.0060451115 0.089713335 -0.069241054 -0.05205096 0.041681368
0.09174892 0.10610601 -0.0176618 0.07753753 0.1052008 -0.022794494 -0.009641067 0.11856842
-0.101620495 -0.037187338 0.0039577987 0.098751314 0.08615901 -0.066210836 -0.081370465 0.03156056
-0.054570395 -0.109272055 0.08115031 0.010836162 -0.06774202 0.01877327 0.09646192 -0.016054008
0.098415114 0.10637383 -0.069147855 -0.11522331 0.10694049 -0.017055338 -0.077711314 0.080419004
-0.113082945 0.02357674 0.089575574 -0.08375977 -0.011307652 0.08491611 0.075446084 -0.01826011
0.09703039 -0.090641454 0.11721439 0.0024468587 0.103814356 0.010038892 -0.07948856 -0.023692302
0.04689614 -0.0068578767 0.06488396 -0.06579107 0.03743148 -0.05253311 0.0984631 -0.054864876
0.023526933 -0.02844863 0.116161086 -0.100577876 -0.087164015 -0.04132508 0.061052542 0.06851315
-0.03266755 0.06867996 0.10380666 -0.10284642 -0.04101063 0.075152196 -0.083949625 0.06472151
0.11948599 0.12411512 0.068641655 -0.059145138 -0.10118071 -0.11748007 -0.113347806 -0.11777408

lstm.bias_ih_l0 f4 [256]
00000000: c1ac c53d 13a1 0c3d f8da 9abd 425b 7dbd
00000010: 86b4 f13d 0e0d 67bd 540a 9dbd 6ceb 7e3d
00000020: c260 25bc 9b28 2f3d e6e6 763d 9ffb 93bd
00000030: 0941 9fbd 2d40 893d 5028 cd3d 50f7 d1bc
00000040: 04d9 2ebd ba4e 903c 35a2 793c a67f 003d
00000050: 5516 a73d 6433 d23d 5f28 113c 8de9 2d3c
00000060: 2875 61bd 5688 7e3c a31a e03d 55f3 debd
00000070: 9bb6 703c edbf ba3d 29f4 75bd ed4a bfbd
00000080: 5f85 f23d 93a0 a1bd 03ce d7bd a4b0 bdbd
00000090: 2161 be3c 40c6 cebd 923f 483d fa78 443b
000000a0: 5937 a83d f6d3 cbbc e581 e1bd 3f2f 4bbc
000000b0: 40d3 393d 774f c8bd 12ee e8bd 9f37 153c
000000c0: e134 e7bd 3b83 253c ea7c 7bbd 5341 c33d
000000d0: d495 9439 7bdc f43d ff39 6dbd 39b1 ca3d
000000e0: e5ed ac3d efae 9bbd 3770 eb3c dec7 d6bc
000000f0: d1ca e5bd 8d5d f33d 712f 6dbd a1eb bd3d
00000100: 06bb 333d 1510 d3bd 4235 1cbc 513a ac3d
00000110: 9477 e03d 7da9 e0bd 7f49 f43d 238d 793d
00000120: 4f63 953d 7bcd 86bd ecb3 c23d 4f36 b03c
00000130: 4706 fc3d dc72 67bd 5491 adbb 5ddc 873c
00000140: 037e e33d a977 f93d 7e56 d53c e2a1 5e3d
00000150: ecc5 e1bd 78d1 8b3d 3c98 fdbd a216 71bd
00000160: a7d2 f0bc c7b8 c53d 638d 763d 1a5f abbc
00000170: a36f 733d 1bd1 b53d 14b8 93bd 3286 e4bd
00000180: ff13 bfbd 50d9 cc3d fd40 f9bd 0f7b 4fbd
00000190: a512 fdbd 5f8a d3bd 12b9 a6bd 1e09 37bd
000001a0: 53d5 d9bd 8264 7abb 7496 3abd 26db 173c
000001b0: 8423 a3bc f8d5 9dbc 0d68 c63d 4af6 7ebc
000001c0: 72ec cb3d 9988 923d 13ba 38ba f3d1 2dbd
000001d0: a288 933c dd2f dcbc e164 f63d 74ee 893d
000001e0: 2204 c3bd 02d3 663d 5b40 e53d 8c44 e2bd
000001f0: 8966 f33d 4363 a43d fb90 cebd 6cea b03d
00000200: c861 9d3a e8c0 d6bc ff3b f63d d14b 70bb
00000210: 6bf0 ae3c 653d 723d 0e00 95bd b755 79bb
00000220: a321 dcbd 0948 f63d a21c 8d3d d9c8 70bd
00000230: 2df8 063b 3db9 ac3d a8d0 8d3d 5b26 f7bc
00000240: 8013 ac3d 0c07 6c3d 1111 e3bc 3370 993d
00000250: e8a3 7f3d 2671 ac3c 10fe 793d c370 a93d
00000260: 653a f4bc c56e 42bb 5913 34bd 0f43 bbbd
00000270: 6501 80bc 220f a3bd 4e7f 98bd 384a 3dbc
00000280: 24c1 79bb 9deb 343d bd45 85bc eaa7 343d
00000290: 1098 f1bd 639d e13d 768e bd3d 6184 bc3b
000002a0: 95fa 6bbd 9e31 713b 0f3c 983b f9dd d13d
000002b0: 6818 9d3d 7ca2 debd acd1 423d 51a6 f43d
000002c0: 6a70 873d 436d 53bd b5ff dfbc c698 a13d
000002d0: 0384 bb3d 8fa2 bb3a a1b1 163c 9351 d9bc
000002e0: b1e8 f33d c1ee f1bc a9e4 7bbd 11eb a73d
000002f0: 0f40 02bd 8bd9 de3d 61e1 6e3d 2868 a1bd
00000300: 2584 e73b b806 61bc 2d96 21bd 017b f5bd
00000310: 72ca d5bd 6d5c 4abc d396 d9bd 85a2 ec3d
00000320: 06c2 b03c 0b93 37bc 514c 9ebd 69f3 273d
00000330: c76c d63d ea5f e23d bf75 fd3d 3c88 f4bc
00000340: dcdf a6bd 1313 023d c345 d0bc 9e5d 6ebc
00000350: 8fca 56bd d023 e73c 382c eebd 61e8 b3bd
00000360: e130 a3bc 3382 42bd a2ea 9bbd 7504 e1bd
00000370: f4dd a1bd 2e06 003d 88fe c43d 6041 edbc
00000380: da32 07bd 6ecb e7bd ed7c 7ebb 8dac bebd
00000390: 5705 a93d 9357 3a3d 3e87 3fbd a457 003c
000003a0: 6560 013e e67c 323d 23d8 913d ef7e 9a3d
000003b0: 78fa 45bc 3041 50bd 3910 b1bd f9d7 e83d
000003c0: ddd1 b13d 8757 35bd ece7 09bc 838a d53d
000003d0: ce79 e3bd ea3d 8b3b e33f f93d b88c ae3d
000003e0: 7990 0ebd 13ad 90bd a601 da3d 0414 aebc
000003f0: 7b02 34bc b0e2 0f3d 8e31 1b3d 2618 7bbd
0.09652091 0.0343333 -0.07561296 -0.06185461 0.1180201 -0.056408934 -0.076679856 0.062236235
-0.01009387 0.042763334 0.060278796 -0.07225727 -0.07776076 0.06701694 0.100174546 -0.025630623
-0.04268743 0.017615665 0.015236427 0.031371735 0.08158556 0.10263708 0.008859723 0.010614765
-0.05504337 0.015535435 0.109425806 -0.10886256 0.014691974 0.09118638 -0.060047302 -0.09340463
0.11841845 -0.07891955 -0.105373405 -0.09262207 0.023239674 -0.10096407 0.04888875 0.0029979334
0.08213682 -0.024881344 -0.110111035 -0.012401401 0.04536748 -0.09780782 -0.11373533 0.009107499
-0.11289383 0.010102089 -0.061398424 0.09533944 0.0002834039 0.11956116 -0.057916638 0.09897084
0.08443812 -0.07601725 0.028740032 -0.026218351 -0.11220325 0.11883078 -0.05790657 0.09273458
0.04387953 -0.10305802 -0.009534182 0.084095605 0.10960308 -0.10969827 0.11928081 0.060925614
0.07294332 -0.06582161 0.095069736 0.021510271 0.12305885 -0.056506023 -0.0052968655 0.01658457
0.11108019 0.121810265 0.02604222 0.054353602 -0.11024079 0.06827062 -0.12382552 -0.058859475
-0.029397322 0.09654384 0.06019343 -0.020919371 0.059432637 0.08877774 -0.072128445 -0.11158408
-0.09329986 0.100023866 -0.12170599 -0.050654467 -0.12357072 -0.103291266 -0.08140768 -0.04468643
-0.106363915 -0.003820688 -0.04555364 0.009268558 -0.019914396 -0.019267067 0.09687815 -0.01556165
0.09957208 0.0715496 -0.000704677 -0.04243655 0.018009488 -0.026878292 0.1203096 0.067349344
-0.09522273 0.056353576 0.111939155 -0.110482305 0.118847914 0.08026745 -0.100862466 0.086384624
0.001200729 -0.026215032 0.12023162 -0.0036666284 0.021354875 0.05914058 -0.07275401 -0.0038045475
-0.10748603 0.12025458 0.06890227 -0.058785293 0.0020594702 0.08433769 0.06924564 -0.030169657
0.08402157 0.057623908 -0.027718099 0.074921034 0.062412173 0.021050047 0.06103331 0.08273461
-0.029813001 -0.0029668075 -0.043963764 -0.0914365 -0.015625665 -0.07961871 -0.074461564 -0.01155334
-0.0038109506 0.04417001 -0.016268605 0.044105448 -0.11796582 0.11016347 0.09255688 0.0057530855
-0.05761202 0.0036803256 0.0046458314 0.10247416 0.07670671 -0.10870835 0.04756324 0.11945785
0.06613238 -0.051617872 -0.02734361 0.07890467 0.091560386 0.0014315414 0.0091976235 -0.026528155
0.11909617 -0.029532792 -0.061497364 0.08199132 -0.031799372 0.10881337 0.058320407 -0.07881194
0.0070653134 -0.013734512 -0.03944986 -0.11986352 -0.10439004 -0.012351138 -0.106244706 0.11554436
0.021576893 -0.011204491 -0.077294 0.04100362 0.104699664 0.110534504 0.12375974 -0.029850118
-0.081481665 0.03175647 -0.02542389 -0.014548687 -0.05243927 0.028215319 -0.11629528 -0.08784557
-0.019920768 -0.04748745 -0.07613112 -0.10987178 -0.07903662 0.031255893 0.096188605 -0.028961837
-0.03300748 -0.11318098 -0.0038831786 -0.09310255 0.082529716 0.045493674 -0.046759836 0.007833395
0.12634428 0.043576144 0.07121303 0.07543742 -0.012083642 -0.050843418 -0.08645672 0.113693185
0.08682606 -0.044272926 -0.008417111 0.1042681 -0.11107217 0.004249324 0.121703885 0.08522934
-0.03480575 -0.07064261 0.10644846 -0.021249779 -0.0109869195 0.035128295 0.037889056 -0.061302327

lstm.bias_hh_l0 f4 [256]
00000000: 87a6 be3d 090c 43bd d69d 93ba 2528 a43d
00000010: e40b 8a3c e622 30bd fc7c a93c f984 dd3d
00000020: 4e83 573c 2a84 dabd 5472 f83d 2f3e 843d
00000030: 7d65 00bd 7a46 053d 647d 32bd 6fb6 bd3d
00000040: c73b ab3c b003 ed3d fa5c b6bc 53bf f2bb
00000050: 5119 f6bd 3e93 d8bd b947 93bd 4c4e 92bd
00000060: e8cc d4bd 563d 8e3d 6673 053d d057 72bd
00000070: 9798 d13c fb9f de3d adea bc3d 801d 033d
00000080: aa08 d73c 37a9 84bd 8548 873d 525a f0bd
00000090: 7709 babc 8ef7 78bd 2d5a adbd 586e 41bd
000000a0: 0758 ec3d 4f2f d9bd 49ed bbbd 5cc4 e239
000000b0: 84f7 433d 9df7 ebbc 3e95 dbbd f5cd b9bd
000000c0: dd1e fe3d 5551 c23d 673a cbbd 07c8 c8bd
000000d0: a3b1 21bd 57f0 383c 813f 243d 8c14 85bc
000000e0: d114 46bc bfb0 d53d f225 63bc 4a0a aeba
000000f0: e181 e5bd 69e4 de3d 920e a23b a8e9 29bc
00000100: aeb7 27bd 7a81 163d d9d4 d2bc 3b25 38bd
00000110: 1486 02bd 2874 cc3c 47eb a23d df4d 26bb
00000120: 6dcd 013d 33bb ab3c c4db aabc abf6 d13d
00000130: 53cb bf3d b091 383d d27b 263d 02ef e83d
00000140: a474 51bc c4d0 4dbc 87ef 80bd febf 033d
00000150: 5a04 e73d 38af b9bc 4ed6 c2bd b87c a43d
00000160: 0054 e5bd d922 f5bd 9765 793d fc9c f2bd
00000170: f618 8dbd bd4e 0a3d 881b fbbc 9705 b73c
00000180: 85a8 503a 6e0c 7a3d 03ef 8f3d eebd 07bc
00000190: 2f71 e23d d9b2 09ba 4e6f f23d 575b bfbc
000001a0: e407 fe3a deed 8bbc 66c1 ef3d 9514 853d
000001b0: d82e b73d f9a5 5a3d 19d0 dd3d c384 aa3c
000001c0: 86ee eebd 2e51 29bd 0054 3abb 073f 5dbd
000001d0: 6cc2 f23d effe eebd 45f9 b2bd 5c0c 3c3d
000001e0: 38e3 dbbc f62d 2c3d 3c8f c1b9 862b e0bd
000001f0: 8b43 c9bd b55b b93d e685 46bc dfa8 5fbd
00000200: 21d1 f9bd 5919 c7ba 9f09 cfbd caab 9d3d
00000210: ce0c 143d 769a ee3b dad5 b43d 5986 a4bd
00000220: a7c5 b4bd af37 fd3b c678 30bc a345 483d
00000230: 21e8 923d 2350 fe3c 7b13 80bd 2d46 d5bd
00000240: c329 88bc 8b4a fc3d 0f5d 9b3c 7608 5ebb
00000250: cd68 e73d dcfe c3bd 44e2 d03d 5bb0 99bd
00000260: 3187 25bc 51cf babd 1d87 1ebd 5ea8 0cbd
00000270: 2594 6cbd b69d 08bd 42d2 b1bd 5e81 a2bd
00000280: c88e 3dbd 45f2 8abd d9c3 bd3d aaf2 313d
00000290: 1d16 e43c dd10 863c 5889 bf3d e1b6 673d
000002a0: 0ef6 ee3d 1c25 e73d 1f67 e43c 7d3b f2bc
000002b0: ba4f 21bd a818 f0bd f6c6 b6bd c7cd f0bd
000002c0: 05b1 9cbc fa02 fbbd 739f c3bd a214 01bd
000002d0: c6b4 81bc 90da be3d 7d51 a5bc abfc 87bc
000002e0: 7a0b 53bc 8b5a c9bd cc77 e63d 0a8f 3c3d
000002f0: 7e68 bfbd 2532 d8bd 196c dabd 804d abbd
00000300: 9b64 26bd 9889 333c d5d5 dc3d 2d87 1b3d
00000310: f6c5 c8bd 23f8 723d 2d05 013e d5dd f0bd
00000320: 8281 d7bc 83c0 d73d bcc8 d73c cf96 dc3d
00000330: 3046 dabc 5a8d cb3d 81cb 243d 9850 cc3d
00000340: 191f adbc 8f0a bc3d 663c c53d 6a66 5abd
00000350: c061 8abd 1fb8 9d3d 4408 d93d 53a3 a13d
00000360: 0a08 95bd 932f 153b f68c b9bd 69b1 853d
00000370: 5a8b d6bd 6772 ac3d ccfd 87bd d46c 853d
00000380: 373a abbd 1c9c 9c3c b413 8f3c 057e d1bd
00000390: 0e9d 5cbd 662e e53d 5e7b 34bd c8ba 94bd
000003a0: 7026 7fbc 3060 e03a 3e52 223d 8e96 0cbc
000003b0: 7843 62bc ca9a 9dbd 5510 843d 8fc7 8dbd
000003c0: e709 44bd 8b9b df3d dd95 e33c f18f 24bd
000003d0: de0e aa3d 9c6b b63d 4387 afbc d8c7 b8bd
000003e0: 6d20 c93d 7949 c5bd 4cb5 be3d 035e 5b3d
000003f0: 12e5 a23c 3849 d8bd 0994 eb3d 7eb9 293d
0.09309106 -0.0476189 -0.0011262249 0.080154695 0.016851373 -0.04300203 0.02068948 0.10816378
0.013153864 -0.106697395 0.12131181 0.06457173 -0.031346787 0.032537915 -0.043576613 0.09263312
0.020902527 0.11572969 -0.022261132 -0.0074080615 -0.120165475 -0.10574959 -0.071914144 -0.0714384
-0.10390645 0.06945293 0.032580756 -0.059165776 0.025585456 0.108703576 0.09224448 0.032010555
0.026249249 -0.06477588 0.06605629 -0.11735977 -0.022709591 -0.06078296 -0.08464465 -0.047224373
0.115402274 -0.106047265 -0.09176118 0.00043252378 0.04784347 -0.028804595 -0.10721825 -0.09072486
0.124082305 0.09488169 -0.09923249 -0.09803777 -0.03947605 0.01128777 0.040099625 -0.01624515
-0.012089924 0.10434102 -0.013864027 -0.0013278213 -0.11206413 0.108834095 0.0049455846 -0.010370649
-0.040946655 0.036744572 -0.02573626 -0.04495738 -0.031866148 0.024957731 0.07955032 -0.0025376005
0.03169005 0.020963287 -0.020856746 0.10252126 0.09364953 0.045060813 0.040645428 0.11373712
-0.012784157 -0.012561981 -0.06295686 0.03216552 0.11280127 -0.022666559 -0.095135316 0.08031601
-0.11197662 -0.11969537 0.0608879 -0.11846349 -0.068895265 0.033766497 -0.030652776 0.022341533
0.00079596817 0.06104701 0.0702801 -0.008285029 0.11056744 -0.00052527856 0.11837636 -0.023358984
0.0019381014 -0.017081197 0.1170681 0.06498066 0.089444816 0.05338094 0.10830707 0.020815259
-0.116665885 -0.041337185 -0.0028431416 -0.054015186 0.11853489 -0.116697185 -0.08738951 0.045910224
-0.026841745 0.04203602 -0.00036918547 -0.109458014 -0.09827336 0.09050695 -0.012116885 -0.054604407
-0.12198091 -0.0015190049 -0.10109257 0.07698782 0.036145024 0.007281597 0.088298514 -0.08033437
-0.08826762 0.0077275853 -0.010770982 0.048894536 0.07173181 0.031044072 -0.062537156 -0.104137756
-0.016621476 0.123189054 0.018965272 -0.0033879555 0.11299286 -0.09570095 0.10199407 -0.0750434
-0.010103033 -0.09121574 -0.038703073 -0.034340255 -0.05775847 -0.03335353 -0.086826816 -0.07934831
-0.046278745 -0.067844905 0.092658706 0.043444313 0.027842576 0.016365463 0.09352368 0.05657089
0.11668025 0.11286375 0.027881203 -0.029569382 -0.039382674 -0.11723453 -0.089246675 -0.11757999
-0.019127378 -0.12256427 -0.09551897 -0.031513818 -0.01583327 0.09319031 -0.020180458 -0.016599974
-0.012881154 -0.09831723 0.11253318 0.04603485 -0.09346102 -0.10556439 -0.10665149 -0.08364391
-0.04062329 0.010958098 0.10782973 0.03797071 -0.09803383 0.059318673 0.1259963 -0.11761061
-0.026306871 0.105347656 0.026340835 0.10770952 -0.026644796 0.0993907 0.04023314 0.099763095
-0.021132993 0.091817014 0.09630661 -0.053320326 -0.067569256 0.07701134 0.1059728 0.0789248
-0.07276924 0.0022763952 -0.09060089 0.06527979 -0.10475798 0.08420258 -0.06640205 0.06514898
-0.08360713 0.019117408 0.01746545 -0.102291144 -0.053860717 0.111904904 -0.044062965 -0.07262188
-0.015573129 0.001711851 0.039629214 -0.008580817 -0.013810031 -0.07695539 0.064484276 -0.069228284
-0.047861006 0.10918339 0.027781421 -0.040176336 0.08303617 0.089072436 -0.021426803 -0.09022492
0.09820638 -0.096331544 0.093119234 0.053556453 0.01988462 -0.1056084 0.11502845 0.041436665

lstm.weight_ih_l1 f4 [256, 64]
00000000: 33c2 e4bd 3ab0 3cbd ab63 b7bd 51f1 fdbd
00000010: a849 c43d af5c 2a3d 9b16 133d bc30 ee3d
00000020: 08c5 54bd 5b16 8b3d 7355 fe3d ecd9 c03d
00000030: bf6a c3bd c8f4 5bbd 0d11 9f3d 0ab7 423d
00000040: 4d33 94bd f35a a7bd 8e79 cdbd 56c3 f63d
00000050: 0596 72bd 1042 f33d 5669 063d 0352 8b3d
00000060: 739a 13bd 959f 153c 4d80 433d 1447 dfbd
00000070: d8c8 dc3d cf9e 163d a243 5e3d 55f0 323d
00000080: acac 9abc c507 f23d 20e0 fb3d 2b39 943d
00000090: 216c c1bd 1539 e0bd 84cb a1bd 4a45 d6bd
000000a0: 78de c8bd 8247 d9bd e297 bdbd ff70 60bd
000000b0: 71d6 88bc 392c 88bd 4515 c9bd 9255 d0bd
000000c0: 6681 91bd 741d 2a3d 072f 8a3d 541e 2f3d
000000d0: d3b1 863d 9370 ff3d 8093 89bd 73bf 9c3c
000000e0: b4f1 ed3d efa9 e83d bce5 d2bd 7a3c fb3d
000000f0: 8682 25bb 2b9a 2c3d 084d 4d3d 59f9 ed3d
00000100: 49d1 163d 5f63 a5bd 84fc 183d 287d c63c
00000110: 28fe 883d 2b92 d5bc 1f19 f9bd 2266 8dbc
00000120: 9387 fcbd 19d8 213d b986 ca3d 7d3b b3bc
00000130: ddef 18bd f61f 883c 06ee 5f3b c5b7 9b3c
00000140: e5b1 98bb ed5a c1bd 71d9 81bd d62a 3dbc
00000150: 7379 ae3d 59d9 733d 1831 9a3d 5608 9ebd
00000160: adb5 f4bc d91f 3fbd a96d b63d 397e fcbd
00000170: 8719 773d 02d1 81bd 5f42 f0bd 1f1a 87bd
00000180: 656b c8bd fc8d 873a 1e33 54bd 4af1 4c3c
00000190: 94e5 c9bd 2e32 ff3d 852a c7bc 67d6 c2bd
000001a0: aeec 91bd 157b f53c 1641 c7bd 55a2 cc3c
000001b0: 5c25 4bbd def8 5d3d b0db 7e3d feb6 20bd
000001c0: 528b f73d 374c 863d 74f5 d2bd 7d49 52bd
000001d0: fb7c 95bc 7747 abbc 5e1c 81bd 1eab 993c
000001e0: ec0a baba 578f 0dbb c3b0 ebbd 82c1 043c
000001f0: 0d1d a5bd 12ab e9bd 4f6b c03d 232a 1f3d
00000200: 6d95 33bc 75e9 973c a791 f63d b842 dfbc
00000210: 96fb b43d 0598 5cbd 60e3 3d3b 0c4f f83d
00000220: e799 643d 498f a8bd 8876 95bd 938a fdbd
00000230: 2dd7 ae3d 8566 46bd fa5b e5bd 0cd9 1b3c
00000240: a099 563c 99d4 573c 2c02 afbd 7bc0 f03d
00000250: adde 0bbd 7b35 61bb 6d09 e0bd fc57 cc3d
00000260: 5ce3 16bd ca03 693d ed0e 8abd 1bee de3d
00000270: 21cf bb3d 461f abbd bfa9 ef3d 10ba c3bd
00000280: b5a3 3dbd 675e 133d ac73 013d 987f e33d
00000290: c102 24bd cbfb abbd 0a36 3c3d a731 6a3d
000002a0: 024a 003e 9e11 f2bd 665c 563d 3be5 e3bd
000002b0: 2a80 39bd df3c e23d 853e dabc c746 f4bd
000002c0: d523 d53d 17a8 343d b6a9 653d 5585 61bc
000002d0: 062e d3bd 3d97 89bd f26a b03c cebe 373d
000002e0: 9a11 f73d f820 c6bd 650d 82bd 3a1e 063c
000002f0: c823 bebd 1e33 bcbb 33dc a43d cfca 9abd
00000300: e2ee 2d3d 1ed8 9ebd 6784 94bc d088 82bd
00000310: 27c9 133b de54 e03c a7de 96bd 293a ecbd
00000320: 43d2 f43d 19a3 103c f23f b03d 0111 e5bd
00000330: 918c 73bc fe5b e53d 7daf 67bd 05ad edbd
00000340: cf55 0f3d cc5d b03d fa7d 44bd e301 62bd
00000350: 055c aebc c2e8 c3bc 38da dcbd b482 bd3d
00000360: b381 4cbd aef4 a63d 32db d63d 776a b43d
00000370: 0b65 243d c7e7 00bd c10a 24bd 9e6d 55bd
00000380: f6fa a7bc 802c 883c ffd4 22bd e416 13bd
00000390: d41e 6f3d 9b4a f4bd 552a ab3d 49fb 973d
000003a0: de5c cfbd 2c84 183d 43ce eebd 3b17 9fbc
000003b0: 1c69 a2bd 1e8f 60bd ad60 833d 35af 373c
000003c0: 702f e9bd 4536 58bd 4ce7 c83d db01 79bd
000003d0: 4ad4 573d f9f8 1abc 6236 f03d 1764 eb3d
000003e0: ab42 e73d e48e cd3b 8259 a2bd 0e66 a8bd
000003f0: f12f a5bd d349 edbc 9f75 673d 666e 343b
-0.11169853 -0.0460665 -0.08954557 -0.12399543 0.09584361 0.041592296 0.03591023 0.11630389
-0.051945716 0.06791373 0.12418642 0.09416565 -0.095418446 -0.05370024 0.07766924 0.04753784
-0.07236347 -0.08171644 -0.1003295 0.12048976 -0.0592251 0.11877835 0.0328153 0.06802752
-0.036035966 0.009132286 0.04772978 -0.10902229 0.107804954 0.036772545 0.05426372 0.04368623
-0.018881164 0.11817888 0.12298608 0.072374664 -0.09444452 -0.109483875 -0.07900146 -0.104624346
-0.098080575 -0.10609342 -0.09257485 -0.05479526 -0.016703816 -0.0664906 -0.0981851 -0.10172571
-0.07104759 0.041531995 0.06747251 0.042753533 0.06576886 0.12472644 -0.067175865 0.019134259
0.11618367 0.11360537 -0.102977246 0.12267394 -0.00252548 0.042139214 0.05012229 0.11619825
0.036820684 -0.08075594 0.037350193 0.024229601 0.066891015 -0.026070675 -0.121629946 -0.017260615
-0.12330546 0.039512727 0.098889776 -0.021878952 -0.037338126 0.016616803 0.0034168973 0.019008527
-0.0046598786 -0.09441171 -0.06340302 -0.011545857 0.08519258 0.05953345 0.07528895 -0.07716434
-0.029871786 -0.04666123 0.08907635 -0.123287626 0.06032708 -0.06338693 -0.11731409 -0.06596779
-0.09786109 0.0010341997 -0.05180656 0.0125087 -0.09858242 0.12460743 -0.024312267 -0.0951355
-0.07125221 0.029965917 -0.09729211 0.02497975 -0.049596176 0.054192416 0.06222123 -0.039237015
0.1208712 0.065575056 -0.10300723 -0.051339615 -0.018248072 -0.0209081 -0.06304239 0.018758353
-0.0014193929 -0.002160033 -0.11508324 0.0081027765 -0.080621816 -0.11409582 0.093954675 0.038858544
-0.010960919 0.018543938 0.120395 -0.027253494 0.08837049 -0.053855915 0.0028974637 0.12124452
0.055810835 -0.082304545 -0.07297999 -0.123799466 0.08537135 -0.048437614 -0.11199184 0.009512197
0.0130981505 0.013173246 -0.08545336 0.11755463 -0.034147907 -0.0034364152 -0.10939298 0.09977719
-0.03683792 0.05688838 -0.06741128 0.10885259 0.09170366 -0.08355574 0.117022984 -0.09556973
-0.0462987 0.0359787 0.031604454 0.11108321 -0.04004169 -0.08397635 0.045949973 0.05717626
0.12528232 -0.118197665 0.05233421 -0.111277066 -0.045288242 0.110467665 -0.02664114 -0.11927562
0.10407225 0.044105615 0.056070052 -0.013764699 -0.10311513 -0.067182995 0.02153537 0.0448597
0.12063904 -0.09674257 -0.06350211 0.0081859175 -0.092841685 -0.0057433983 0.08049812 -0.07558214
0.042464145 -0.07756065 -0.01812954 -0.06373751 0.0022550316 0.027384218 -0.07366686 -0.11534531
0.11954167 0.008827948 0.086059466 -0.11184884 -0.014865057 0.11199187 -0.056563843 -0.116052665
0.034993943 0.0861164 -0.047971703 -0.05517758 -0.021284113 -0.023914699 -0.107838094 0.09253445
-0.04992838 0.08152138 0.10491027 0.08809369 0.040135425 -0.03147104 -0.04004932 -0.052106492
-0.02050541 0.016622782 -0.03975391 -0.035910502 0.05837901 -0.11928292 0.083576836 0.07420976
-0.10125135 0.037235424 -0.11660435 -0.019420257 -0.07930204 -0.054823987 0.06414924 0.011211206
-0.11386001 -0.05278613 0.098097414 -0.060792785 0.05269269 -0.009458774 0.11729123 0.114937
0.11292013 0.0062731374 -0.079272285 -0.082225904 -0.08065785 -0.028965866 0.056508657 0.0027531623

lstm.weight_hh_l1 f4 [256, 64]
00000000: 5808 80bd c5b7 cb3d 111a f03d c7fc cbbd
00000010: b0c0 37bd d4ca 76bd 5f0a 5d3d e0c0 fbbd
00000020: 749c 6f3d 3ede 4a3d 06f3 a6bd 85e8 cbbc
00000030: 39b5 a9bc 3646 eebd e156 febc 1553 ecbd
00000040: aba8 2fbd d1cd 743d c8fb 363c fdaf 14bd
00000050: 98ad e7bd ba75 843c 8296 7a3c 135d f23d
00000060: eb81 c83d 24b0 73bc ce4a be3d 2d1f b2bd
00000070: 4e58 ccbd b9b5 bb3d 6909 64bb 95cc 9cbd
00000080: f06f eabc 76b5 c23c 9c00 7ebd 724f 47bc
00000090: bcd0 ef3d 0999 babb 3a0a c4bd 1499 1fbd
000000a0: 17c2 a4bb 5668 17bd f065 a2bd f438 9dbd
000000b0: d372 0f3d c610 053d 47b8 ed3d 8939 823c
000000c0: fa2d f9bd a93a 49bd 51f4 4c3d 5d8a b9bd
000000d0: b955 90bd 4d13 3d3d 5324 863b ebec f93d
000000e0: e4d7 f93d f2c1 38bd 93c8 a5bd ea0f d1bd
000000f0: 15f5 60bd a072 43bc eb8e cb3d f1b8 1ebd
00000100: 021a b6bd 96cc f6bd 12d4 cebd 21af 9ebd
00000110: 6218 813d ba11 d6bd cb1e 843d 7baa b43d
00000120: bbe6 ba3d 2652 733d 5047 e73d 1463 a0bd
00000130: 14db d83d 76d9 133d d6c3 1bbd 60a8 f7bb
00000140: 07e8 ea3c 8b66 c23d c0d8 c7bd 2e95 dbbc
00000150: 8b8e ba3c 677a 0a3d 6d60 0f3d 7d59 c63d
00000160: 7e88 f7bd 2984 c9bd f857 dbbd 8c1a 983d
00000170: 7505 ca3d 9c75 f63c f2bd 393d f977 e9bd
00000180: 5a48 673d 8b53 cfbd 78e4 e1bb d973 153c
00000190: 4c67 6ebc 0408 1c3c 7e75 e83b f47f 013b
000001a0: 1ce8 273c 048b d1bd 0cae 00bd 32b0 673d
000001b0: 531c 373d 724e f4bd f65d bdbc e159 853d
000001c0: ad20 fcbd 423b 913d 1ea5 7abd 0018 ec3d
000001d0: b045 39bd 5b9e 7f3d 650b 72bb 2dfb 493d
000001e0: d82c dc3c 95d3 b1bd c72d 723d d400 79bd
000001f0: a8f2 dcbc 50d9 473d 26ad d2bd 3199 903d
00000200: 6834 873d 65b1 9cbd 15cf 6a3d 149b 4bbd
00000210: 2500 ec3d c08d 43bd 4a05 c93c a6d0 03bd
00000220: f86e d6bc f4fc 813d d45f 903d 4c01 183d
00000230: 6d08 b33c 6150 c7bd 1bcd 8cbd 89eb 87bd
00000240: 68d3 bbbc cb25 bc3c 6a06 853d 85c7 92bd
00000250: 40cb d1bd e757 f8bd b7e3 34bc 076c 9f3d
00000260: e6c2 683d 2200 00be fd41 e1bd c63c 43bc
00000270: ba9a 53bd 1c34 a8bd 6e59 8fbd 5617 1d3b
00000280: 004e 9a3c 78a5 8f3d b0e2 b7bd ddb6 e9bb
00000290: 9095 90bd 5401 013e c9d9 1a3d fe31 31ba
000002a0: c4fc 563d 1316 fabd fd77 e13d abca b8bd
000002b0: e339 e13c 7a50 7c3d f143 d43d 0069 a8bd
000002c0: bd56 f13c 0913 64bd 9777 963d a6e6 8b3d
000002d0: b887 b33d 536e da3d eedc e3bd 3f34 a9bc
000002e0: ce77 493d 01ed 2abc b8a3 84bd 1543 f9bd
000002f0: 9507 d8bd 3db5 d43b 1ca2 9dbd 1d2c abbd
00000300: 03fb c43b cb46 99bd 2a35 953d 55b2 3ebd
00000310: 69bc f3bd f89a 763c 2e20 09bc 1a49 363a
00000320: 14eb 763d 0090 96bd 0c82 d8bd eefa 9e3d
00000330: 21c0 edbd edd3 1ebd 9fdc 3dbc 76b6 e03c
00000340: b05f 8ebd 7c7b dc3b f31d 00bc 0bc3 71bd
00000350: 340e fdbd e546 4b3d 2fb1 833d 32cd c93d
00000360: c0e5 61bd 353f 8bbc c115 583c 3e10 0ebd
00000370: 7111 8dbd 36e9 56bd 392b b83d 8e68 213d
00000380: f4ee b93c b64f 4e3d 0fd2 71bd 71df 69bd
00000390: 964c 253d 349e a9bd 8c27 d4bc f0f8 b13d
000003a0: c18c 9b3d 0c8e 92bc 340c af3b a97c a9bd
000003b0: 0d6f 08bd 8c72 f53b f343 f33d fb4a c03d
000003c0: 3e82 3cbd 0f67 2e3c d1eb ee3c 9978 253c
000003d0: 2c9d 83bc 4995 27bd 4c66 bf3d 668e ee3d
000003e0: f36f 91bd e477 f93d 7506 ab3d d012 fc3d
000003f0: 7bf7 fa3d 9004 88bd e784 bc3d 038c c23c
-0.062515914 0.09947161 0.11723722 -0.09960323 -0.044861495 -0.060252026 0.05396497 -0.12292647
0.058498815 0.049528353 -0.08151822 -0.024891147 -0.020716297 -0.116344854 -0.031047286 -0.11539284
-0.042885464 0.059766594 0.011168428 -0.036300648 -0.11312407 0.016169418 0.015294673 0.11834159
0.09790405 -0.014873538 0.092916116 -0.086973526 -0.0997778 0.0916552 -0.0034795648 -0.076562084
-0.02861783 0.023768168 -0.0620123 -0.012164937 0.11709735 -0.0056945127 -0.09572263 -0.038964346
-0.00502802 -0.036964737 -0.07929599 -0.076768786 0.035021614 0.0324867 0.11607414 0.015896576
-0.121669725 -0.04912821 0.050037686 -0.09059594 -0.070476 0.046160985 0.0040936857 0.12203392
0.12199381 -0.045106836 -0.08094897 -0.102081135 -0.05492123 -0.011929184 0.09939369 -0.038750593
-0.08891679 -0.120507404 -0.10099043 -0.07748247 0.06303479 -0.104526 0.06451186 0.08821579
0.091260396 0.059404515 0.11292899 -0.07831398 0.10588661 0.03609606 -0.03802856 -0.0075579137
0.028675092 0.09492215 -0.09758139 -0.026804533 0.022773048 0.03380814 0.03500407 0.09685037
-0.12086581 -0.09839661 -0.10710138 0.074269384 0.09864322 0.030085377 0.04534716 -0.11399836
0.056465484 -0.101233564 -0.0068936907 0.0091218585 -0.014550995 0.009523395 0.0070940843 0.0019760104
0.01024821 -0.10231593 -0.031415984 0.056564517 0.044704746 -0.11929025 -0.023116093 0.06511284
-0.1231092 0.07091381 -0.061192624 0.11528015 -0.045232475 0.06240688 -0.0036933061 0.049311806
0.026876852 -0.08682934 0.059125688 -0.060791805 -0.026971176 0.04879123 -0.10286932 0.07060469
0.066017926 -0.07651023 0.057326395 -0.04970844 0.11523465 -0.047742605 0.024538655 -0.032181405
-0.02617596 0.06347075 0.07049528 0.03711061 0.021854604 -0.09732128 -0.06875058 -0.06636722
-0.022927955 0.02296724 0.06495364 -0.071669616 -0.10243845 -0.12126141 -0.01104062 0.077842765
0.056826495 -0.1250005 -0.109989144 -0.011916345 -0.05166123 -0.08213064 -0.06999479 0.0023970208
0.018836021 0.070139825 -0.08978784 -0.0071323947 -0.07059777 0.12598163 0.037805352 -0.00067594636
0.05248715 -0.122112416 0.11009214 -0.09023031 0.027493423 0.061600186 0.10364521 -0.08223152
0.029460305 -0.055682216 0.07347029 0.06831102 0.08766121 0.10665574 -0.11126123 -0.020654796
0.04918652 -0.010432483 -0.064765394 -0.12170998 -0.10548321 0.006491332 -0.076969355 -0.08358023
0.0060113682 -0.07484206 0.07285531 -0.04655679 -0.11901171 0.015051596 -0.008369489 0.0006953642
0.06028278 -0.073516846 -0.105716795 0.07762705 -0.11608911 -0.038776327 -0.011588245 0.027430754
-0.06951845 0.0067285877 -0.00781964 -0.059023898 -0.12356225 0.049628157 0.064302795 0.09853591
-0.055150747 -0.016997913 0.01318878 -0.03468346 -0.06888092 -0.0524685 0.08992619 0.03940635
0.02269695 0.050368987 -0.059038218 -0.057097856 0.04035624 -0.08282128 -0.025897764 0.08690059
0.07595206 -0.017889999 0.005342031 -0.0827573 -0.03330903 0.0074904617 0.11878195 0.093893014
-0.046022646 0.010644688 0.02916518 0.0100995535 -0.016066156 -0.040913854 0.093456835 0.11648254
-0.07101431 0.121810704 0.08350841 0.12308276 0.122542344 -0.06641495 0.092050366 0.023748403

lstm.bias_ih_l1 f4 [256]
00000000: 4bb2 c2bd c980 b13c 5771 7d3c 4b20 66bc
00000010: 94bd 703d e100 fbbd f15e 28bd 0f91 813c
00000020: 03e1 4a3d 135e 773c 30f9 233d c7dd 26bd
00000030: c34d 853d 10f7 aebc c420 5ebd 25f9 023d
00000040: 545b 603c 7e23 693d 0975 e73c 44b2 d9b8
00000050: 01b0 4abd 3f8c d3bd d6a2 8bbc 83ee de3d
00000060: c91b e7bd 644e a23d 0639 c43b 4b80 46bd
00000070: a0df e83d 49df 023d b88d 55bb 9171 f23d
00000080: 37c4 c13d 91d1 ae3c 1fce 4e3d df0f cd3c
00000090: 7ed9 23bb b6ba 613d 8fc5 f83d 964b 653d
000000a0: 290b 48b8 541c 85ba eeca bebd b04b eabb
000000b0: 46cd 5a3c ae7e 003e 582a 9d3d 03aa b03d
000000c0: 45f8 0ebd 9843 633d 11df cd3d ec5e 493d
000000d0: 9082 ac3c 37b2 0cbc 3b75 223d 26cf 8fbc
000000e0: 5cf1 d6bd b52b 91bd 833e e43d d12e 2a3d
000000f0: 6e92 a7bd 6793 903d 10ec 8dbd e44c e73d
00000100: d1ac 723a 8882 c6bd 2e84 163c 6bae b93d
00000110: 6e1e 96bd e003 6d39 f520 f93d 56c9 24bd
00000120: ba25 8d3d ef4d a33d e71a 76bb 99c1 e5bd
00000130: ea1a 9a3d 05cd dc3d ded2 67bd 33d4 b53d
00000140: 7ff8 813d 9277 5cbd 288c e3bd cf5f b03d
00000150: 86ba b5bd 610e f1bc c3b2 4f3d df2f f6bb
00000160: 4922 b7bd 4d48 83bd c13e 103d 63ed c83d
00000170: 579a cfbd a41f ba3b fdd3 abbd f030 87bd
00000180: 07d1 0dbc 6698 85bc 24a2 c33d d46c 823d
00000190: 3ff5 2fbd 9979 bb3d fa70 973d e592 b53b
000001a0: c08d ad3d 4671 a9bd 23bf 24bd 4224 b03d
000001b0: c6db 523d 17bf f1bd 7904 f93a 5f10 d5bc
000001c0: 44ea a3bd 04d9 813b 1eab 493d 8c3e 24bd
000001d0: 5385 9f3c e578 bbbd 5091 863c 67a8 8a3d
000001e0: 61d0 f6bd 392e 253d d007 00be c6c3 21bd
000001f0: 80d0 213d 3775 c63c 50ee c8bb 2069 7cbb
00000200: 8bae dd3d 8e23 cfbc 8c65 72bd 19f6 243d
00000210: ed55 87bd 3bbc b0bd 071a a13d 437d 1fbd
00000220: 9343 f3bd 6f6c bcbd 3218 f8bd 0021 f53d
00000230: ac4d a23d eda0 a43d 3b22 363c 4573 6c3d
00000240: 91f8 a4bd ed5e f93d 0c94 8abd d1a4 9f3d
00000250: f37e d33d 4938 8d3d 8103 133c b25a ca3d
00000260: 9dbc 363d 9d05 7c3d 50ae c83d cf31 aabd
00000270: 2779 26bd 99f3 66bd d20c dcbc 488e f9bd
00000280: b6aa 60bc f37d f7bd d9a8 b53d ccfa 0d3a
00000290: 7356 f3bc 5aab b2bd b8f4 85bd 37ca c53d
000002a0: 7bcc aa3d e7e6 d23b da7c a83d b12e 793d
000002b0: 6620 4b3d 13da be3d 5dd7 2d3d 047d f4bd
000002c0: 01b8 e63d f858 c63d 1815 703d f281 66bc
000002d0: 8c39 e23d 128a ca3d e12f d83d 1fc5 313d
000002e0: f6ce aa3d 0754 8abc 5990 ce3d 44d6 273d
000002f0: aff0 f73c e9ea 8cbd 6aeb 7c3d 6c93 e03d
00000300: 0f61 e03d fe3c f7bd 9774 f23d 8797 a2bd
00000310: 9da8 bdbd 46cc edbc 7cdf 60bd a7b8 443d
00000320: 0a8e cbbd 0594 e43d 9f8d d0bd 0ade 713d
00000330: 4cb3 563b 4e40 00bd 52dd e0bc 5b26 853d
00000340: a2ef c13d b757 9b3c 585f be3d 660e de3b
00000350: fe53 ccbd 5785 20bd c792 c13d dfe6 09bd
00000360: f8f9 313d 6ce6 ea3c 89ae abba 5086 38bc
00000370: 2432 a6bd e6c7 0a3d 67c8 a1bd d7a5 cdbd
00000380: c2b0 f8bd c5c3 eb3c f017 773d 4ef4 37bd
00000390: e9a4 273a e29a c6bd d420 a5bb 8ef2 843c
000003a0: f0c1 82bd 7570 9b3c abd8 d4bd 7aa3 98bb
000003b0: 3b9f ca3d 9173 61bd 1907 78bd 8ae9 01bd
000003c0: e5cf f5bd 5f49 97bd 8ae8 aebd 6562 9a3d
000003d0: 15e7 5b3d fc8e bd3d 88c0 403d c529 463d
000003e0: 6c11 e33d 807d c93d 0c0c d8bd 86d9 d13d
000003f0: 78ca ac3d 80dc 6cba 2ddc cd3d 527c 153c
-0.09506663 0.021667855 0.015468917 -0.014045785 0.058774546 -0.12256027 -0.04110617 0.01581624
0.049530994 0.015098113 0.040032566 -0.040738847 0.065089725 -0.021358043 -0.054230466 0.031975884
0.013693649 0.056918614 0.028254049 -0.00010380571 -0.049484257 -0.10329484 -0.01704542 0.10885336
-0.112845965 0.07925108 0.005988243 -0.048462193 0.11370778 0.031951223 -0.0032585692 0.11838067
0.09461253 0.021340163 0.05048954 0.025031982 -0.0025001462 0.055109702 0.12147056 0.055980287
-4.769411e-05 -0.0010155537 -0.093160495 -0.007150136 0.013354605 0.12548324 0.07674092 0.08626177
-0.034904737 0.055484384 0.10052312 0.04916279 0.02105835 -0.008587412 0.03966258 -0.01755483
-0.104952544 -0.070884146 0.11144736 0.041548554 -0.08182226 0.07059365 -0.06929791 0.112939626
0.0009257319 -0.096928656 0.0091867875 0.09066471 -0.07330023 0.00022603525 0.12164489 -0.04023107
0.068919614 0.07973849 -0.0037552656 -0.112185664 0.07524665 0.10781292 -0.056597583 0.088783644
0.06346225 -0.05382497 -0.11110717 0.08612024 -0.08873467 -0.029425802 0.05070759 -0.007513031
-0.08942086 -0.06410275 0.035216097 0.09810903 -0.1013686 0.0056800414 -0.08390043 -0.06601131
-0.008655793 -0.01630802 0.0955241 0.063684136 -0.042958494 0.09154052 0.073945954 0.005541193
0.08474302 -0.08273558 -0.040221345 0.08600666 0.051479124 -0.118040256 0.0018998525 -0.026008783
-0.08003667 0.003962638 0.049235456 -0.04009871 0.019472754 -0.09153918 0.016426712 0.067704014
-0.12051464 0.040327284 -0.1250298 -0.039493345 0.03950548 0.024225814 -0.0061319247 -0.0038514808
0.10824307 -0.025285508 -0.059178874 0.04027376 -0.06608186 -0.08629652 0.078662924 -0.03893782
-0.11878123 -0.092003696 -0.1211399 0.11969185 0.07924971 0.08038507 0.01111656 0.057727117
-0.08055223 0.12176309 -0.06766519 0.07795108 0.10326948 0.06895501 0.008973003 0.0988058
0.04461347 0.06152879 0.097988725 -0.083102815 -0.040642884 -0.056384657 -0.026861582 -0.12185341
-0.013712576 -0.1208457 0.08870096 0.0005416095 -0.029704308 -0.08724089 -0.06540817 0.0965771
0.08339783 0.006436217 0.082269385 0.060835544 0.049591444 0.09318938 0.042441715 -0.11937907
0.11265565 0.09684938 0.058613867 -0.014069067 0.110461324 0.09889616 0.10556007 0.04340088
0.08340256 -0.01688577 0.10086126 0.040975824 0.030266134 -0.06880743 0.061747946 0.109656185
0.109560125 -0.1207218 0.11838644 -0.07939058 -0.09260676 -0.02902807 -0.05490063 0.04802766
-0.09939201 0.11161045 -0.10183262 0.059049644 0.0032760678 -0.031311326 -0.027449284 0.06501456
0.094695345 0.018962724 0.09295529 0.006776619 -0.09976958 -0.039189663 0.09451824 -0.03366744
0.04345128 0.028674327 -0.001309828 -0.011262491 -0.08115032 0.033882044 -0.07899552 -0.10041397
-0.12143089 0.028779874 0.060325563 -0.04491072 0.0006395118 -0.0969751 -0.005039314 0.01622894
-0.06384647 0.018974522 -0.10392889 -0.00465816 0.09893652 -0.055041853 -0.060553644 -0.03171686
-0.12002543 -0.07387041 -0.08540447 0.075382985 0.053687174 0.09255788 0.047058612 0.04837968
0.11087307 0.0983839 -0.10549173 0.102465674 0.08437055 -0.00090355426 0.10051761 0.009123879
