Personal/DACON/데이터·AI를 활용한 물가 예측 경진대회  농산물 가격을 중심으로/models/best_model_배추.pth (torch, 292600 bytes, 10 tensors)

lstm.weight_ih_l0 f4 [256, 86]
-0.022396246 0.039079566 -0.117504805 0.028469699 0.09916155 -0.097624145 0.03955986 0.06017961
0.06927203 -0.108832926 0.07367778 0.059129667 0.04597114 -0.06834703 0.07801362 -0.046863418
-0.12209213 -0.10745873 -0.11845936 0.08937786 0.012688279 -0.11714199 -0.066025406 -0.04092364
-0.04267702 0.03152949 -0.10899651 -0.038760528 0.0435148 -0.033249747 -0.035717815 0.079500794
0.12034245 0.042094067 0.09816232 -0.00847403 -0.11708677 -0.08272438 -0.07319826 0.0856008
0.077812314 -0.031040436 -0.07805784 -0.10237417 -0.115595154 0.026795536 0.025459215 0.05255319
0.099734776 -0.024351887 0.021306798 -0.045079295 0.10596031 -0.10536936 0.07912797 0.0659349
-0.035544056 -0.10376623 0.090153076 -0.09734617 0.085561804 0.018734183 0.07634546 -0.11315036
0.08521485 0.1106135 0.10977063 0.023770275 0.06848842 0.008689374 0.053953387 0.06761792
0.07212167 0.04527678 -0.093491465 -0.08702348 -0.06889581 0.007445754 -0.05359712 0.013955954
0.09098746 0.0462959 0.11461925 -0.035125572 0.0015390515 -0.1256563 0.122764364 -0.016290056
0.08226394 0.12384933 0.08194651 -0.099477895 0.09444114 -0.009741298 0.040381193 -0.03043509
-0.1041407 0.030802146 -0.055599272 -0.07316287 0.03271315 -0.007766958 -0.054255232 0.08752493
-0.00037893653 0.010924042 -0.09643148 0.077866204 -0.07155022 -0.103109755 -0.020135213 0.10282332
0.10511352 -0.010555898 0.056791507 0.054233328 0.0015289187 -0.10147706 -0.10588789 0.019286253
0.08981998 -0.06680944 0.04156854 0.03975648 -0.06930525 0.113999404 0.09759783 0.10522123
-0.108449325 -0.015435084 -0.018332431 0.0015179882 0.013386756 0.09340037 -0.009065771 -0.028604891
0.06434732 0.094183594 0.09087383 0.08867676 0.06117311 0.018655667 0.09902935 0.08308304
0.100342885 -0.08592208 0.088114716 -0.09215232 0.08971608 0.10609506 0.08778992 -0.06574261
0.078835145 0.12121271 0.075630024 0.095944196 -0.062044363 0.054525804 -0.04543646 -0.047898263
-0.06277621 0.05970424 -0.043327868 0.026008476 0.029728629 -0.06276369 -0.09116575 -0.078336835
0.07311753 0.010392872 -0.04523547 -0.101766005 -0.030471273 -0.1121214 0.043595422 -0.11114448
-0.08416106 -0.062054396 -0.08870698 -0.04437123 0.007354804 -0.12540816 0.06895305 0.07149575
0.036773473 0.07457001 0.07640974 0.023676056 0.031363934 0.089206606 0.108749315 0.09297745
-0.0032744706 -0.022333816 -0.04745941 0.06761439 -0.09719086 0.07444661 0.12292201 -0.054493833
-0.020197032 0.027227204 -0.059635147 0.06970653 -0.024568625 0.072558075 -0.029847031 0.113100566
0.09255011 -0.079028785 -0.114127755 0.078936726 -0.03052005 0.108757965 0.12413767 -0.016720742
0.00010751346 0.014337389 0.059279263 0.10515097 -0.06407789 -0.011344398 0.087060235 -0.07500666
-0.10194603 0.04285356 -0.060607944 0.022192739 0.049814664 -0.07079405 -0.077743076 0.0640953
0.10393087 -0.0425252 -0.021512857 0.122901455 0.01862902 -0.032886498 -0.022784391 0.04767441
-0.07026738 -0.006468414 0.04739687 0.076262794 0.06759997 0.10484583 0.09952076 0.013964832
0.062199984 0.0057933005 -0.059678648 -0.0902477 0.050653853 0.09887333 -0.011248279 -0.06352235
00000000: 5578 b7bc e511 203d 5ca6 f0bd 4939 e93c
00000010: 3615 cb3d 2bef c7bd 8509 223d e57e 763d
00000020: 7ede 8d3d cce3 debd 60e4 963d f331 723d
00000030: 3c4c 3c3d 87f9 8bbd 9bc5 9f3d dbf3 3fbd
00000040: 700b fabd 5313 dcbd d29a f2bd bd0b b73d
00000050: 80e2 4f3c 24e8 efbd 5438 87bd 8c9f 27bd
00000060: 19ce 2ebd 1125 013d 9039 dfbd 5cc3 1ebd
00000070: 933c 323d e330 08bd d84c 12bd 50d1 a23d
00000080: 1a76 f63d d46a 2c3d 5409 c93d a8d6 0abc
00000090: 30cb efbd 666b a9bd f8e8 95bd 794f af3d
000000a0: 105c 9f3d 8348 febc cadc 9fbd 8da9 d1bd
000000b0: 27bd ecbd 5082 db3c d88f d03c 0442 573d
000000c0: bf41 cc3d 9c7d c7bc 988b ae3c 11a5 38bd
000000d0: b801 d93d e4cb d7bd d80d a23d e008 873d
000000e0: a596 11bd 6483 d4bd 2da2 b83d 6e5d c7bd
000000f0: 073b af3d 6e78 993c 025b 9c3d 60bb e7bd
00000100: 2085 ae3d 5589 e23d 6dcf e03d e1b9 c23c
00000110: a843 8c3d e05d 0e3c 3afe 5c3d 447b 8a3d
00000120: 87b4 933d 2574 393d 7478 bfbd 5e39 b2bd
00000130: 3f19 8dbd 83fb f33b a788 5bbd 84a7 643c
00000140: a257 ba3d c5a0 3d3d 7fbd ea3d d5df 0fbd
00000150: 00ba c93a 0cac 00be e26b fb3d b972 85bc
00000160: ff79 a83d b8a4 fd3d 92d3 a73d 11bb cbbd
00000170: 5b6a c13d f799 1fbc c066 253d 0353 f9bc
00000180: b847 d5bd c854 fc3c 10bc 63bd 6ad6 95bd
00000190: 39fe 053d f781 febb bc3a 5ebd 4540 b33d
000001a0: 00ac c6b9 c1fa 323c de7d c5bd 5178 9f3d
000001b0: ec88 92bd 352b d3bd 9af2 a4bc 0895 d23d
000001c0: c245 d73d a5f2 2cbc 369e 683d c423 5e3d
000001d0: 0066 c83a 34d3 cfbd c0db d8bd 34fe 9d3c
000001e0: 8af3 b73d 63d3 88bd c643 2a3d b1d7 223d
000001f0: e9ef 8dbd 8578 e93d 5fe1 c73d 3a7e d73d
00000200: ae1a debd 6fe3 7cbc e52d 96bc 3bf7 c63a
00000210: 2054 5b3c b148 bf3d 9988 14bc ce54 eabc
00000220: 87c8 833d 54e3 c03d 0f1c ba3d 299c b53d
00000230: a890 7a3d c5d3 983c e6cf ca3d 7127 aa3d
00000240: 9280 cd3d eaf7 afbd 7d75 b43d 5bba bcbd
00000250: 10bd b73d 5e48 d93d 34cb b33d 10a4 86bd
00000260: 5274 a13d 5f3e f83d eae3 9a3d 647e c43d
00000270: 3b22 7ebd 7356 5f3d 951b 3abd f830 44bd
00000280: d090 80bd 6f8c 743d 9078 31bd ba0f d53c
00000290: 7489 f33c 408a 80bd 1cb5 babd 106f a0bd
000002a0: a5be 953d dd46 2a3c d448 39bd b26a d0bd
000002b0: e49e f9bc e89f e5bd 1d91 323d b89f e3bd
000002c0: a25c acbd c02c 7ebd 01ac b5bd 9bbe 35bd
000002d0: 9100 f13b ff6a 00be 4237 8d3d 5d6c 923d
000002e0: c89f 163d 29b8 983d b67c 9c3d 4af4 c13c
000002f0: 7877 003d f4b1 b63d f6b7 de3d f66a be3d
00000300: 8098 56bb 68f5 b6bc cc64 42bd 6a79 8a3d
00000310: 000c c7bd 7777 983d 89be fb3d ed34 5fbd
00000320: 3f74 a5bc 960b df3c fc43 74bd 4cc2 8e3d
00000330: 2444 c9bc 5499 943d c381 f4bc 45a1 e73d
00000340: e98a bd3d d8d9 a1bd d0bb e9bd 94a9 a13d
00000350: 2f05 fabc 7fbc de3d e43b fe3d f0f9 88bc
00000360: d978 e138 5ee7 6a3c d0ce 723d 6459 d73d
00000370: 453b 83bd dbdd 39bc a34c b23d 179d 99bd
00000380: 15c9 d0bd 3787 2f3d 0940 78bd 8ccd b53c
00000390: 760a 4c3d 79fc 90bd c337 9fbd 6644 833d
000003a0: b5d9 d43d e72e 2ebd bb3b b0bc c2b3 fb3d
000003b0: e39b 983c feb3 06bd 55a6 babc 3e46 433d
000003c0: 58e8 8fbd fdf4 d3bb 3823 423d ab2f 9c3d
000003d0: da71 8a3d 69b9 d63d 8ad1 cb3d c0cc 643c
000003e0: 69c5 7e3d bad5 bd3b 9971 74bd c9d3 b8bd
000003f0: 6a7a 4f3d 1a7e ca3d b44a 38bc 0118 82bd

lstm.weight_hh_l0 f4 [256, 64]
-0.10861645 -0.021279767 -0.015073748 0.055095643 0.03931115 -0.09036636 -0.10049951 0.009007336
-0.062417865 -0.063433945 0.12040314 -0.07260212 -0.09653337 -0.06568556 -0.055638686 0.123851955
-0.120473534 -0.062857196 -0.025809763 -0.11857952 -0.08298014 -0.05940041 0.12109901 -0.00072398037
0.0003152861 -0.054045685 -0.11257914 -0.035160184 0.014916475 0.05119074 -0.11894616 -0.041086443
0.031300247 -0.04219433 -0.11341609 0.037770055 0.04814937 -0.06861128 0.06612239 0.07312601
0.07183839 -0.08694358 0.008500341 -0.051106203 -0.095721506 0.009307524 -0.013582314 0.030101465
-0.02269531 -0.035027076 -0.0020688276 0.0203483 0.065990485 0.028304476 0.10440794 -0.08084526
0.06725195 0.07147991 0.0640557 0.063305125 -0.01701579 0.076802924 -0.06872175 -0.03552651
-0.11272284 0.11338835 -0.018367453 0.018747263 -0.04751832 0.1149447 0.043025777 0.05061409
-0.060569074 -0.11870633 0.019823974 0.08575059 0.05675878 -0.061227493 -0.11971081 0.037894674
-0.08051752 0.110663645 0.048767377 0.041296583 -0.10164098 0.112715036 -0.04434269 -0.03614525
0.11305901 -0.015179202 0.00044496942 0.05062965 -0.0072651943 0.022477321 0.02043877 -0.029106839
-0.02192712 -0.051579736 -0.001597093 0.10219601 -0.0684609 0.049276054 0.06173088 0.017991653
-0.0348834 0.103446394 -0.1111341 0.119801685 -0.06226702 0.0014125861 -0.074567534 0.015300519
0.016306669 0.06857643 0.03883385 -0.050331756 -0.107236795 0.032697115 -0.075031795 -0.11695056
0.0021361366 0.095678166 -0.08813762 0.076021686 0.07390831 0.10113349 0.03397326 0.11226628
0.015686667 0.07211818 0.07633679 0.08144106 -0.04897961 0.11168225 -0.109600484 0.022201523
-0.009528832 0.09206368 0.011044354 -0.09645286 0.042987112 0.11977623 -0.071809776 0.086538196
-0.03916224 -0.009424594 -0.03668099 -0.067689374 0.06385938 -0.03330434 -0.09906183 -0.07276051
0.060474824 0.018136239 0.00094845943 -0.109802835 0.09307646 -0.027057065 0.113739535 0.07734919
0.07253141 0.06668386 0.07449698 0.06193072 0.09483512 -0.05259149 -0.08331241 -0.09202133
-0.08894786 -0.07048423 -0.094651565 -0.011637685 -0.049070276 -0.08583156 -0.06337169 -0.086015604
0.120678104 -0.11980312 -0.011535923 -0.0017706894 0.097049214 -0.0920918 -0.03789214 0.12556534
-0.0019779645 0.0700641 0.088653915 0.02208474 -0.09821287 0.025082132 0.009139457 0.116723485
-0.092459135 0.09657964 -0.012755528 -0.021749333 0.10990408 0.0061915386 0.023605801 -0.040743183
-0.100670345 0.09147407 -0.046494275 -0.05893881 0.033718165 0.040600296 0.11021367 -0.08568687
-0.0009738349 0.093500674 0.027616894 0.089428745 0.052604277 -0.036231373 0.10561693 0.0056717712
-0.104659475 -0.12174814 0.096666634 -0.044997826 0.023817971 0.110933304 -0.00080459873 0.095989145
-0.051945332 0.0076042013 -0.042120043 -0.02874815 -0.0136324 -0.12441787 -0.10640459 0.028456409
-0.06231239 -0.008082892 -0.044677738 0.05457847 0.09175674 0.10447061 -0.01516298 -0.10297082
-0.0012033025 -0.08473792 -0.02394047 -0.055881105 0.051880278 0.083373755 -0.02554986 -0.032308973
0.054787997 -0.003130344 0.1130992 -0.02929778 0.011138187 -0.071142614 -0.06276665 -0.1057919
00000000: 4d72 debd e852 aebc e2f7 76bc f8ab 613d
00000010: ba04 213d 0012 b9bd b0d2 cdbd 8193 133c
00000020: e0a9 7fbd a8e9 81bd ec95 f63d 6cb0 94bd
00000030: 4ab3 c5bd 2786 86bd 64e5 63bd 18a6 fd3d
00000040: d4ba f6bd 46bb 80bd ff6e d3bc d2d9 f2bd
00000050: 7ef1 a9bd d84d 73bd c202 f83d 80c9 3dba
00000060: fc4c a539 025f 5dbd e48f e6bd 2004 10bd
00000070: 3b64 743c 62ad 513d 0b9a f3bd 424a 28bd
00000080: b034 003d f6d3 2cbd b246 e8bd c6b4 1a3d
00000090: 4638 453d 1284 8cbd 2d6b 873d 17c3 953d
000000a0: 0120 933d 7a0f b2bd 0445 0b3c bd54 51bd
000000b0: a309 c4bd 967e 183c 5b88 5ebc 5997 f63c
000000c0: 84eb b9bc 8d78 0fbd 2b95 07bb 7ab1 a63c
000000d0: 0526 873d cade e73c d4d3 d53d 3392 a5bd
000000e0: 64bb 893d 0f64 923d a32f 833d 1ea6 813d
000000f0: b364 8bbc da4a 9d3d fdbd 8cbd 3f84 11bd
00000100: 3bdb e6bd 2738 e83d 5777 96bc dc93 993c
00000110: 92a2 42bd 2068 eb3d cc3b 303d b850 4f3d
00000120: 4717 78bd 4e1c f3bd e365 a23c 019e af3d
00000130: e57b 683d aec9 7abd f12a f5bd 7237 1b3d
00000140: 5fe6 a4bd 9fa3 e23d 4dc0 473d 9b26 293d
00000150: 2529 d0bd 24d7 e63d aea0 35bd 0b0d 14bd
00000160: 7b8b e73d 30b2 78bc c94a e939 0961 4f3d
00000170: de10 eebb 5c22 b83c 356f a73c 7771 eebc
00000180: 81a0 b3bc 4645 53bd 8c55 d1ba 244c d13d
00000190: 3a35 8cbd b0d5 493d 85d9 7c3d 3b63 933c
000001a0: e5e1 0ebd b4db d33d 469a e3bd 965a f53d
000001b0: b40b 7fbd 8626 b93a ddb6 98bd 07af 7a3c
000001c0: 9095 853c cd71 8c3d 3e10 1f3d ac28 4ebd
000001d0: f79e dbbd 69ed 053d 45aa 99bd c683 efbd
000001e0: 6dfe 0b3b eaf2 c33d 7f81 b4bd 42b1 9b3d
000001f0: 3d5d 973d 131f cf3d 8c27 0b3d ddeb e53d
00000200: 5381 803c b2b2 933d 7756 9c3d 92ca a63d
00000210: d89e 48bd aab9 e43d 3876 e0bd f8df b53c
00000220: d11e 1cbc e28b bc3d 61f3 343c 1489 c5bd
00000230: 4113 303d 3d4d f53d 0111 93bd f03a b13d
00000240: 9668 20bd 9d69 1abc ce3e 16bd baa0 8abd
00000250: b5c8 823d 226a 08bd eee0 cabd 7603 95bd
00000260: 73b4 773d 7392 943c 09a2 783a 4fe0 e0bd
00000270: df9e be3d c7a6 ddbc 46f0 e83d 4169 9e3d
00000280: 598b 943d 8c91 883d df91 983d 11ab 7d3d
00000290: ea38 c23d 2d6a 57bd b29f aabd ae75 bcbd
000002a0: 4c2a b6bd 095a 90bd aed8 c1bd fdab 3ebc
000002b0: eafd 48bd 75c8 afbd 04c9 81bd f328 b0bd
000002c0: 1526 f73d 575b f5bd 2b01 3dbc 7a16 e8ba
000002d0: bdc1 c63d a09a bcbd ca34 1bbd 3394 003e
000002e0: bda0 01bb c47d 8f3d 2f90 b53d 0feb b43c
000002f0: d423 c9bd 0b79 cd3c a9bd 153c b90c ef3d
00000300: 375b bdbd 8ccb c53d 90fc 50bc a82b b2bc
00000310: 6415 e13d 64e2 ca3b f460 c13c 53e2 26bd
00000320: 412c cebd c256 bb3d c870 3ebd d269 71bd
00000330: 0f1c 0a3d 7f4c 263d b4b7 e13d 997c afbd
00000340: f448 7fba 487d bf3d d33c e23c 6b26 b73d
00000350: 9577 573d 5967 14bd b04d d83d 44da b93b
00000360: b557 d6bd 1757 f9bd 28f9 c53d a44f 38bd
00000370: e81d c33c 0031 e33d b5eb 52ba f595 c43d
00000380: a1c4 54bd aa2c f93b 1186 2cbd 3e81 ebbc
00000390: 6e5a 5fbc ccce febd a6ea d9bd 6a1d e93c
000003a0: 473b 7fbd 1b6e 04bc 0100 37bd ac8d 5f3d
000003b0: f5ea bb3d b0f4 d53d 266e 78bc 5ee2 d2bd
000003c0: 22b8 9dba 138b adbd ce1e c4bc 96e3 64bd
000003d0: 6a80 543d dcbf aa3d f14d d1bc 6a56 04bd
000003e0: 6169 603d 7526 4dbb 8ea0 e73d e601 f0bc
000003f0: f17c 363c 38b3 91bd cd8b 80bd 6ca9 d8bd

lstm.bias_ih_l0 f4 [256]
0.045296133 -0.11621356 0.050292134 0.008865021 -0.111777656 0.10950847 -0.0096895015 0.033740707
0.096203856 0.06857959 0.1008938 0.036164254 -0.078514494 -0.108038306 0.02385223 -0.006499562
-0.08585679 -0.034597214 -0.098086394 -0.042463124 -0.009397253 0.072304204 -0.1208597 -0.05997942
-0.03280918 0.04838216 0.08040091 0.096663594 -0.03561358 0.024310824 0.0053356253 -0.021728579
-0.048027318 0.08964268 -0.079323344 -0.04496572 0.056382835 -0.044203557 0.020587219 0.0808846
-0.017646907 0.055925567 0.02132478 -0.01401528 0.099249296 -0.02396201 -0.11647413 0.030726973
0.064020276 0.057026017 0.08647847 0.015720077 0.025590759 -0.10798079 -0.112578385 -0.033469334
0.048440084 -0.025765691 0.042652234 -0.010500752 -0.12141205 -0.01172714 0.063826345 0.097388245
0.04040374 -0.12276259 0.027682023 -0.019423923 -0.076260105 -0.012372991 -0.037410952 -0.065127395
0.03412616 0.042748857 0.07446402 -0.08164739 0.051893864 -0.09337871 -0.036288965 -0.110350855
-0.048838273 0.017092079 0.07124813 -0.104068615 0.008016759 0.084246166 -0.027208576 0.08346822
-0.02123307 0.017152034 0.07034939 0.0038509774 -0.020350462 -0.105089694 -0.07332896 -0.01579478
-0.07650192 0.062394563 0.10799591 -0.035592493 0.00015468878 -0.03170841 0.0955985 -0.022808095
-0.04302665 -0.044606175 -0.009748694 0.034126524 -0.006777244 -0.012832458 0.07671914 -0.08106134
-0.086462185 -0.0019533138 -0.034464747 -0.07682471 -0.038392093 -0.01814749 -0.08717012 0.037474245
-0.06552733 0.090709865 -0.11820961 -0.006665321 0.0074770176 0.09022583 -0.116275966 0.08035062
-0.022954047 0.115070544 0.08280153 -0.10466984 -0.058876287 0.10686168 0.10846961 0.07138343
-0.033688463 -0.07090136 0.015162824 -0.07496537 0.088434435 -0.10206976 -0.04407764 0.09775491
-0.028188704 0.061849184 0.044940997 0.008795464 -0.11913265 0.052810583 0.038777463 -0.0048909383
0.026596498 -0.10583475 0.0148190325 0.1195167 0.05605003 0.110345796 -0.116689295 -0.07861378
0.00733157 0.07386835 -0.10859384 -0.09826323 0.0552607 0.07334809 0.057399694 -0.10951304
-0.123752184 0.114694096 0.067763254 0.05081917 0.12281244 0.0106480615 -0.02763675 -0.026689801
0.11633556 -0.009303001 -0.0586288 -0.03373712 0.04786206 -0.08628505 -0.042322427 0.055743933
0.07905379 -0.08436068 0.08416627 -0.044803984 0.07697397 -0.0419345 -0.024301121 -0.048294254
0.07405201 0.06885681 -0.022295725 0.018398924 -0.12241099 -0.11889438 -0.099246204 0.10259335
-0.036435887 -0.0041943956 -0.04030338 -0.08041375 -0.071865365 -0.115097165 0.026074875 -0.056259505
-0.075150914 -0.10064313 0.014568191 0.034671593 0.029023925 0.042770807 -0.010421927 -0.09640479
-0.07446953 -0.01683522 -0.03617217 0.0014182965 -0.09571498 0.075443305 0.08622631 0.031497587
0.098072805 0.10240799 -0.073647544 -0.106837176 0.08859409 -0.085854106 -0.054496564 -0.10180228
0.079658575 -0.032308176 -0.10498538 -0.10641785 0.06878881 0.044748567 0.010326047 -0.118956104
-0.08395737 -0.018898556 -0.08120482 -0.023591407 0.070541084 0.11261008 -0.08174758 -0.013330197
0.11459812 -0.11001323 0.019693853 0.08277151 -0.10960143 -0.09240851 0.045963906 -0.044967715
00000000: 7088 393d 6001 eebd 20ff 4d3d 983e 113c
00000010: afeb e4bd fa45 e03d b7c0 1ebc b233 0a3d
00000020: 8706 c53d 7573 8c3d 69a1 ce3d f820 143d
00000030: 35cc a0bd 3043 ddbd c065 c33c 47fa d4bb
00000040: afd5 afbd cfb5 0dbd 85e1 c8bd d0ed 2dbd
00000050: f0f6 19bc 3a14 943d 4a85 f7bd fbac 75bd
00000060: eb62 06bd 5f2c 463d 3ba9 a43d 90f7 c53d
00000070: 8cdf 11bd 7e27 c73c 78d6 ae3b 2200 b2bc
00000080: 4bb8 44bd 9596 b73d 4774 a2bd fa2d 38bd
00000090: b0f1 663d ca0e 35bd 87a6 a83c d3a6 a53d
000000a0: 3f90 90bc 3512 653d 4eb1 ae3c 58a0 65bc
000000b0: 3743 cb3d fa4b c4bc fd89 eebd 22b7 fb3c
000000c0: 101d 833d 1d94 693d a01b b13d 64c7 803c
000000d0: b6a3 d13c 0825 ddbd 7f8f e6bd 2417 09bd
000000e0: 1c69 463d 9212 d3bc 1cb4 2e3d 590b 2cbc
000000f0: e2a6 f8bd 3123 40bc 63b7 823d 7d73 c73d
00000100: 647e 253d f46a fbbd 69c5 e23c eb1e 9fbc
00000110: 422e 9cbd 16b8 4abc 3a3c 19bd 8361 85bd
00000120: dfc7 0b3d 6d19 2f3d 9880 983d bf36 a7bd
00000130: a98e 543d 563d bfbd bda3 14bd a1ff e1bd
00000140: a40a 48bd b004 8c3c 8aea 913d ed21 d5bd
00000150: b958 033c 4189 ac3d 85e4 debc 63f1 aa3d
00000160: faf0 adbc 6c82 8c3c 5713 903d ae60 7c3b
00000170: 03b6 a6bc 4439 d7bd 7e2d 96bd 0e64 81bc
00000180: 0aad 9cbd 7191 7f3d f62c dd3d 6fc9 11bd
00000190: f433 2239 ade0 01bd 25c9 c33d 0bd8 babc
000001a0: b63c 30bd f7b4 36bd fcb8 1fbc 41c8 0b3d
000001b0: a513 debb 3b3f 52bc ed1e 9d3d 7d03 a6bd
000001c0: 1613 b1bd 2b03 00bb e82a 0dbd 4656 9dbd
000001d0: 0741 1dbd 0caa 94bc 3f86 b2bd 987e 193d
000001e0: 3133 86bd 18c6 b93d e117 f2bd c468 dabb
000001f0: c501 f53b 52c8 b83d 1822 eebd de8e a43d
00000200: 200a bcbc 1baa eb3d d993 a93d 245d d6bd
00000210: 4328 71bd 4cda da3d 5125 de3d 7a31 923d
00000220: eafc 09bd bb34 91bd 7e6d 783c 7287 99bd
00000230: 1d1d b53d f309 d1bd c18a 34bd ba33 c83d
00000240: ffeb e6bc 9255 7d3d 0d14 383d da1a 103c
00000250: d2fb f3bd e94f 583d 1ed5 1e3d 2a44 a0bb
00000260: e6e0 d93c e4bf d8bd 87cb 723c 2cc5 f43d
00000270: b794 653d fafc e13d ccfa eebd 4300 a1bd
00000280: ab3d f03b 4a48 973d 7266 debd 3b3e c9bd
00000290: 0b59 623d 8637 963d f11b 6b3d 5f48 e0bd
000002a0: c971 fdbd bde4 ea3d 76c7 8a3d c327 503d
000002b0: 1785 fb3d 3575 2e3c 7766 e2bc 92a4 dabc
000002c0: 5741 ee3d 9d6b 18bc c124 70bd ef2f 0abd
000002d0: 020b 443d 37b6 b0bd 485a 2dbd c053 643d
000002e0: f4e6 a13d 4bc5 acbd 5e5f ac3d 6284 37bd
000002f0: 87a4 9d3d 83c3 2bbd 2513 c7bc 32d0 45bd
00000300: 95a8 973d cd04 8d3d 86a5 b6bc 57b9 963c
00000310: 9db2 fabd e67e f3bd 9841 cbbd 761c d23d
00000320: cc3d 15bd 2471 89bb 2815 25bd f7af a4bd
00000330: 262e 93bd 10b8 ebbd fa9a d53c 5e70 66bd
00000340: b9e8 99bd fc1d cebd 6caf 6e3c cd03 0e3d
00000350: 95c3 ed3c 7130 2f3d bbc0 2abc e06f c5bd
00000360: 7b83 98bd 04ea 89bc 4529 14bd 22e6 b93a
00000370: 3706 c4bd 0582 9a3d 6b97 b03d 9d03 013d
00000380: 65da c83d 48bb d13d 86d4 96bd 73cd dabd
00000390: d170 b53d 47d4 afbd ca37 5fbd b77d d0bd
000003a0: 0924 a33d 9455 04bd 9302 d7bd 9af1 d9bd
000003b0: 26e1 8c3d 464a 373d 952e 293c 429f f3bd
000003c0: d7f1 abbd 25d1 9abc b64e a6bd c442 c1bc
000003d0: d877 903d 1da0 e63d 466b a7bd e666 5abc
000003e0: 6bb2 ea3d 9e4e e1bd 0155 a13c 1c84 a93d
000003f0: b776 e0bd ac40 bdbd a644 3c3d 1130 38bd

lstm.bias_hh_l0 f4 [256]
-0.09657494 0.11502749 0.020546142 -0.094085924 -0.10420365 -0.059442006 -0.0038691564 0.045733742
0.032830164 0.11028903 0.093599685 -0.08407356 0.070592605 -0.08903842 0.11454286 0.11800582
-0.007411418 -0.057490688 -0.019490907 0.0623543 0.056647133 0.06482598 -0.06938286 -0.099997535
-0.03611296 -0.10337261 0.10120516 -0.09196754 -0.10302026 0.022624072 0.0410933 -0.029527862
-0.013782443 0.07864878 -0.0036714543 -0.10025507 0.04916142 0.095327914 0.033462454 -0.0217759
0.025275575 0.08386616 0.0032939957 0.11818756 -0.04292753 0.047352318 0.11910669 0.009326655
-0.06475115 0.023714205 -0.03242056 -0.10641662 0.100601114 0.05356308 -0.10571722 -0.04514493
-0.03265813 0.09629006 0.07929582 -0.10848846 0.03898166 0.016807523 -0.09560969 0.044022165
-0.10022277 0.11499873 -0.043209456 -0.11644769 -0.019798482 0.0061315913 0.09523953 0.11644327
-0.091540165 0.089753285 -0.04804514 0.08880066 0.08378458 -0.06163096 0.08862698 -0.11341449
0.020019114 0.03873084 0.035818662 0.11698987 0.044794176 -0.056515012 0.039388537 0.0346428
0.09914933 0.048476566 -0.11895128 0.11937266 -0.055527102 0.09921375 -0.0076112254 -0.042681023
-0.033532534 0.06997267 0.10181886 0.05996788 -0.1077777 0.02870177 -0.10782658 -0.0036126613
0.07675507 -0.021082709 0.021236144 0.05008531 -0.047144707 -0.114868976 -0.1168508 0.10107518
0.043143965 0.12098998 -0.036400363 0.12158166 0.05655164 -0.03962028 0.03232003 0.1188194
-0.026422236 0.040287152 0.120560445 0.081155926 0.066548616 -0.111367375 0.024207247 -0.021757277
-0.043050986 0.06937183 0.086220644 0.0805179 -0.100533925 0.05163041 -0.06556382 -0.015407287
0.050147153 -0.12051625 0.09048218 0.0042455606 -0.08154442 0.051351648 0.09874844 0.11687057
-0.034195025 0.02980734 0.02004391 0.0484067 0.07120602 -0.0011649317 -0.053900875 -0.10887911
0.046019413 -0.05728002 0.0918585 -0.1150973 -0.039465774 -0.005837431 -0.0041445084 0.108306
-0.06482783 0.046686824 0.07533947 -0.010436531 -0.08064374 0.08565369 -0.08998811 -0.00012314769
0.016684957 0.052870646 -0.11752033 -0.08347825 0.09609646 0.123543225 -0.07198593 0.06960316
-0.015368595 0.10234721 0.079900734 0.028030038 0.021132182 -0.03719544 0.043570533 -0.110650755
0.07009713 0.11165113 0.112174675 -0.09084459 0.11444899 0.04061291 0.056884635 -0.039544903
-0.021616835 0.10852801 0.043730997 -0.029546069 0.014700135 0.07774708 -0.078416735 0.095242634
0.03703314 -0.110117316 0.005104138 0.08142372 0.12465732 0.08323303 0.09804604 0.013864133
0.016640803 -0.04969251 0.034158867 -0.020306127 -0.036597114 0.08121283 -0.044694364 -0.026296604
0.1205757 -0.08562577 0.026441077 0.05365262 -0.09174799 -0.119915046 -0.045509912 -0.06056557
-0.061100617 -0.04539848 0.021320593 -0.07187561 0.08432575 0.07395022 0.05179263 -0.11440318
-0.111107565 -0.051939532 0.05864063 0.03137809 0.03134044 -0.099289596 -0.068078294 0.0582779
0.02668511 -0.022114405 0.08968736 0.12631142 -0.097251594 0.1104322 -0.017452564 -0.005049192
0.112708785 0.08004695 0.09584295 0.057612356 -0.09505851 -0.10268842 0.11495844 -0.04296172
00000000: 15c9 c5bd 8893 eb3d 6250 a83c 1fb0 c0bd
00000010: b968 d5bd 7679 73bd ac91 7dbb 4e53 3b3d
00000020: ec78 063d 37df e13d 31b1 bf3d c22e acbd
00000030: db92 903d c659 b6bd 7295 ea3d 09ad f13d
00000040: 7bdb f2bb 5b7b 6bbd 65ab 9fbc 3967 7f3d
00000050: d306 683d 7cc3 843d 9a18 8ebd 82cb ccbd
00000060: 2feb 13bd 05b5 d3bd a744 cf3d 7a59 bcbd
00000070: 49fc d2bd 1e56 b93c 7351 283d 6ae4 f1bc
00000080: c1cf 61bc 9d12 a13d c89c 70bb 8852 cdbd
00000090: 7c5d 493d 483b c33d ed0f 093d 5f63 b2bc
000000a0: b90e cf3c 05c2 ab3d 14e0 573b 520c f23d
000000b0: c7d4 2fbd 81f4 413d 35ee f33d d4ce 183c
000000c0: 409c 84bd 4b44 c23c 6ccb 04bd f5f0 d9bd
000000d0: f507 ce3d f664 5b3d 4582 d8bd e4e9 38bd
000000e0: 88c4 05bd b933 c53d d965 a23d 332f debd
000000f0: 3cab 1f3d eeaf 893c 03cf c3bd 9650 343d
00000100: 9841 cdbd 7484 eb3d 66fc 30bd 207c eebd
00000110: 6d30 a2bc 84eb c83b f10c c33d cf79 ee3d
00000120: 6979 bbbd 92d0 b73d fbca 44bd 1fdd b53d
00000130: 4097 ab3d bf70 7cbd 1082 b53d db45 e8bd
00000140: 20ff a33c 3ba4 1e3d 97b6 123d 6398 ef3d
00000150: 197a 373d 497c 67bd e055 213d 9ce5 0d3d
00000160: ce0e cb3d 5d8f 463d bb9c f3bd a779 f43d
00000170: 6370 63bd 9430 cb3d 9667 f9bb 4cd2 2ebd
00000180: 6959 09bd d54d 8f3d 6886 d03d e1a0 753d
00000190: 8eba dcbd f91f eb3c 2fd4 dcbd 66c2 6cbb
000001a0: c331 9d3d a5b5 acbc 6cf7 ad3c 4126 4d3d
000001b0: cf1a 41bd 6d40 ebbd 794f efbd 8100 cf3d
000001c0: bab7 303d 98c9 f73d 8c18 15bd ceff f83d
000001d0: b1a2 673d e048 22bd 0262 043d 9657 f33d
000001e0: 7273 d8bc 2404 253d 65e8 f63d 1435 a63d
000001f0: a44a 883d 9414 e4bd 474e c63c 513c b2bc
00000200: 3b56 30bd d112 8e3d 7394 b03d 92e6 a43d
00000210: bbe4 cdbd 697a 533d 5346 86bd d86e 7cbc
00000220: 1a67 4d3d 39d1 f6bd b94e b93d 581e 8b3b
00000230: c300 a7bd 1b56 523d 9f3c ca3d d659 ef3d
00000240: 1510 0cbd 862e f43c 2033 a43c 1b46 463d
00000250: 76d4 913d 9fb0 98ba 2ac7 5cbd 03fc debd
00000260: da7e 3c3d 749e 6abd 4f20 bc3d 22b8 ebbd
00000270: dda6 21bd ec47 bfbb a8ce 87bb 89cf dd3d
00000280: 74c4 84bd af3a 3f3d 944b 9a3d fcfd 2abc
00000290: 8c28 a5bd 346b af3d b04b b8bd 3521 01b9
000002a0: e4ae 883c e48e 583d 80ae f0bd a5f6 aabd
000002b0: 39ce c43d 3b04 fd3d 5c6d 93bd 1a8c 8e3d
000002c0: 8fcc 7bbc 6a9b d13d ffa2 a33d 409f e53c
000002d0: 661d ad3c 3f5a 18bd 0477 323d dd9c e2bd
000002e0: 168f 8f3d 59a9 e43d d6bb e53d ba0c babd
000002f0: 3b64 ea3d b959 263d ddff 683d d6f9 21bd
00000300: ca15 b1bc ef43 de3d 461f 333d 990a f2bc
00000310: d6d8 703c dc39 9f3d f498 a0bd 920e c33d
00000320: 10b0 173d 3085 e1bd 9d40 a73b 7bc1 a63d
00000330: 564c ff3d 1476 aa3d 5dcc c83d 6326 633c
00000340: 4b52 883c 608a 4bbd 2bea 0b3d 0959 a6bc
00000350: dbe6 15bd ea52 a63d 7011 37bd fa6b d7bc
00000360: 65f0 f63d 905c afbd f59a d83c dac2 5b3d
00000370: 5fe6 bbbd 0596 f5bd 9a68 3abd 9a13 78bd
00000380: a444 7abd c2f3 39bd 86a8 ae3c 8533 93bd
00000390: fbb2 ac3d 3773 973d 8224 543d 374c eabd
000003a0: 5d8c e3bd 8cbe 54bd 2831 703d 5086 003d
000003b0: d55e 003d 5858 cbbd a26c 8bbd cfb4 6e3d
000003c0: bb9a da3c 4529 b5bc 02ae b73d c857 013e
000003d0: d82b c7bd 472a e23d aef8 8ebc b173 a5bb
000003e0: ddd3 e63d a8ef a33d 4f49 c43d effa 6b3d
000003f0: 09ae c2bd 4e4e d2bd 556f eb3d a1f8 2fbd

lstm.weight_ih_l1 f4 [256, 64]
-0.07289748 -0.1009255 -0.10664846 -0.062812515 -0.052744195 0.04391894 -0.0058382517 0.003253885
-0.09789352 0.028469255 0.08552898 0.1002685 -0.015976459 0.059808865 0.104279585 -0.02423965
-0.029327456 0.116848715 -0.07870557 0.035999294 0.08603969 -0.04568449 -0.032290958 -0.082488105
0.11082133 0.012810851 -0.095614225 0.12113713 -0.05077148 -0.059631024 -0.06023909 -0.08085851
-0.0046286373 0.012746839 0.020402357 -0.08860659 0.11422937 -0.035278257 0.03567153 0.09694772
-0.04682708 0.03368132 -0.016125765 0.0045652394 0.069031976 0.11210294 0.057083007 -0.043822218
0.12306076 -0.007772644 -0.007164245 0.050277557 0.0125145335 0.09344166 -0.0766734 -0.034717094
0.10202065 -0.0035466205 -0.089893006 0.004352838 -0.05937822 -0.05327242 0.11767464 -0.080184214
0.0003054874 0.110940024 0.06782285 -0.065669484 0.10274721 -0.11421597 -0.120290086 -0.026226724
0.011674344 -0.07455374 0.11807878 0.02314775 0.016195446 -0.12209239 0.115142405 -0.08697236
0.04793968 0.045183375 0.09637148 0.030310577 0.07606855 0.08775012 -0.04793058 -0.035436645
-0.07255679 0.105930224 0.06992993 0.10797857 0.063447736 -0.018304834 -0.0005900361 -0.11141554
0.09430327 0.069212355 0.009154612 0.07104591 -0.031321794 0.07540432 -0.05440873 -0.05020908
0.0077483566 -0.0057531865 0.11616613 -0.104753174 -0.029724235 0.095296726 0.054971278 -0.08508025
0.00048311963 0.07187841 -0.04757747 0.083396435 -0.0845653 0.06715342 0.109247245 0.02915465
-0.10284953 -0.003048941 -0.045590516 0.0953714 0.11748788 -0.116870575 -0.0957993 0.0276142
-0.013047036 0.028100908 0.116665 -0.11759561 -0.09786901 0.037345897 0.010664134 0.11528246
0.09372548 0.06789827 0.050132904 0.03504835 -0.061690398 0.0090351235 -0.12281072 -0.07211434
-0.08355586 0.04262697 0.061254725 0.051244408 -0.054747425 -0.09889263 -0.11718814 0.11408964
-0.11136826 0.05729627 -0.07264648 0.11591044 -0.036601793 -0.10454918 0.026758613 -0.1030216
0.09627777 0.04457342 -0.007623186 0.059079416 -0.10086094 -0.08963063 0.07109413 -0.055941783
0.08187319 -0.016696189 0.0364892 -0.01645382 0.03852942 0.11531938 0.014948163 -0.06876782
-0.11183739 0.12319281 -0.061531115 0.005116854 0.03741665 -0.08581995 -0.018679095 -0.036608525
0.12107357 -0.039388973 -0.029998438 -0.11617297 -0.07360932 -0.11124456 -0.08399733 0.06614646
-0.05615994 0.05838595 0.0978658 -0.076330565 -0.030260108 -0.09426213 -0.09764863 0.09295173
0.021315238 -0.03634471 -0.026244262 0.12109875 -0.014687087 -0.056571268 0.010114246 0.036459025
0.043653984 0.121095486 -0.0071415566 0.092345424 -0.09093425 -0.02621645 0.09867968 0.05567667
0.021542571 0.06432461 0.11335917 -0.11751909 -0.08940774 0.070647724 0.1028868 0.102072194
0.09485216 -0.10996147 -0.10941539 0.0015049463 -0.039299622 -0.0958367 -0.052997086 -0.051748767
0.10479295 0.1030759 0.09712373 0.08318061 0.013799713 0.015991593 0.06268529 0.024191786
0.09726396 0.10072821 0.016948184 0.04796682 -0.0056209853 0.02333607 -0.12079503 0.091937706
0.07388885 0.1047118 0.0971973 0.10606157 -0.040787645 -0.059537 -0.04188361 -0.10279428
00000000: 464b 95bd 07b2 cebd 826a dabd d9a3 80bd
00000010: 4c0a 58bd 59e4 333d ce4e bfbb 223f 553b
00000020: 667c c8bd 5b38 e93c d129 af3d 9259 cd3d
00000030: 10e1 82bc 24fa 743d 8990 d53d 3b92 c6bc
00000040: 2240 f0bc 614e ef3d 6330 a1bd ff73 133d
00000050: 9435 b03d a91f 3bbd 8643 04bd 86ef a8bd
00000060: 4bf6 e23d 9be4 513c 64d1 c3bd be16 f83d
00000070: c1f5 4fbd a93f 74bd 44bd 76bd 2699 a5bd
00000080: d3ab 97bb 1ed8 503c d822 a73c 5f77 b5bd
00000090: 17f1 e93d ef7f 10bd 4f1c 123d 878c c63d
000000a0: c1cd 3fbd 6cf5 093d 2e1a 84bc 0198 953b
000000b0: a360 8d3d 3a96 e53d dfcf 693d ed7e 33bd
000000c0: 4807 fc3d aab1 febb 0bc2 eabb d7ef 4d3d
000000d0: c209 4d3c 575e bf3d f206 9dbd 8333 0ebd
000000e0: 34f0 d03d 6b6e 68bb d319 b8bd 40a2 8e3b
000000f0: 9436 73bd 2e34 5abd 67ff f03d 9f37 a4bd
00000100: d329 a039 8634 e33d b5e6 8a3d b97d 86bd
00000110: 216d d23d 10ea e9bd a65a f6bd 6dd9 d6bc
00000120: bf45 3f3c a2af 98bd 4ad3 f13d 5aa0 bd3c
00000130: 50ac 843c 930b fabd c8cf eb3d 911e b2bd
00000140: 665c 443d 3412 393d 695e c53d e34d f83c
00000150: d4c9 9b3d 56b6 b33d db52 44bd 0426 11bd
00000160: a898 94bd f2f1 d83d 6c37 8f3d de23 dd3d
00000170: e3f0 813d 05f4 95bc a7ac 1aba d52d e4bd
00000180: 1322 c13d 35bf 8d3d 3afd 153c 8580 913d
00000190: 484b 00bd 956d 9a3d b0db 5ebd 09a8 4dbd
000001a0: ede5 fd3b 3a85 bcbb 82e8 ed3d d588 d6bd
000001b0: 3d80 f3bc ee2a c33d 9029 613d 8e3e aebd
000001c0: 384b fd39 fd34 933d 98e0 42bd c0cb aa3d
000001d0: 9230 adbd bb87 893d 05bd df3d bcd5 ee3c
000001e0: c6a2 d2bd bed0 47bb 1fbd 3abd 1552 c33d
000001f0: 7c9d f03d d759 efbd 6c32 c4bd 2d37 e23c
00000200: 3cc3 55bc e033 e63c 0fee ee3d f8d5 f0bd
00000210: 8c6f c8bd 03f8 183d 9fb8 2e3c 3619 ec3d
00000220: 25f3 bf3d 400e 8b3d 2958 4d3d dc8e 0f3d
00000230: 12af 7cbd 0e08 143c 3084 fbbd afb0 93bd
00000240: 561f abbd 9e99 2e3d 3ce6 7a3d a8e5 513d
00000250: d63e 60bd 3888 cabd 5600 f0bd d4a7 e93d
00000260: 0b15 e4bd 7eaf 6a3d adc7 94bd 7462 ed3d
00000270: c3eb 15bd e11d d6bd e134 db3c fdfc d2bd
00000280: 482d c53d 9e92 363d ebcb f9bb 42fd 713d
00000290: 2e90 cebd 4490 b7bd cd99 913d 3623 65bd
000002a0: 22ad a73d 72c6 88bc b375 153d 29ca 86bc
000002b0: 06d1 1d3d 912c ec3d 24e9 743c 25d6 8cbd
000002c0: 000b e5bd 834c fc3d 0d08 7cbd 48ab a73b
000002d0: 3442 193d 5fc2 afbd e704 99bc d2f2 15bd
000002e0: 6bf5 f73d 5556 21bd 49bf f5bc 18ec edbd
000002f0: 7cc0 96bd 30d4 e3bd cb06 acbd cc77 873d
00000300: f707 66bd 1b26 6f3d dd6d c83d 3353 9cbd
00000310: 0ce4 f7bc 810c c1bd 01fc c7bd 7a5d be3d
00000320: 4b9d ae3c 31de 14bd 35fe d6bc 9f02 f83d
00000330: 1ca2 70bc 46b7 67bd 39b6 253c 0f56 153d
00000340: 85ce 323d e900 f83d b803 eabb 991f bd3d
00000350: bc3b babd e1c3 d6bc 9218 ca3d 380d 643d
00000360: 0c7a b03c 9fbc 833d da28 e83d d9ad f0bd
00000370: 681b b7bd c1af 903d 51b6 d23d 3a0b d13d
00000380: d941 c23d 7b33 e1bd 2d15 e0bd 9e41 c53a
00000390: a4f8 20bd 0846 c4bd 7913 59bd 84f6 53bd
000003a0: b09d d63d 7519 d33d cee8 c63d 985a aa3d
000003b0: 3118 623c cd00 833c 2561 803d da2d c63c
000003c0: 5432 c73d 974a ce3d ebd6 8a3c db78 443d
000003d0: 3e30 b8bb 492b bf3c 6263 f7bd d649 bc3d
000003e0: 0a53 973d 2473 d63d 610f c73d cf36 d93d
000003f0: f210 27bd 12dd 73bd 268e 2bbd cf85 d2bd

lstm.weight_hh_l1 f4 [256, 64]
0.102671534 0.011568903 0.035397146 0.0051437574 0.038868494 0.011658579 0.12056185 0.06687028
-0.096572526 -0.08842393 0.10382375 -0.0995751 0.12136316 -0.10042924 0.045530453 0.068014115
-0.05749891 0.04777698 0.030225478 0.10484454 0.06649228 -0.027203193 0.04044467 -0.09653244
-0.047133457 -0.0364576 0.036762834 -0.11807556 -0.045083225 -0.080452144 -0.018917745 0.11378795
-0.0930574 -0.038258042 -0.047528256 -0.06893439 -0.12294512 0.11994406 0.0599833 0.0057086633
-0.11818161 0.051325183 -0.06392254 -0.014759934 0.021854684 0.09491978 0.0035274916 0.059486877
-0.044725295 0.09441443 0.0636958 0.1181412 0.108803295 -0.0044008936 -0.09710638 -0.043064162
-0.035309743 0.119844235 0.03734524 0.019458659 -0.045200624 0.122325696 0.09701455 0.055963803
0.10293033 -0.10842557 -0.052327964 -0.06737835 -0.023958927 -0.08105992 0.06478424 -0.020797424
0.06542497 -0.08468104 -0.008708211 0.056446288 0.015805595 -0.011664919 0.07270647 0.02456895
-0.08603693 0.055690862 -0.05936312 0.06614144 -0.053717572 0.027523542 -0.117040776 0.049125023
-0.03562925 0.12558623 -0.045265432 0.09455526 -0.111897126 0.022197325 0.110611655 0.11317889
0.04292749 0.103288345 0.08042885 0.101880416 -0.0004934621 -0.07142962 -0.11128957 -0.12332707
0.076901056 -0.021974273 -0.10339185 -0.03102915 -0.031152623 0.0033128217 0.09076509 -0.11600509
0.10568899 0.11152364 -0.09515199 -0.09395937 -0.05359969 0.045345336 0.08269473 0.11906043
-0.09573061 0.09042714 0.11487851 -0.10580417 0.065179914 0.12560047 -0.10938135 -0.006567622
0.07038663 0.12165641 -0.057335142 0.06349259 0.031709153 -0.11645402 -0.028152628 -0.026481815
-0.08133342 0.027668502 0.08176068 0.09038332 -0.010867665 0.022059815 -0.12367641 0.0068262033
0.036888473 0.011628648 -0.029497346 -0.0405792 -0.073112756 0.09103295 0.11001875 -0.11360644
0.093267046 0.032956585 -0.08735005 0.05600542 0.015133594 0.0972105 0.09009275 0.10871037
-0.06688363 -0.045315955 0.03501616 0.01565926 0.050884597 0.076422766 -0.0019096291 -0.030835835
0.004064241 -0.09487217 0.06523927 0.06374483 -0.09091392 0.09719067 -0.11770992 -0.1103034
0.012561167 0.0018478963 0.015276796 -0.10606368 0.042403676 0.08037134 -0.024649063 -0.02677983
0.11738849 -0.022642724 0.11831079 0.086137 0.028371615 -0.07485252 -0.020653768 -0.08016473
0.00218306 0.044241987 -0.08371261 -0.06882575 -0.014386331 0.10334123 0.045004047 0.08093356
0.10682909 -0.033759546 0.038284745 0.1017302 -0.080303304 0.1016899 0.032359667 -0.066418566
0.0026947788 0.022763714 0.005324039 -0.028945597 0.07625152 0.05243496 0.039287094 -0.017815674
0.01786853 0.010526223 0.07417643 0.12129178 0.11835215 -0.061906416 -0.015771031 0.042739894
-0.099716395 -0.058815252 0.061522573 -0.057303168 0.0008484161 -0.023877583 -0.09029394 -0.08211039
0.060852837 0.028254075 0.09209162 -0.059936818 -0.091206305 -0.11238596 0.083965965 0.117621765
-0.044380724 0.11914889 0.05517012 -0.06040955 -0.09154419 0.11297715 -0.024198296 -0.09971235
-0.013214009 0.12576933 0.12086825 -0.079568364 -0.07017422 -0.013256531 0.09734805 -0.034456152
00000000: 7445 d23d 7f8b 3d3c 99fc 103d f78c a83b
00000010: 9234 1f3d a003 3f3c 22e9 f63d 49f3 883d
00000020: d1c7 c5bd 9b17 b5bd 8ca1 d43d 08ee cbbd
00000030: 408d f83d d8ad cdbd 247e 3a3d fc4a 8b3d
00000040: fa83 6bbd cbb1 433d 6c9b f73c bcb8 d63d
00000050: 1b2d 883d 3bd9 debc 4fa9 253d cdb2 c5bd
00000060: 030f 41bd 9054 15bd a094 163d 99d1 f1bd
00000070: 30a9 38bd 18c4 a4bd 63f9 9abc a809 e93d
00000080: e194 bebd 77b4 1cbd fdac 42bd 792d 8dbd
00000090: a7ca fbbd 3ba5 f53d 0cb1 753d bd0f bb3b
000000a0: 3309 f2bd 5b3a 523d d2e9 82bd a6d3 71bc
000000b0: 9808 b33c 4d65 c23d 7d2d 673b 83a8 733d
000000c0: df31 37bd 5a5c c13d f272 823d 03f4 f13d
000000d0: 43d4 de3d 5f35 90bb b6df c6bd 0c64 30bd
000000e0: f3a0 10bd e570 f53d 53f7 183d c467 9f3c
000000f0: 4a24 39bd e585 fa3d 90af c63d 4d3a 653d
00000100: 23cd d23d 3a0e debd d955 56bd a9fd 89bd
00000110: 8345 c4bc be02 a6bd 9aad 843d 5c5f aabc
00000120: 87fd 853d 416d adbd e2ac 0ebc 3934 673d
00000130: bc7a 813c 371e 3fbc 21e7 943d d344 c93c
00000140: 2134 b0bd 1a1c 643d be26 73bd 2a75 873d
00000150: f506 5cbd 0d79 e13c 13b3 efbd 5237 493d
00000160: faef 11bd ad99 003e 3f68 39bd 30a6 c13d
00000170: 522a e5bd 2ad7 b53c 5d88 e23d 55ca e73d
00000180: bcd4 2f3d d788 d33d e2b7 a43d aea6 d03d
00000190: ae5b 01ba b149 92bd c9eb e3bd e792 fcbd
000001a0: 4d7e 9d3d 6403 b4bc 1bbf d3bd d830 febc
000001b0: c933 ffbc ed1b 593b 0ce3 b93d 1494 edbd
000001c0: 7873 d83d 8266 e43d 0cdf c2bd c56d c0bd
000001d0: 598b 5bbd 08bc 393d db5b a93d f4d5 f33d
000001e0: 690e c4bd dd31 b93d 6d45 eb3d dbaf d8bd
000001f0: 0c7d 853d 699d 003e 5403 e0bd 3535 d7bb
00000200: de26 903d ff26 f93d 41d8 6abd 6708 823d
00000210: 75e1 013d 727f eebd 57a0 e6bc 64f0 d8bc
00000220: 2392 a6bd 0ea9 e23c 2572 a73d e41a b93d
00000230: 4a0e 32bc c9b6 b43c 0f4a fdbd 58ae df3b
00000240: 5e18 173d 1686 3e3c 6ba4 f1bc 6036 26bd
00000250: 24bc 95bd 7c6f ba3d 8351 e13d 7eaa e8bd
00000260: cb02 bf3d 7cfd 063d 95e4 b2bd f065 653d
00000270: e5f2 773c 4c16 c73d 8c82 b83d 8ba3 de3d
00000280: 49fa 88bd 399d 39bd 1b6d 0f3d d947 803c
00000290: 5e6c 503d 8a83 9c3d 854c faba 6f9b fcbc
000002a0: 532d 853b 574c c2bd 2b9c 853d a68c 823d
000002b0: 1431 babd e70b c73d e611 f1bd c0e6 e1bd
000002c0: 5acd 4d3c 1c35 f23a 874b 7a3c ea37 d9bd
000002d0: 7aaf 2d3d bb99 a43d d5ec c9bc 6061 dbbc
000002e0: 6069 f03d 3c7d b9bc ed4c f23d 9868 b03d
000002f0: 976b e83c 474c 99bd 1732 a9bc 682d a4bd
00000300: ab11 0f3b 1637 353d 8471 abbd 84f4 8cbd
00000310: a5b4 6bbc 91a4 d33d 2a56 383d 7fc0 a53d
00000320: 36c9 da3d 7347 0abd 77d0 1c3d ec57 d03d
00000330: 0f76 a4bd cb42 d03d 928b 043d 7506 88bd
00000340: e39a 303b f87a ba3c 4775 ae3b 511f edbc
00000350: c229 9c3d 0ac6 563d 81eb 203d 2df2 91bc
00000360: 0661 923c 2e76 2c3c d0e9 973d d367 f83d
00000370: 9d62 f23d 9591 7dbd 4032 81bc 0710 2f3d
00000380: 1c38 ccbd 43e8 70bd 18ff 7b3d bab6 6abd
00000390: 3e68 5e3a ec9a c3bc 07ec b8bd 7e29 a8bd
000003a0: d340 793d 1775 e73c 889a bc3d 4f80 75bd
000003b0: 5fca babd 9c2a e6bd 59f6 ab3d aee3 f03d
000003c0: 90c8 35bd 5504 f43d 10fa 613d 0170 77bd
000003d0: 857b bbbd 9060 e73d 813b c6bc fd35 ccbd
000003e0: 927f 58bc adc9 003e c689 f73d bdf4 a2bd
000003f0: 80b7 8fbd ec31 59bc 6a5e c73d e521 0dbd

lstm.bias_ih_l1 f4 [256]
-0.10813028 -0.09554809 -0.06298629 -0.12048117 -0.08452517 -0.05456012 0.10685714 -0.063630745
0.042808525 -0.017572189 -0.121402055 0.08899806 0.08360484 0.09533568 -0.04485348 -0.055147085
0.05307231 0.05290572 -0.072699346 0.020715982 -0.10951733 -0.041097533 0.089090034 -0.061206903
-0.06410308 -0.089708686 -0.07256153 0.062379327 -0.10079465 -0.046362594 -0.020845126 0.075421296
-0.059514042 -0.022691097 0.040427223 -0.08646967 0.042997047 0.04447779 0.108451806 -0.021358984
0.014533146 -0.0086149555 0.07117634 -0.10962516 -0.07061531 0.02200555 -0.077693135 0.004366319
0.017175348 -0.08206949 0.079885855 0.07878103 0.09463998 0.07485953 0.033029158 0.1011707
-0.0020217253 0.023932625 0.064576656 -0.10921859 -0.014628593 0.100446895 -0.008791939 0.015395342
-0.03661527 0.0675605 -0.026313566 -0.09790648 -0.033353694 -0.0004982296 -0.1067126 -0.11370463
-0.061104063 -0.062584 -0.09246027 -0.029381027 0.11945066 0.07858993 -0.049280785 0.036938842
-0.10329791 -0.0038179597 -0.06640687 -0.070332974 -0.030557504 0.030039616 -0.061928026 0.11464736
-0.110898316 -0.050093126 0.10864492 0.11537661 -0.060638122 -0.022599028 -0.0151367 0.09113972
0.056499343 -0.09034783 0.030806428 -0.1187032 -0.01374464 -0.0070322445 0.00042978046 0.10624295
-0.10024055 0.09046921 -0.082740985 -0.032374647 0.09943748 0.053150427 0.03615034 0.04122376
-0.10675687 0.11435926 0.027319834 -0.061455484 -0.025213623 0.056072935 0.035910983 -0.05942113
0.00124281 -0.10429234 -0.05110028 -0.044045765 -0.075639784 -0.09484163 -0.008945803 0.113696106
-0.04940118 0.04420508 0.009466838 -0.0021209642 -0.019003283 -0.10726482 0.03765939 -0.09667848
0.10584452 0.03545117 -0.09855783 -0.06789905 -0.023646062 -0.021441031 -0.06564633 -0.06115548
0.07740123 -0.05951102 0.0468167 0.09698153 -0.012874161 -0.007763663 0.039010763 -0.09174037
-0.044723812 -0.098861225 -0.033676542 -0.09356594 0.038541604 0.060244672 -0.08158926 -0.0750818
-0.0016089233 0.10971986 -0.056004915 0.11483795 0.034209624 0.039223984 -0.05562428 -0.046984755
-0.107492514 0.09182943 -0.061076947 -0.03203018 -0.059395146 0.010249499 -0.076381326 0.04825074
-0.021937033 0.068444185 0.108239345 -0.050183132 0.0445954 -0.038530834 -0.11655583 0.051986586
0.06613999 0.033276208 0.0013381036 -0.08081629 -0.054683253 0.015718732 0.07521118 0.025292505
0.04214138 0.07816264 -0.065456636 0.06390906 -0.1076587 0.03964416 0.036451682 -0.05438138
0.109380856 -0.052023288 0.028117621 -0.021162104 -0.072971165 -0.043058354 -0.10204255 -0.057102486
-0.064469084 0.103847176 0.05516996 -0.06540416 0.12217288 -0.06609034 -0.018500764 0.082128935
-0.054858893 -0.0051813023 -0.07274606 0.11205579 -0.08529299 -0.07623066 -0.07115867 0.008358879
-0.07984017 0.0881866 0.010646379 -0.08298706 0.08972611 -0.034166027 -0.10366309 0.067441575
0.10466145 0.0020917184 0.10017787 -0.07491711 0.11444868 -0.075532295 -0.08544364 -0.1256075
-0.05703528 -0.097691014 0.10507683 -0.033731997 -0.09051386 -0.02049687 -0.048398964 -0.058968455
0.037880287 0.10307478 -0.07950469 0.023759037 0.056435343 -0.07546382 0.095942765 -0.029141985
00000000: 6973 ddbd b8ae c3bd f5fe 80bd d5be f6bd
00000010: 881b adbd 6f7a 5fbd ebd7 da3d d650 82bd
00000020: fe57 2f3d 8df3 8fbc a4a1 f8bd 9d44 b63d
00000030: 0439 ab3d 5a3f c33d 48b8 37bd e9e1 61bd
00000040: 5a62 593d abb3 583d 65e3 94bd 90b4 a93c
00000050: 9f4a e0bd e355 28bd d674 b63d 17b4 7abd
00000060: 7a48 83bd 30b9 b7bd 249b 94bd 7781 7f3d
00000070: 6d6d cebd b4e6 3dbd 66c3 aabc 7b76 9a3d
00000080: ffc4 73bd aee2 b9bc 0497 253d 0317 b1bd
00000090: ac1d 303d 582e 363d fb1b de3d 09f9 aebc
000000a0: 6f1c 6e3c be25 0dbc e7c4 913d 2883 e0bd
000000b0: c29e 90bd fc44 b43c 941d 9fbd 5713 8f3b
000000c0: 51b3 8c3c 0c14 a8bd 329b a33d f357 a13d
000000d0: 9bd2 c13d f44f 993d 9549 073d 9532 cf3d
000000e0: ec7e 04bb 5a0e c43c c440 843d ffad dfbd
000000f0: c4ac 6fbc 1ab7 cd3d 110c 10bc bf3c 7c3c
00000100: e5f9 15bd 295d 8a3d 8c8f d7bc 3183 c8bd
00000110: e29d 08bd 9f9b 02ba 238c dabd f9dd e8bd
00000120: 4148 7abd 0a2c 80bd cf5b bdbd 7bb0 f0bc
00000130: 8ca2 f43d c2f3 a03d a6da 49bd 2f4d 173d
00000140: db8d d3bd bc36 7abb 5300 88bd bc0a 90bd
00000150: bb53 fabc a415 f63c 3ea8 7dbd 3ccc ea3d
00000160: a81e e3bd 732e 4dbd 3a81 de3d 924a ec3d
00000170: ae5f 78bd 9921 b9bc ecff 77bc 76a7 ba3d
00000180: db6b 673d 4808 b9bd c35d fc3c aa1a f3bd
00000190: 3331 61bc be6e e6bb 2854 e139 e795 d93d
000001a0: eb4a cdbd ec47 b93d 1b74 a9bd 479b 04bd
000001b0: e1a5 cb3d 43b4 593d 6112 143d 3fda 283d
000001c0: 59a3 dabd 3035 ea3d d8cd df3c bfb8 7bbd
000001d0: cd8c cebc bcac 653d 6517 133d 9263 73bd
000001e0: c9e5 a23a 3997 d5bd 874e 51bd 5569 34bd
000001f0: 08e9 9abd 543c c2bd 6b91 12bc 81d9 e83d
00000200: e458 4abd 6310 353d cc1a 1b3c e0ff 0abb
00000210: c6ac 9bbc a8ad dbbd bc40 1a3d 5eff c5bd
00000220: 03c5 d83d 3f35 113d b0d8 c9bd a80e 8bbd
00000230: 63b5 c1bc 1aa5 afbc 9571 86bd 2b7e 7abd
00000240: 8984 9e3d d4c1 73bd dec2 3f3d 419e c63d
00000250: 25ee 52bc 5366 febb c0c9 1f3d 60e2 bbbd
00000260: 5130 37bd c177 cabd 6af0 09bd 809f bfbd
00000270: cddd 1d3d 1ec3 763d 4518 a7bd 7dc4 99bd
00000280: 82e2 d2ba ceb4 e03d 6965 65bd 2930 eb3d
00000290: 641f 0c3d 54a9 203d 49d6 63bd 1673 40bd
000002a0: 0925 dcbd 1111 bc3d d22b 7abd 1432 03bd
000002b0: 5348 73bd 84ed 273c d06d 9cbd 91a2 453d
000002c0: 4bb5 b3bc 772c 8c3d 97ac dd3d d48c 4dbd
000002d0: aba9 363d 82d2 1dbd d3b4 eebd e3ef 543d
000002e0: 6774 873d a24c 083d 4e63 af3a 0383 a5bd
000002f0: 8cfb 5fbd 92c4 803c 5208 9a3d 3a32 cf3c
00000300: 719c 2c3d bc13 a03d 210e 86bd c1e2 823d
00000310: 2a7c dcbd ea61 223d 5c4e 153d 03bf 5ebd
00000320: 1203 e03d 5f16 55bd ed56 e63c 265c adbc
00000330: e871 95bd f55d 30bd affb d0bd 4ce4 69bd
00000340: 5e08 84bd d4ad d43d e5f9 613d 9ef2 85bd
00000350: c635 fa3d 5f5a 87bd ea8e 97bc 3733 a83d
00000360: b8b3 60bd eac7 a9bb e3fb 94bd 827d e53d
00000370: 17ae aebd d21e 9cbd a3bb 91bd aef3 083c
00000380: 3e83 a3bd 2d9b b43d 266e 2e3c 1ff5 a9bd
00000390: 53c2 b73d adf1 0bbd 504d d4bd cf1e 8a3d
000003a0: be58 d63d 3615 093b 0e2a cd3d 246e 99bd
000003b0: 1264 ea3d adb0 9abd 13fd aebd 419f 00be
000003c0: d39d 69bd 3a12 c8bd 8532 d73d 902a 0abd
000003d0: 555f b9bd 0de9 a7bc fe3d 46bd e888 71bd
000003e0: 5c28 1b3d df18 d33d 5bd3 a2bd 50a2 c23c
000003f0: bf28 673d c68c 9abd a47d c43d 2cbb eebc
