Personal/DACON/데이터·AI를 활용한 물가 예측 경진대회  농산물 가격을 중심으로/models/best_model_상추.pth (torch, 247544 bytes, 10 tensors)

lstm.weight_ih_l0 f4 [256, 42]
0	0x3de2dce7	0.1107729
1	0x3cbd567a	0.023112524
2	0xbd1e7c36	-0.038692676
3	0xbcdf33b2	-0.02724633
4	0x3cb1f142	0.021721486
5	0x3c9fbe95	0.019500056
6	0x3dda2447	0.106514506
7	0x3d369f55	0.044585545
8	0x3d3dc812	0.04633338
9	0x3dd77ce7	0.1052187
10	0x3dc839f1	0.097766764
11	0x3d6bf55e	0.057607047
12	0x3d86b0d7	0.06576698
13	0x3d65deb2	0.056120582
14	0xbdc06834	-0.09394875
15	0xbd344092	-0.04400689
16	0x3d6b5df2	0.05746264
17	0x3c31b5c4	0.010846559
18	0xbd632e72	-0.055464216
19	0xbde6baaa	-0.11266072
20	0xbdaccd92	-0.08437647
21	0x3d29bf41	0.04144216
22	0x3db25330	0.08707273
23	0xbc172eaf	-0.009227439
24	0x3df3d8be	0.11906575
25	0x3d447f7c	0.04797314
26	0xbcd11188	-0.025521055
27	0xbd45319e	-0.04814302
28	0x3dfcdaaf	0.12346398
29	0x3cb8f869	0.022579389
30	0xbdf6938a	-0.120398596
31	0x3b42af66	0.0029706596
32	0xbdd122fc	-0.10211751
33	0xbd6db114	-0.058030203
34	0xbc8a36c5	-0.01687182
35	0x3cd6f4c1	0.026239755
36	0xbc6f4ade	-0.014605252
37	0xbda0f8ad	-0.07859931
38	0xbddb8795	-0.107192196
39	0x3d9d372a	0.07676537
40	0xbdb88058	-0.09008855
41	0xbde78ad8	-0.11305779
42	0x3d2a5923	0.041588914
43	0x3da5a776	0.08088581
44	0xbc8dd1f7	-0.017312033
45	0x3d5ae31c	0.053439245
46	0x3c2a2691	0.0103851715
47	0x3de8de77	0.11370557
48	0xbd5930fd	-0.053025234
49	0xbcd957ad	-0.026531065
50	0x3c712e87	0.014720566
51	0xbd4ec150	-0.050477326
52	0xbdad345c	-0.084572524
53	0x3d06a274	0.03286977
54	0x3d1bd6a3	0.03804649
55	0xbd864e16	-0.065578625
56	0xbd187bef	-0.037227567
57	0x3dcf794a	0.10130556
58	0x3c98765e	0.01861113
59	0xbdb2e536	-0.08735125
60	0x3c941ef2	0.018081162
61	0x3dead840	0.11467028
62	0x3dffc628	0.12488967
63	0x3d9b6aec	0.07588753
64	0xbdd751c0	-0.105136395
65	0xbd8c607a	-0.06854339
66	0x3cc2a518	0.023760363
67	0xbcf050f0	-0.029335469
68	0x3c4fc0f0	0.012680277
69	0xbd9e0473	-0.07715692
70	0xbdca4d87	-0.098780684
71	0xbdd15680	-0.10221577
72	0x3c0f7475	0.008755793
73	0xbcd530c9	-0.02602424
74	0x3b4ba6be	0.0031074728
75	0x3d98c695	0.074597515
76	0x3d9fc1a5	0.07800607
77	0x3db61890	0.08891404
78	0xbdf74be1	-0.1207502
79	0x3dc35380	0.09537411
80	0x3c40549b	0.0117389215
81	0x3b52675c	0.0032105064
82	0x3d857802	0.0651703
83	0xbddf9784	-0.10917571
84	0x3d9402ea	0.07227118
85	0xbd1e288f	-0.0386129
86	0x3d529761	0.051413897
87	0xbc85fe38	-0.016356573
88	0x3dcdf973	0.10057344
89	0xbdad5b92	-0.08464731
90	0x3c138393	0.009003538
91	0xbda46033	-0.08026161
92	0xbdac5cc7	-0.084161334
93	0x3d914391	0.070929654
94	0x3ca4ed15	0.02013258
95	0xbdd9a43f	-0.106270306
96	0x3de29598	0.11063689
97	0xbdc26210	-0.0949136
98	0xbddd7558	-0.10813397
99	0x3d2694e7	0.040669348
100	0x3cca1db1	0.024672361
101	0x3dc069a8	0.09395152
102	0xbd811c89	-0.06304271
103	0x3d8cefda	0.068816856
104	0x3cc9d320	0.024636805
105	0x3cb39c23	0.021925038
106	0xbbd5d900	-0.0065261126
107	0x3d98495c	0.07435867
108	0x3d58fa5c	0.052973136
109	0x3d1202e0	0.035647273
110	0xbbbe7440	-0.005812198
111	0x3d8d213f	0.06891107
112	0x3dbf796e	0.09349333
113	0x3a8884c1	0.001041554
114	0x3ca1d030	0.019752592
115	0xbdf08608	-0.117443144
116	0xbcdf0829	-0.02722557
117	0xbde50254	-0.11182085
118	0xbcd982e1	-0.026551666
119	0x3dee2b73	0.11629381
120	0xbdbda457	-0.09259861
121	0x3deb0bde	0.11476873
122	0xbca125ed	-0.019671405
123	0xbdf7d819	-0.12101764
124	0x3da0a824	0.0784457
125	0xbbe5dbbe	-0.0070147207
126	0xbce64b1b	-0.028111985
127	0xbdd5dbe9	-0.10442335
128	0xbd8a00c0	-0.06738424
129	0x3d503add	0.050837386
130	0xbdc521bb	-0.09625574
131	0xbde4d6cf	-0.11173784
132	0xbdcba0bd	-0.09942768
133	0x3e0019f6	0.12509903
134	0xbdeec07e	-0.11657809
135	0x3cc924c5	0.024553666
136	0x3de15d84	0.11004165
137	0x3d82cf78	0.06387228
138	0x3d67c7ff	0.056587216
139	0x3da313de	0.07962774
140	0x3dd416bd	0.103558995
141	0x3d824ea9	0.063626595
142	0x3ddb872d	0.10719142
143	0x3d299450	0.041401207
144	0x3de23ac6	0.110463664
145	0x3db353c6	0.08756213
146	0x3c12baf0	0.008955702
147	0xbd67ef41	-0.056624655
148	0x3d132e50	0.03593284
149	0xbcdff9be	-0.027340766
150	0xbcc7b6f0	-0.024379224
151	0x3dafb372	0.08579148
152	0x3dfa90b4	0.12234631
153	0xbdefff69	-0.117186375
154	0xbb856f50	-0.0040721074
155	0x3ccc93a5	0.024972746
156	0xbdd704ca	-0.1049896
157	0xbc605be2	-0.013693782
158	0xbd85a7a3	-0.06526115
159	0xbdae3b3c	-0.08507392
160	0xbcf59944	-0.02998031
161	0xbdf50f19	-0.1196577
162	0xbd81dd05	-0.06340984
163	0x3d5222f0	0.05130285
164	0xbd82a19f	-0.06378483
165	0x3d6891bf	0.05677962
166	0x3db55599	0.08854217
167	0xbdb4ca4a	-0.08827646
168	0xbda22b40	-0.079184055
169	0xbdeb8a11	-0.115009435
170	0x3d5194b4	0.051167205
171	0xbc9c508c	-0.019081376
172	0x3d98985c	0.07450935
173	0xbdf7ce90	-0.120999455
174	0x3da58460	0.08081889
175	0x3d8cb872	0.06871118
176	0x3dab94df	0.08378004
177	0x3d314de2	0.043287165
178	0x3c2fb8a7	0.010725177
179	0x3df2e741	0.118605144
180	0xbce8e7d4	-0.028430857
181	0x3dbf2e64	0.0933502
182	0xbdd04059	-0.10168523
183	0xbd0b3a58	-0.033991188
184	0xbcd2969c	-0.025706582
185	0x3deeee7b	0.1166658
186	0x3df34137	0.11877673
187	0xbdb7ec34	-0.08980599
188	0x3d924e7a	0.071438745
189	0xbdb89a7e	-0.09013842
190	0xbd5c6fdc	-0.053817615
191	0xbd73896b	-0.059457224
192	0x3df48e92	0.11941256
193	0x3db47f18	0.08813304
194	0x3d7fabc0	0.062419653
195	0xbd8abef1	-0.067747004
196	0xbc7bcc4e	-0.015368534
197	0x3dcb97fe	0.099410996
198	0x3dceb2a5	0.100926675
199	0xbd83a162	-0.06427266
200	0xbdca3e34	-0.098751456
201	0x3d8e5bd0	0.069511056
202	0x3da4136f	0.08011519
203	0xbd9b3060	-0.07577586
204	0xbdf824b3	-0.12116375
205	0x3d5decd7	0.054180946
206	0x3db3248f	0.087472074
207	0xbd5c6c60	-0.053814292
208	0xbc9a7b3e	-0.018857595
209	0xbd504a04	-0.050851837
210	0x3c850377	0.016237004
211	0xbd8b5a23	-0.068043016
212	0x3d9acfff	0.07559203
213	0xbd8dd2cd	-0.06924973
214	0xbd955aff	-0.07292747
215	0xbc2c84a6	-0.010529673
216	0xbdb7ed63	-0.08980825
217	0xbe00ebaa	-0.12589899
218	0xbdf619c6	-0.12016635
219	0xbcf35509	-0.029703634
220	0x3d88829c	0.06665537
221	0xbcfea6e9	-0.031085448
222	0xbdf352eb	-0.1188105
223	0xbdc88c00	-0.09792328
224	0x3dc327fd	0.095291115
225	0x3e00e549	0.12587465
226	0x3c8cd19c	0.017189793
227	0x3db526bb	0.08845278
228	0xbd72447a	-0.059147336
229	0xbda650ce	-0.08120881
230	0x3c824878	0.015903696
231	0x3dfca4de	0.123361334
232	0x3df4197e	0.11918925
233	0x3db0fe69	0.08642275
234	0xbd525770	-0.05135292
235	0x3d397ffc	0.04528807
236	0x3d85968e	0.06522857
237	0xbc899b6e	-0.016797747
238	0x3dca79ba	0.09886499
239	0x3d87e68f	0.066357724
240	0x3d3ae53c	0.04562877
241	0xbdfad026	-0.122467324
242	0xbc1d15d2	-0.009587722
243	0xbdd9abaa	-0.106284454
244	0x3df0d8d9	0.117601104
245	0xbda0d62d	-0.07853351
246	0xbd6c7232	-0.057726093
247	0xbd712656	-0.05887445
248	0xbc775dd5	-0.015098055
249	0xbdf1986c	-0.1179665
250	0x3c5e8778	0.013582103
251	0x3cf42c79	0.029806362
252	0x3dfbed6a	0.123011425
253	0x3da5b126	0.08090429
254	0xbd9c6fe6	-0.076385304
255	0xbddcf87e	-0.107895836

lstm.weight_hh_l0 f4 [256, 64]
0	0xbdb295e5	-0.08719996
1	0x3cc37f23	0.023864334
2	0xbdcdcac9	-0.10048444
3	0xbd966af0	-0.073446155
4	0xbd5616a8	-0.0522677
5	0x3b29fce5	0.002593809
6	0x3d942a83	0.07234671
7	0x3de0f85a	0.10984869
8	0x3d4e24bf	0.050328013
9	0x3d292f23	0.04130472
10	0xbb8dcd80	-0.004327476
11	0xbc9b3a98	-0.018948838
12	0xbd4b21fb	-0.049592953
13	0x3ccfcfc7	0.02536763
14	0x3dd57108	0.104219496
15	0xbdc8c2dd	-0.09802792
16	0xbbe730e1	-0.0070553874
17	0xbdc2ef8b	-0.095183454
18	0xbc8cace7	-0.01717229
19	0x3d92304c	0.07138118
20	0xbd399518	-0.045308203
21	0xbd5db034	-0.05412312
22	0x3cac6b9f	0.021047411
23	0x3d32ca54	0.043649986
24	0xbdac1d6c	-0.08404049
25	0x3d318e98	0.04334888
26	0x3d047ffb	0.032348614
27	0x3d62d40e	0.055378012
28	0x3d6d7476	0.057972394
29	0x3b3212b0	0.0027171783
30	0x3db7e40c	0.08979043
31	0x3ca0a0c4	0.019607909
32	0x3d7e7a8b	0.062128585
33	0x3d97c39e	0.07410358
34	0xbd11fa43	-0.03563906
35	0xbcb44fac	-0.022010647
36	0xbdfabf45	-0.12243513
37	0x3c5f20c8	0.0136186555
38	0x3dc7e194	0.097598225
39	0x3dd1c4a9	0.10242588
40	0xbdfdd3db	-0.12393924
41	0xbdac0819	-0.08399982
42	0xbdd5f2d4	-0.104467064
43	0xbd9cf4e9	-0.076639004
44	0x3dacc2db	0.08435603
45	0x3d83129d	0.064000346
46	0x3d10cfc6	0.0353544
47	0xbd70dfa7	-0.05880704
48	0xbd5690eb	-0.0523843
49	0xbce9c5b0	-0.028536648
50	0x3d920ec7	0.07131725
51	0x3dbb1889	0.09135539
52	0x3d71e287	0.059053924
53	0xbcdb1410	-0.026742965
54	0xbd28dc73	-0.04122586
55	0xbc8312e7	-0.016000224
56	0xbccb2eb5	-0.024802545
57	0xbd428e98	-0.04749927
58	0xbdc448bb	-0.09584185
59	0x3dff052d	0.12452159
60	0xbd037477	-0.03209349
61	0x3d6b8aa6	0.057505272
62	0x3db8527d	0.090001084
63	0xbcdc921a	-0.026925135
64	0xbd99fddf	-0.07519125
65	0x3d420f35	0.047377784
66	0x3dea6211	0.11444486
67	0x3ddeaf4b	0.10873278
68	0xbdd9d877	-0.106369905
69	0x3c856d40	0.016287446
70	0x3d9cec3e	0.07662247
71	0x3d5ca5ad	0.05386894
72	0x3d897f79	0.067137666
73	0x3dc884b6	0.097909376
74	0x3d8432a0	0.064549685
75	0x3d307c78	0.043087453
76	0x3d8191b4	0.06326619
77	0xbde2f476	-0.110817835
78	0xbba29038	-0.00496104
79	0x3d2402db	0.040041786
80	0xbdc7908e	-0.097443685
81	0x3dd39095	0.10330311
82	0xbe00af79	-0.12566938
83	0x3de1d84b	0.11027583
84	0xbdf03231	-0.11728323
85	0xbcc433d4	-0.023950495
86	0xbd32cc90	-0.043652117
87	0x3ce3f117	0.027824922
88	0x3dd80a94	0.105488926
89	0x3dd9ed22	0.106409326
90	0xbda42ebb	-0.08016726
91	0x3cd850de	0.026405748
92	0xbcc7e876	-0.024402838
93	0xbd40d7bb	-0.047080737
94	0xbcb71d5b	-0.022352865
95	0xbdcb5747	-0.09928756
96	0xbd872b2c	-0.06600031
97	0x3df67883	0.120347045
98	0x3d1730ff	0.03691196
99	0xbdb5e3f5	-0.0888137
100	0xbc10f705	-0.008847957
101	0xbcc8d83b	-0.02451717
102	0xbdf706ce	-0.12061845
103	0x3c84ad0b	0.016195795
104	0x3c6b82e0	0.014374465
105	0xbc881db7	-0.016615732
106	0xbdee599d	-0.11638186
107	0x3d80d0ad	0.06289802
108	0x3d94b68e	0.07261382
109	0x3d9a717f	0.07541179
110	0xbdf30bfe	-0.11867522
111	0x3de87faa	0.11352475
112	0xbcf39fb0	-0.02973923
113	0xbc3b581a	-0.011434579
114	0xbccef037	-0.025261028
115	0x3df54cea	0.11977561
116	0xbde28fc4	-0.11062577
117	0xbd0754c8	-0.033039838
118	0xbd76f256	-0.060289703
119	0x3debcc5d	0.115135886
120	0xbd2a2e20	-0.041547894
121	0x3d5ead21	0.054364327
122	0x3ddfe723	0.10932758
123	0xbdbcca71	-0.092183
124	0x3b91d1b2	0.0044500465
125	0xbddc7ad0	-0.10765612
126	0xbc7c66a7	-0.015405334
127	0x3de596e2	0.11210419
128	0x3d0f6167	0.035005
129	0xbc72b3e0	-0.014813393
130	0xbdab859e	-0.08375095
131	0x3d60446e	0.05475276
132	0x3d502cad	0.050823856
133	0x3d9e211f	0.07721161
134	0x3de78a3c	0.11305663
135	0x3de61be7	0.11235791
136	0xbd277e00	-0.040891647
137	0x3c9fb712	0.019496474
138	0xbd57878d	-0.052619506
139	0xbda7f198	-0.08200377
140	0x3d61bdc4	0.055112615
141	0xbd86a126	-0.065737054
142	0x3d5a93d7	0.053363647
143	0x3d55dc8c	0.052212283
144	0xbdaf3d00	-0.08556557
145	0x3d89ae39	0.067226835
146	0xbdc3cac4	-0.09560159
147	0xbc605204	-0.013691429
148	0xbd178b07	-0.03699782
149	0x3dc9620c	0.09833154
150	0xbd6a1af2	-0.057154603
151	0x3ddd20e5	0.1079729
152	0xbda60802	-0.08106996
153	0xbdd415e0	-0.10355735
154	0x3ddb67d9	0.10713167
155	0xbd160ca6	-0.036633156
156	0x3dca827c	0.09888169
157	0x3da5860b	0.08082207
158	0x3d3c1baa	0.04592482
159	0xbcc2c007	-0.023773206
160	0xbdaa12bd	-0.08304355
161	0x3cd1d25d	0.025613004
162	0x3dd30867	0.10304337
163	0xbd970268	-0.07373506
164	0x3de77c0f	0.11302959
165	0x3d71a7ce	0.05899792
166	0x3da946c7	0.08265453
167	0xbd014d48	-0.03156784
168	0x3d829c49	0.06377465
169	0x3dccd888	0.100022376
170	0x3db7272e	0.0894302
171	0x3d9f61a6	0.07782297
172	0xbd890a18	-0.06691378
173	0xbdfa1f24	-0.12212971
174	0xbd8502ba	-0.06494661
175	0x3df071a7	0.117404275
176	0x3dea62e8	0.11444646
177	0x3decae8a	0.11556728
178	0x3d8c8cf9	0.06862826
179	0xbdd3f6ae	-0.10349785
180	0x3de736aa	0.11289723
181	0x3d06047a	0.032719113
182	0x3d84a843	0.06477406
183	0xbd3449f3	-0.044015836
184	0xbcb4948c	-0.022043489
185	0xbd9a04ed	-0.07520471
186	0xbc91757d	-0.017756218
187	0xbd95fea7	-0.07323962
188	0x3def731d	0.11691878
189	0xbd8abce2	-0.06774308
190	0x3d8aadc4	0.067714244
191	0x3db5fb99	0.08885879
192	0x3cba53be	0.02274501
193	0x3dab7cbf	0.08373403
194	0x3da2f72e	0.07957302
195	0xbdb162f2	-0.086614504
196	0x3d84f931	0.06492842
197	0xbb35a0b3	-0.0027714192
198	0xbd46fd66	-0.048581503
199	0x3d87dc6f	0.06633841
200	0x3dc94503	0.09827616
201	0xbdab521e	-0.08365272
202	0xbc330f63	-0.010928961
203	0xbd718a5b	-0.058969837
204	0x3c501be5	0.012701963
205	0xbd0b109d	-0.03395139
206	0xbde57310	-0.11203587
207	0xbdc9a053	-0.098450325
208	0xbd3decfd	-0.046368588
209	0x3bd5592d	0.0065108747
210	0xbda50809	-0.08058173
211	0xbdc2c664	-0.09510496
212	0xbd8b0884	-0.067887336
213	0x3cfe4bba	0.031041969
214	0x3d97c6b0	0.074109435
215	0xbdcf6ea0	-0.10128522
216	0xbd2b65f7	-0.041845288
217	0xbdfbf189	-0.123019286
218	0xbdec6419	-0.115425296
219	0x3d37abc9	0.04484156
220	0x3cb0f314	0.021600284
221	0x3dc6017d	0.096682526
222	0x3d82aa19	0.063801
223	0xbdca8d9b	-0.0989029
224	0x3d885568	0.06656915
225	0x3dc72963	0.09724691
226	0xbda14ecb	-0.07876357
227	0xbdbce8b2	-0.092240706
228	0x3d1e15f7	0.038595166
229	0x3d14f9ef	0.036371168
230	0xbdde80d6	-0.10864417
231	0x3cfdee13	0.030997312
232	0xbdc9a86e	-0.098465785
233	0xbdfa4b2f	-0.122213714
234	0xbd03fed7	-0.032225456
235	0x3ddd2d47	0.107996516
236	0xbd831755	-0.064009346
237	0xbc6a24ff	-0.014291047
238	0xbdb5ec57	-0.08882969
239	0xbddfea55	-0.10933367
240	0x3daef023	0.08541896
241	0x3d9c84aa	0.07642491
242	0x3d11a2a8	0.03555551
243	0xbcb389a7	-0.021916224
244	0x3d53406c	0.05157511
245	0x3db1a433	0.08673897
246	0xbca99fc2	-0.020706061
247	0x3dfe4b30	0.12416685
248	0xbdd13699	-0.10215492
249	0x3dbd3ac8	0.09239727
250	0x3b9dac8c	0.004811829
251	0xbdc05d8f	-0.09392845
252	0xbdc6ac88	-0.097008765
253	0xbc87e6b8	-0.016589507
254	0x3de7f4a4	0.11325958
255	0x3d7f02b2	0.06225843

lstm.bias_ih_l0 f4 [256]
0	0x3d7f8667	0.062384035
1	0xbcaa4d55	-0.020788828
2	0xbda1cd1b	-0.07900449
3	0xbd9752d4	-0.07388845
4	0xbcdf7a03	-0.02727986
5	0x3dbd41a0	0.092410326
6	0x3c0e9cd6	0.008704385
7	0xbd470171	-0.04858536
8	0x3bc41d11	0.0059849103
9	0xbdcd7666	-0.10032348
10	0xbcfc6e6d	-0.030814374
11	0xbd784d95	-0.060620863
12	0x3dc47f2f	0.09594571
13	0xbe001913	-0.12509565
14	0xbdb3e3df	-0.08783697
15	0x3d9d0fdf	0.07669043
16	0xbdb17be7	-0.086662106
17	0xbd964b0f	-0.07338535
18	0xb994606a	-0.00028300594
19	0x3d157d7b	0.03649662
20	0xbdbb8d0c	-0.09157762
21	0x3dc10ba9	0.09426052
22	0xbd8f6537	-0.07001727
23	0xbc66ceb4	-0.014087368
24	0xbddb7038	-0.107147634
25	0x3d22e7fc	0.03977202
26	0xbcc163ab	-0.023607096
27	0x3c215acd	0.009848309
28	0xbd07e99e	-0.03318178
29	0x3b7185cc	0.003685343
30	0x3dd3cae3	0.10341432
31	0xbddafe86	-0.10693078
32	0x3b52e181	0.0032177868
33	0x3c51a000	0.012794495
34	0x3d78e38b	0.060763877
35	0xbd5feafd	-0.05466746
36	0xbd19a41e	-0.03751003
37	0xbba8baed	-0.0051492364
38	0x3df312d1	0.11868823
39	0x3df6ba95	0.120473064
40	0x3d8af35e	0.067847
41	0x3ca0e72a	0.019641478
42	0xbba5f7a4	-0.0050649215
43	0xbdc30c3b	-0.09523817
44	0x3d50db26	0.050990246
45	0x3ae1e24b	0.0017233578
46	0xbd225c92	-0.039639063
47	0x3dd72caa	0.10506566
48	0x3cc457f4	0.02396772
49	0x3d0af3d6	0.033923946
50	0xbd0dece2	-0.034649737
51	0xbdad6f75	-0.08468524
52	0x3dc74290	0.09729493
53	0xbdc0218a	-0.09381397
54	0x3c5b5847	0.013387746
55	0xbc298236	-0.010345986
56	0x3c62541d	0.0138139995
57	0xbab764b1	-0.00139918
58	0x3d5c54f9	0.053791974
59	0x3d5536ec	0.05205433
60	0xbd528076	-0.05139204
61	0xbde0f3a2	-0.10983969
62	0xbdbfc91a	-0.09364529
63	0xbdb834e7	-0.08994465
64	0x3d6e05e2	0.05811108
65	0xbd512f63	-0.051070582
66	0xbdef86c3	-0.11695626
67	0xbdcfbc94	-0.1014339
68	0xbd0636c7	-0.032767083
69	0xbbc5fb36	-0.0060419096
70	0x3d3a6429	0.045505676
71	0x3e01152f	0.12605737
72	0x3dca65bf	0.09882688
73	0x3c2aa5fe	0.010415552
74	0x3d98951b	0.074503146
75	0xbbeabb2c	-0.007163426
76	0x3dd724af	0.10505044
77	0x3d451f95	0.048125822
78	0xbd033c54	-0.032039955
79	0xbb226195	-0.0024777402
80	0x3d4111e6	0.04713621
81	0xbd9281f7	-0.07153695
82	0xbda6bbf4	-0.08141318
83	0xbdf76b80	-0.12081051
84	0x3dcc8ae4	0.09987429
85	0xbd75995a	-0.0599607
86	0x3d0c61af	0.034272846
87	0x3dad7acc	0.08470687
88	0x3d790f48	0.06080559
89	0x3cf75896	0.030193608
90	0xbd67dec2	-0.056608923
91	0x3a88eddd	0.0010446865
92	0xbd2e3cd9	-0.042538498
93	0x3cbcb668	0.023036197
94	0x3d7177ea	0.05895225
95	0x3db1c450	0.08680022
96	0xbbc3e788	-0.0059785284
97	0xbcbdb9ec	-0.023159944
98	0xbdacbcd8	-0.084344566
99	0x3ca5c3b1	0.020234914
100	0xbd243113	-0.040085863
101	0x3d242616	0.040075384
102	0x3d113676	0.03545233
103	0x3d0b997b	0.034081917
104	0xbca86daf	-0.020560114
105	0xbd85b2e5	-0.06528262
106	0x3d6c22af	0.057650264
107	0xbd3e8939	-0.046517584
108	0x3d8df34f	0.06931173
109	0xbbea66b5	-0.007153357
110	0xbe00f282	-0.1259251
111	0xbd4f1e4e	-0.05056601
112	0x3dfa5394	0.122229725
113	0x3da940fd	0.08264349
114	0x3d2e9a69	0.042627726
115	0x3dbb1bf2	0.091361895
116	0x3da71457	0.081581764
117	0x3d34955f	0.044087764
118	0x3cf99063	0.030464357
119	0x3dd520fe	0.104066834
120	0xba4cb271	-0.0007808572
121	0xbd731423	-0.059345376
122	0xbd4460ab	-0.047943752
123	0x3d0461d0	0.032319844
124	0xbd9773fc	-0.07395169
125	0xbb6d1d56	-0.0036180816
126	0x3ca20a58	0.019780323
127	0x3dc47311	0.0959226
128	0xbd0f20c2	-0.03494335
129	0xbdb269e5	-0.08711604
130	0xbd067909	-0.032830272
131	0x3d91dc0b	0.07122048
132	0xbd2cdab0	-0.042200744
133	0xbd96d9c4	-0.07365754
134	0x3d581d4e	0.052762322
135	0xbd9ed846	-0.07756095
136	0x3d86be75	0.065792955
137	0xbd92b6ca	-0.071637705
138	0xbd4d3074	-0.050095037
139	0x3d1ac8fc	0.03778933
140	0xbdbffde7	-0.093746
141	0xbc8c5a6d	-0.017132962
142	0xbd9365bf	-0.07197141
143	0xbd823031	-0.06356848
144	0xbdcd2839	-0.100174375
145	0x3d863655	0.06553332
146	0xbdb2fdba	-0.08739801
147	0x3d407efc	0.0469961
148	0x3d7e6c49	0.062114988
149	0x3dfd484a	0.12367304
150	0xbd568e62	-0.05238188
151	0xbdde8205	-0.10864643
152	0xbda04b92	-0.07826914
153	0x3d9ba5f6	0.07600014
154	0xbcb0d837	-0.021587474
155	0xbd82c375	-0.06384937
156	0xbd782187	-0.06057885
157	0x3df81ade	0.121144995
158	0x3db72953	0.08943429
159	0xbc117800	-0.008878708
160	0x3de199d1	0.11015666
161	0xbd1e5e47	-0.03866413
162	0x3cd18a18	0.025578544
163	0xbde30bab	-0.1108621
164	0x3dc84f23	0.09780719
165	0xbc4d6a7d	-0.012537596
166	0xbcd90853	-0.026493227
167	0xbd9b2ed8	-0.07577294
168	0xbdf5ee3f	-0.120083325
169	0xbd915d84	-0.07097915
170	0xbdf69f7c	-0.12042138
171	0xbb941977	-0.004519637
172	0x3d9a57a3	0.07536247
173	0x3d0d749b	0.03453503
174	0x3dc3b764	0.09556463
175	0x3d804d56	0.06264751
176	0x3d0128ca	0.03153304
177	0xbdb46bfb	-0.08809658
178	0xbde38b42	-0.11110546
179	0x3c9efd26	0.01940782
180	0x3af96b62	0.0019029195
181	0xbcc12347	-0.023576392
182	0xbce4f764	-0.027949996
183	0x3cf1d060	0.029518306
184	0xbd827dd4	-0.06371656
185	0x3c902e28	0.017600134
186	0xbc564a55	-0.013079246
187	0xbd94c3ed	-0.072639324
188	0x3d67e498	0.05661449
189	0xbd8224a6	-0.063546464
190	0xbdf68b0b	-0.12038239
191	0x3db6b2e7	0.08920842
192	0x3dad48de	0.08461164
193	0xbdfaefec	-0.12252793
194	0x3da72550	0.08161414
195	0xbcd944e9	-0.026522117
196	0xbc6d88ef	-0.01449798
197	0xbbf18a06	-0.00737119
198	0x3dc7ad87	0.097498946
199	0x3daca4cd	0.08429871
200	0x3c3817df	0.01123616
201	0x3dde0119	0.10840053
202	0xbd8daf19	-0.06918163
203	0x3d0c9a05	0.034326572
204	0x3dce951c	0.10087034
205	0xbde291a7	-0.11062937
206	0xbd91b3b7	-0.07114356
207	0xbdfc2809	-0.123123236
208	0xbbcab117	-0.0061856615
209	0x3c18c1d8	0.00932356
210	0x3d1db052	0.03849823
211	0xbd288fc8	-0.041152745
212	0x3d94d082	0.07266332
213	0x3dd42958	0.10359448
214	0xbd463995	-0.04839476
215	0xbca59f1f	-0.020217476
216	0x3de9d2c5	0.11417154
217	0x3d7d8190	0.06189114
218	0x3c6cfcfc	0.014464613
219	0xbd2c1b1e	-0.04201805
220	0x3dbc52dd	0.091954924
221	0x3d4370be	0.04771494
222	0x3c33bac7	0.010969824
223	0xbe004c09	-0.12529005
224	0x3d8946b1	0.067029364
225	0x3df71996	0.12065427
226	0x3de3ba53	0.11119523
227	0x3c822aab	0.015889486
228	0x3dd2830e	0.10278903
229	0xbd41d0f8	-0.04731843
230	0xbd53d6c9	-0.051718507
231	0xbd892a28	-0.06697494
232	0x3c5fdd37	0.013663582
233	0x3dae0c00	0.084983826
234	0xbceb04b0	-0.028688759
235	0xbde001ba	-0.10937829
236	0x3df94f4a	0.12173326
237	0xbd13465e	-0.03595578
238	0xbc3ce46f	-0.011529072
239	0x3dd88aae	0.10573326
240	0x3cfc23b4	0.030778743
241	0x3d0f92e2	0.035052188
242	0x3cc44a14	0.023961104
243	0xbdec9827	-0.11552458
244	0x3d61d6b3	0.055136394
245	0x3dc8fbb8	0.098136365
246	0xbca5b9c6	-0.020230185
247	0x3cea8095	0.028625766
248	0x3d531608	0.051534683
249	0xbdb3c64e	-0.08778058
250	0xbd0562fc	-0.032565102
251	0x3dc47c7d	0.09594057
252	0x3c35b6d7	0.011090956
253	0xbdbacaa8	-0.09120685
254	0x3dfc11ee	0.12308107
255	0xbdde217d	-0.10846231

lstm.bias_hh_l0 f4 [256]
0	0xbd2a9975	-0.041650254
1	0x3db6c83c	0.089249104
2	0xbc92106a	-0.017830092
3	0xbda80c84	-0.08205512
4	0xbd434234	-0.047670558
5	0x3dd3522c	0.103184074
6	0x3d5473ed	0.051868368
7	0x3d523bf3	0.051326703
8	0xbda931aa	-0.08261426
9	0x3df53cfa	0.11974521
10	0x3dca7522	0.098856226
11	0x3d306c9f	0.04307234
12	0xbdba8eb1	-0.091092475
13	0x3c0d6c82	0.008631827
14	0x3d439fcd	0.04775982
15	0x3d6bc6ff	0.057562824
16	0x3da93805	0.08262638
17	0xbd93d91f	-0.07219147
18	0x3c847aed	0.016171897
19	0x3defb423	0.1170428
20	0x3d58a5f8	0.052892655
21	0xbda7fd4d	-0.0820261
22	0xbd834975	-0.06410495
23	0x3d98066a	0.074230984
24	0x3cfbe4d9	0.030748772
25	0xbcfb76bb	-0.030696264
26	0xbdbd715b	-0.092501365
27	0x3d955cbe	0.0729308
28	0xbd712c06	-0.058879875
29	0x3c0be313	0.008538025
30	0x3d97ebbf	0.07418012
31	0xbd92be32	-0.07165183
32	0x3d6c312e	0.05766409
33	0x3cbf1c05	0.02332879
34	0x3dcac195	0.09900204
35	0xbdc28630	-0.094982505
36	0x3c2309e1	0.009951086
37	0x3d4d3de4	0.05010785
38	0x3cb991b3	0.022652483
39	0x3d813823	0.06309535
40	0xbc95a1ad	-0.01826557
41	0xbd4c672e	-0.049903087
42	0xbd60b929	-0.054864082
43	0xbcac6b29	-0.021047192
44	0x3d06a8ae	0.03287571
45	0x3d4f57ff	0.05062103
46	0xb998458c	-0.00029043516
47	0xbd23c8cb	-0.039986413
48	0x3c0566a9	0.008142152
49	0xbdd43122	-0.10360934
50	0x3db9553d	0.09049461
51	0x3d6fe9a2	0.05857242
52	0xbd27bddf	-0.04095256
53	0xbd613e0a	-0.054990806
54	0xbd9a43ad	-0.075324394
55	0x3df11f4e	0.11773549
56	0xbd85bcd4	-0.06530157
57	0xbdf48f97	-0.1194145
58	0x3dc89b42	0.09795238
59	0xbcc1fef4	-0.023681141
60	0x3cf771e2	0.03020567
61	0x3df12652	0.11774887
62	0xbdfb53d6	-0.1227185
63	0x3d606866	0.054787062
64	0x3d210d32	0.039319225
65	0xbd957000	-0.07296753
66	0x3ce39dcd	0.027785206
67	0xbd9600ba	-0.07324357
68	0xbc8d515f	-0.017250715
69	0xbd9e35f5	-0.07725135
70	0xbd4ee9d3	-0.05051596
71	0xbca20a65	-0.019780347
72	0xbdd2ed13	-0.102991246
73	0x3d03eac3	0.032206308
74	0x3da04139	0.0782494
75	0xbdfa30ae	-0.12216316
76	0x3dc6165d	0.09672234
77	0x3da3bd11	0.07995046
78	0xbd9937d4	-0.074813515
79	0x3d41e101	0.04733372
80	0xbd3b9b3e	-0.045802347
81	0xbc802ca6	-0.01564629
82	0xbd82bc00	-0.063835144
83	0xbdaa5e0c	-0.08318719
84	0xbddba50c	-0.107248396
85	0x3ca56dce	0.02019396
86	0xbda80490	-0.08203995
87	0xbd967166	-0.07345848
88	0xbd1702b4	-0.036867812
89	0x3d2885e8	0.041143328
90	0xbd219c02	-0.03945542
91	0x3b8ef6d5	0.0043629208
92	0xbdd05d12	-0.10174002
93	0x3daf2be1	0.08553291
94	0xbcd83d30	-0.026396364
95	0x3d73ae77	0.059492555
96	0xbce80145	-0.028320918
97	0xbdafb9e3	-0.08580377
98	0xbdd129b0	-0.102130294
99	0x3da654c3	0.08121636
100	0xbdea3bf6	-0.11437218
101	0xbda64187	-0.08117967
102	0xbd3da92a	-0.046303906
103	0xbb1773c0	-0.0023109764
104	0x3d1fbdb5	0.038999278
105	0xbcd506d7	-0.026004238
106	0xbdb8a979	-0.09016699
107	0x3dc644cb	0.0968109
108	0x3d1ce193	0.03830106
109	0xbdf75318	-0.12076396
110	0x3d024715	0.03180607
111	0x3dbc2697	0.09187048
112	0xbdf91150	-0.12161505
113	0xbad43472	-0.0016189946
114	0x3d85a08e	0.06524764
115	0xbd8914b2	-0.066934004
116	0x3d5fd579	0.054646943
117	0xbdfa7577	-0.12229436
118	0x3da34194	0.079714924
119	0x3d33c95d	0.043893207
120	0xbd7e83b2	-0.062137313
121	0x3d9da361	0.07697178
122	0x3d31a6b1	0.04337186
123	0xba61afce	-0.0008609266
124	0x3d26b16f	0.040696558
125	0x3d63c962	0.055611975
126	0x3cbd56f8	0.023112759
127	0x3c273600	0.010205746
128	0x3de3ec3a	0.11129041
129	0x3a877052	0.0010333157
130	0x3d9883d6	0.07447021
131	0x3c9b1760	0.018932045
132	0xbdde39b8	-0.10850853
133	0xbe008dbe	-0.1255407
134	0x3db03317	0.086034946
135	0x3d2c20cf	0.042023476
136	0x3da9e455	0.08295504
137	0x3dee099c	0.116229266
138	0x3d87963b	0.06620451
139	0xbd2f49bc	-0.042794928
140	0xbd8c6b5f	-0.06856417
141	0xbd8cd5bb	-0.06876703
142	0xbde6cc85	-0.11269478
143	0x3d6285f6	0.055303536
144	0xbd813d7b	-0.063105546
145	0xbd301c15	-0.04299553
146	0xbdb09ff8	-0.086242616
147	0xbcee967f	-0.029124497
148	0xbb272f92	-0.0025510532
149	0x3de83e3e	0.11339997
150	0x3da5c872	0.080948725
151	0xbd31c64a	-0.043401994
152	0xbdb75dd0	-0.0895344
153	0x3d9e6d98	0.07735747
154	0x3d5fc966	0.054635428
155	0xbdbe7d1d	-0.09301207
156	0xbcf5b836	-0.029995065
157	0x3da42930	0.080156684
158	0x3dc66827	0.09687834
159	0xbdfd61f6	-0.123722
160	0x3c992245	0.018693099
161	0x3cdb0488	0.02673556
162	0xbd7c566e	-0.061605863
163	0xbd4e32bb	-0.05034135
164	0x3dd100f9	0.10205264
165	0xbd4b501d	-0.04963695
166	0x3d1545cf	0.036443528
167	0x3cc6a528	0.024248675
168	0x3d4d6fe3	0.05015553
169	0xbd97c5fa	-0.07410808
170	0x3cdcc444	0.026949055
171	0x3db35b3e	0.087576374
172	0xbd05780f	-0.0325852
173	0x3c9075bb	0.017634263
174	0x3c6df024	0.014522586
175	0xbb46c53f	-0.003032997
176	0x3dd93ee4	0.106076986
177	0x3d5a20e0	0.05325401
178	0xbd196f3a	-0.03745959
179	0x3dfd00d3	0.12353673
180	0x3dad486d	0.0846108
181	0xbde46169	-0.11151392
182	0xbcb511a4	-0.022103138
183	0xbc8bbf58	-0.017059013
184	0x3c8b596e	0.017010417
185	0xbdbade9f	-0.09124493
186	0xbc0a6cc5	-0.008448784
187	0x3ddb30e1	0.10702682
188	0x3b9c9c9a	0.0047794105
189	0xbca1bbf7	-0.019742949
190	0x3d0ef2a6	0.034899376
191	0xbd6b9a3e	-0.057520144
192	0x3dc2b624	0.09507397
193	0xbc07d10a	-0.008289585
194	0xbd4e6c03	-0.050395977
195	0xbd212b01	-0.039347652
196	0xbc9d8675	-0.019229153
197	0x3d8909f0	0.066913486
198	0x3dbbf1c7	0.09176975
199	0x3db7c187	0.08972459
200	0x3d28f611	0.041250292
201	0x3cf314e9	0.029673057
202	0x3da20e2b	0.079128586
203	0x3d28d1c5	0.041215677
204	0x3d85aba6	0.0652688
205	0x3d9978d1	0.07493747
206	0x3dd6b5e7	0.10483914
207	0x3cb46335	0.022019962
208	0xbd0fbd12	-0.03509242
209	0xbd49d7c2	-0.04927803
210	0xbdae781f	-0.08519005
211	0xbc616485	-0.013756876
212	0xbce56faf	-0.028007356
213	0xbb9ad239	-0.0047247675
214	0x3d855977	0.06511205
215	0xbc80d217	-0.015725179
216	0xbd933819	-0.07188434
217	0xbd418d50	-0.047253907
218	0xbdf42658	-0.11921376
219	0xbceec945	-0.029148707
220	0x3cfdd5ee	0.030985799
221	0xbdfab070	-0.12240684
222	0xbca8087b	-0.020511856
223	0xbd92131a	-0.071325496
224	0x3d9f4df9	0.07778544
225	0xbdc6b7a6	-0.09702997
226	0xbd2705ea	-0.040777124
227	0x3bf9c548	0.0076223947
228	0xbdd170d0	-0.102265954
229	0xbd812183	-0.0630522
230	0x3bf5554a	0.007486974
231	0x3dbdf584	0.09275344
232	0xbc8e2bc2	-0.01735485
233	0x3d336e62	0.04380644
234	0xbdec7006	-0.11544804
235	0x3d974d0a	0.07387741
236	0x3dab70b6	0.08371107
237	0x3cb38fc8	0.021919146
238	0xbdc2fd11	-0.09520925
239	0xbcd0d980	-0.025494337
240	0xbdbe8995	-0.093035854
241	0x3c370add	0.011172024
242	0x3dff230b	0.12457856
243	0xbdb28927	-0.08717566
244	0xbd18b005	-0.03727724
245	0x3d5fd5bd	0.054647196
246	0x3d478d3a	0.04871867
247	0xbddd6d21	-0.1081183
248	0x3dfdc610	0.12391293
249	0x3b81a70b	0.0039566807
250	0xbcff94cf	-0.031198887
251	0x3c71c725	0.014756952
252	0xbd8188bd	-0.06324909
253	0x3ca648db	0.020298412
254	0x3dcd07ac	0.10011229
255	0xbdf07c11	-0.11742414

lstm.weight_ih_l1 f4 [256, 64]
0	0x3d8bd1d3	0.0682713
1	0xbd8d95bb	-0.069133244
2	0xbd17a770	-0.037024915
3	0x3d3bbcae	0.045834236
4	0x3db2f3ea	0.08737929
5	0x3d81af45	0.06332258
6	0x3d4e18f4	0.050316766
7	0xbc12ab47	-0.0089519685
8	0x3cf83909	0.030300634
9	0x3d98fa99	0.07469673
10	0xbd800e64	-0.06252745
11	0xbdd580f9	-0.1042499
12	0x3dbc53ce	0.09195672
13	0x3dabfcf6	0.08397858
14	0x3db44a16	0.08803193
15	0x3cbea793	0.023273265
16	0x3dabdaef	0.08391368
17	0x3dc8cc20	0.09804559
18	0xbcf1ce56	-0.029517334
19	0x3dab6722	0.083692804
20	0xbdda151a	-0.10648556
21	0xbd1c294e	-0.03812533
22	0x3c72e386	0.014824754
23	0xbdc5d837	-0.0966038
24	0x3d81ec47	0.063438945
25	0x3d4608e9	0.04834834
26	0xbdf360c6	-0.118836924
27	0xbd722eb4	-0.05912657
28	0x3cb4e665	0.022082517
29	0x3d0c224b	0.03421239
30	0x3def74b7	0.116921835
31	0xbdb40166	-0.08789329
32	0x3df2fc7e	0.11864565
33	0xbd55a6fe	-0.05216121
34	0xbd0018b3	-0.031273555
35	0x3dd35c50	0.103203416
36	0x3c996e33	0.018729305
37	0xbd93138e	-0.07181464
38	0x3dc943bd	0.09827373
39	0x3dc403d7	0.09571045
40	0x3db81a2e	0.089893684
41	0x3d8ec77b	0.06971642
42	0x3db7eda9	0.08980877
43	0x3c2d7192	0.010586159
44	0x3d8058eb	0.0626696
45	0x3d0616fc	0.032736763
46	0xbde60df0	-0.11233127
47	0x3d48fcc1	0.04906917
48	0x3cea6310	0.02861169
49	0xbc67c045	-0.014144962
50	0x3c03da85	0.008047705
51	0xbdb8cce9	-0.090234585
52	0x3d6d370f	0.057913836
53	0xbd01ccc9	-0.03168944
54	0xbdee2978	-0.11629003
55	0xba1d3836	-0.0005997451
56	0x3d6093e1	0.05482853
57	0xbd8f6781	-0.07002164
58	0xbdc6d7b1	-0.097091086
59	0xbc030097	-0.007995746
60	0xbd97b336	-0.07407229
61	0x3daddec2	0.08489753
62	0xbde79bf4	-0.113090426
63	0xbcb87e4c	-0.02252116
64	0x3d858fcc	0.06521568
65	0x3ddb0aee	0.10695444
66	0x3da7167c	0.081585854
67	0xbe00087c	-0.12503237
68	0xbd60e44d	-0.054905225
69	0xbdbabeeb	-0.09118446
70	0xbdcb658a	-0.099314764
71	0xbd9e7362	-0.07736851
72	0x3cbe9e78	0.023268923
73	0x3d32a430	0.043613613
74	0x3d16970c	0.036765143
75	0x3db24f91	0.08706582
76	0x3b8d593c	0.004313616
77	0x3d631035	0.055435378
78	0x3dc68f7e	0.09695338
79	0x3cf890c7	0.030342473
80	0x3dc31e67	0.09527283
81	0x3b837976	0.004012282
82	0x3d361139	0.04445002
83	0xbc00e4e6	-0.007867074
84	0xbd845c6a	-0.06462939
85	0xbd98d6c4	-0.07462838
86	0x3cd722a9	0.026261644
87	0x3ddb36f7	0.10703843
88	0x3d5fa26f	0.054598268
89	0x3d257897	0.040398207
90	0xbd5584fd	-0.05212878
91	0xbdf0cdd5	-0.11758009
92	0xbd62de9a	-0.05538807
93	0xbd8d415b	-0.06897231
94	0xbc93731c	-0.017999224
95	0x3dc51d71	0.09624756
96	0x3db70c6a	0.08937915
97	0x3baef67a	0.005339441
98	0xbd3189e3	-0.04334439
99	0xbdbbc8e3	-0.091691755
100	0x3dae64eb	0.08515342
101	0x3da83aaf	0.08214318
102	0x3cf26704	0.029590137
103	0xbd7189a1	-0.058969144
104	0x3cad55b4	0.02115903
105	0xbcb1fea4	-0.021727867
106	0xbbbddb91	-0.0057939966
107	0x3d034a06	0.032053016
108	0xbc243e75	-0.010024657
109	0x3d9d5b14	0.076833874
110	0x3d94d42a	0.072670296
111	0xbd942464	-0.072335035
112	0xbb27d0a8	-0.0025606547
113	0xbce51efd	-0.027968878
114	0xbc0d45ab	-0.008622567
115	0x3cd72f8d	0.026267791
116	0xbdb85acd	-0.09001694
117	0xbcf1ea8b	-0.029530784
118	0x3d8c1b53	0.06841149
119	0xbda73f59	-0.081663795
120	0xbc46de3d	-0.012137947
121	0xbda59f54	-0.0808703
122	0xbcb0be91	-0.021575244
123	0xbd1db99c	-0.03850709
124	0x3df15364	0.117834836
125	0x3d24b7e4	0.040214434
126	0xbd2407f5	-0.04004665
127	0x3d74ecb5	0.059796054
128	0xbd8efd9a	-0.069819644
129	0xbdd90a96	-0.10597722
130	0x3df92da4	0.121669084
131	0x3dac2edc	0.08407375
132	0xbd741616	-0.059591375
133	0xbaa9405c	-0.0012912857
134	0x3da20896	0.07911794
135	0x3d93d686	0.072186515
136	0x3d002331	0.03128356
137	0x3dbc50cc	0.09195098
138	0xbde3fe71	-0.11132515
139	0x3decb371	0.11557663
140	0x3d88e964	0.06685141
141	0xbdfd9aff	-0.12383079
142	0x3d41e8ed	0.047341276
143	0x3df2a212	0.11847319
144	0x3d16fa52	0.036859818
145	0xbca44c75	-0.020055989
146	0x3dda9e18	0.10674685
147	0x3dddbcfc	0.108270615
148	0x3b131910	0.0022445358
149	0xbda97eba	-0.08276124
150	0xbdc95888	-0.09831339
151	0xbdd87b9d	-0.10570452
152	0xbbe6b257	-0.0070403027
153	0x3c200b9b	0.009768392
154	0xbd129978	-0.03579089
155	0x3d7f9d0c	0.06240563
156	0xbdd1586f	-0.102219455
157	0x3da72bdc	0.081626624
158	0x3cfadeb5	0.030623773
159	0xbda5f036	-0.08102457
160	0x3d402609	0.046911273
161	0xbdf2a0e9	-0.118470974
162	0x3ddc3e83	0.10754111
163	0xbd909392	-0.07059397
164	0xbd3efb78	-0.046626538
165	0xbde1baa8	-0.1102193
166	0xbd2f7dae	-0.042844467
167	0xbdf1b43f	-0.11801957
168	0xbdc4c9bd	-0.09608791
169	0xbaea73c7	-0.0017887288
170	0xbdad8535	-0.08472673
171	0xbd115890	-0.03548485
172	0x3c3fc714	0.011705179
173	0x3d754e7f	0.059889313
174	0xbc005734	-0.007833291
175	0xbddb7c2c	-0.10717043
176	0x3d12bfb4	0.035827354
177	0x3de9d214	0.11417022
178	0xbda224d4	-0.07917181
179	0x3d4941e5	0.049135108
180	0x3dcc1900	0.09965706
181	0xbd8e4aa9	-0.06947834
182	0xbde1d5ba	-0.11027093
183	0x3debc841	0.11512805
184	0xbcd34c6a	-0.025793273
185	0x3d28ea5a	0.04123912
186	0xbdf8d50d	-0.12150011
187	0x3c03c5d1	0.008042769
188	0xbd51e28e	-0.05124145
189	0x3dd2f614	0.10300842
190	0x3dfc2b4c	0.12312946
191	0xbdd93c67	-0.10607224
192	0xbd2835b0	-0.041066825
193	0x3d82474f	0.06361257
194	0x3e009b03	0.12559132
195	0xbde11a2e	-0.109913215
196	0x3c799e74	0.015235532
197	0xbd49ecc5	-0.049298067
198	0xbdf1fbe4	-0.118156224
199	0x3dc005fa	0.0937614
200	0xbd1910e5	-0.037369628
201	0x3c9d5dec	0.019209825
202	0x3ccf5cea	0.02531286
203	0x3d852c4b	0.06502589
204	0x3dd86d88	0.105677664
205	0xbda144ec	-0.07874474
206	0xbda4b201	-0.08041764
207	0x3d82ee03	0.063930534
208	0xbd8a6340	-0.06757212
209	0x3de18eb3	0.11013546
210	0xbdb0bb7f	-0.08629512
211	0x3de912e7	0.113805585
212	0xbca14959	-0.019688295
213	0xbb053443	-0.002032534
214	0xbd98929d	-0.07449839
215	0x3d87e614	0.06635681
216	0x3d160ccb	0.036633294
217	0x3d1e3b53	0.038630795
218	0x3d91ae39	0.071133085
219	0xbdd803e2	-0.105476156
220	0xbc0f5bf2	-0.008749949
221	0x3cf268dd	0.029591018
222	0xbd15e512	-0.03659541
223	0xbdb8fbe6	-0.09032421
224	0x3c5b01b8	0.013367109
225	0xbcfed639	-0.031108009
226	0x3d5616e2	0.052267917
227	0xbda7b6f7	-0.08189195
228	0x3b3e8e8b	0.0029076661
229	0xbb30fc94	-0.0027006017
230	0xbdca0dda	-0.09865923
231	0x3df3c1ce	0.119022
232	0xbdfcbd26	-0.12340765
233	0x3e00e657	0.12587868
234	0xbdb234df	-0.087014906
235	0xbc93b03a	-0.018028367
236	0xbddf0e14	-0.10891357
237	0xbda6be72	-0.08141793
238	0x3d06c3d0	0.032901585
239	0x3df3af76	0.11898701
240	0x3cab8235	0.020936111
241	0x3dde1203	0.10843279
242	0xbd8f411a	-0.06994839
243	0x3d8cf030	0.0688175
244	0xbddfe3dd	-0.10932133
245	0xbd59e987	-0.053201225
246	0x3dc228d9	0.09480447
247	0xbcac2bb2	-0.02101693
248	0xbcaf454c	-0.021395348
249	0x3cea25e8	0.028582528
250	0xbdacc4c7	-0.0843597
251	0x3a1b2371	0.0005918062
252	0x3d2579bb	0.040399294
253	0x3d76f13e	0.06028866
254	0x3d152f3d	0.036422003
255	0xbcbb00b3	-0.022827482

lstm.weight_hh_l1 f4 [256, 64]
0	0x3d89aad0	0.06722033
1	0xbdf77ad2	-0.12083973
2	0x3d0b8587	0.03406289
3	0xbd8bdef5	-0.06829635
4	0x3d1fbecd	0.03900032
5	0xbd061344	-0.032733217
6	0x3c8b5dba	0.017012466
7	0xbdcdad41	-0.10042811
8	0xbdc419a0	-0.095752
9	0xbd85e7f6	-0.06538384
10	0x3d684b8a	0.056712665
11	0xbdf69ac8	-0.12041241
12	0xbd0c166f	-0.03420108
13	0x3dd70cae	0.10500465
14	0x3cb7daab	0.022443136
15	0x3d6407b0	0.055671394
16	0x3c793e0a	0.015212545
17	0xbd4d65dc	-0.05014597
18	0x3c60e338	0.013726048
19	0x3d512756	0.051062904
20	0xbdb17dd1	-0.08666576
21	0x3dd5a420	0.10431695
22	0xbddc56b0	-0.10758722
23	0xbc7c58a7	-0.015401996
24	0x3db4a321	0.08820177
25	0xbdce9dd3	-0.10088696
26	0x3dd70816	0.10499589
27	0xbd75932c	-0.059954807
28	0x3dbffed8	0.093747795
29	0xbdaf8ee5	-0.08572177
30	0x3da2daaf	0.07951867
31	0x3c7a53ae	0.01527874
32	0xbd9870e9	-0.07443411
33	0xbd7206c1	-0.059088472
34	0x3dda1fa6	0.10650568
35	0xbd3557fc	-0.04427336
36	0xbc3540ad	-0.011062783
37	0x3d8b5c3c	0.06804702
38	0xbd4f4efc	-0.050612435
39	0x3d98b0c8	0.07455593
40	0x3cb93be8	0.022611573
41	0x3dc0158f	0.09379112
42	0x3b9a1738	0.004702475
43	0x3d1afa12	0.037836142
44	0x3c9128bb	0.017719617
45	0xbc559074	-0.013034929
46	0x3d099c5a	0.033596374
47	0x3d8f8603	0.070079826
48	0x3b2253ea	0.0024769255
49	0x3dbe9f82	0.093077675
50	0x3dff61ab	0.124698006
51	0xbd240ecb	-0.04005317
52	0xbc69113c	-0.0142253
53	0x3d215bfd	0.039394367
54	0x3d80b435	0.06284372
55	0xbdcfda0c	-0.10149011
56	0x3d879fc9	0.066222735
57	0xbbf299c7	-0.0074035856
58	0xbdc5f9eb	-0.09666809
59	0xbd3ea285	-0.04654171
60	0xbcf6ae0d	-0.03011229
61	0xbde42b9d	-0.11141131
62	0xbdcf30ac	-0.10116705
63	0x3dfc85e5	0.12330226
64	0x3da7da39	0.081959195
65	0x3dead260	0.11465907
66	0x3ce79034	0.028267004
67	0xbdd674c9	-0.10471494
68	0x3c9260e2	0.017868463
69	0xbdbd5304	-0.092443496
70	0x3db350b0	0.08755624
71	0x3b8c9bb0	0.0042910203
72	0x3d61ad3d	0.055096854
73	0xbd0fbe68	-0.035093695
74	0xbb226e52	-0.0024784994
75	0x3cc48149	0.02398743
76	0x3d8a7dcf	0.06762277
77	0x3d26479e	0.040595643
78	0x3df7bef2	0.12096967
79	0xbd5a19ff	-0.053247448
80	0xbdc5b459	-0.09653539
81	0x3df58ef4	0.11990157
82	0x3cbee305	0.02330161
83	0xbc4d0d7b	-0.012515421
84	0xbc3d01c3	-0.011536065
85	0x3d44623e	0.047945254
86	0x3cc0add6	0.023520391
87	0x3d4971ba	0.049180724
88	0x3d9c0771	0.07618607
89	0x3e0134b5	0.12617762
90	0x3d8411b1	0.06448687
91	0x3da86684	0.08222678
92	0xbd9f8d3f	-0.077906124
93	0xbd64f09d	-0.05589353
94	0x3d8429b0	0.06453264
95	0xbd7693f3	-0.06019969
96	0xbcda2f17	-0.026633782
97	0x3c6fc319	0.014633917
98	0xbd1b1c68	-0.037868887
99	0x3df0d094	0.11758533
100	0xbc0afd90	-0.008483306
101	0xbdb0d14e	-0.08633672
102	0x3d169c27	0.036770012
103	0xbdcba4be	-0.099435315
104	0x3d88c2bb	0.06677767
105	0xbd179400	-0.03700638
106	0x3dd047c8	0.10169941
107	0x3de96490	0.11396134
108	0x3db2bc46	0.087273166
109	0xbc887392	-0.01665667
110	0xbd8ec6ae	-0.06971489
111	0xbc8932fa	-0.01674794
112	0x3db15bc2	0.086600795
113	0x3d5a055e	0.053227775
114	0x3dfca953	0.123369835
115	0x3d1d2ef9	0.038374875
116	0x3d76297f	0.060098168
117	0xbb1046ae	-0.0022014785
118	0xbd8f4728	-0.06995994
119	0x3dc5ce7f	0.09658527
120	0xbdcaef10	-0.09908879
121	0xbdf5906b	-0.11990436
122	0xbdf48145	-0.11938719
123	0xbcccdc74	-0.025007464
124	0x3dfb871f	0.12281632
125	0xbdadea17	-0.08491915
126	0x3d0b0788	0.03394273
127	0xbd1bf116	-0.038071714
128	0xbcc127be	-0.02357852
129	0x3b648f8c	0.00348756
130	0xbc153051	-0.009105758
131	0xbdfe8dc8	-0.124293864
132	0xbdea3891	-0.114365704
133	0x3da91aa1	0.08257032
134	0xbd9a3437	-0.075294904
135	0xbba6aced	-0.0050865323
136	0xbd651b65	-0.05593433
137	0x3db2b64d	0.08726177
138	0x3d924291	0.07141603
139	0x3cdf817b	0.02728342
140	0xba3a854d	-0.00071152
141	0xbd8c1a3a	-0.0684094
142	0xbdf04d2a	-0.11733468
143	0xbd9fe686	-0.07807641
144	0x3db572eb	0.088598095
145	0x3ba373e0	0.0049881786
146	0x3df95f97	0.121764354
147	0xba52a271	-0.000803507
148	0x3d7faf43	0.062423002
149	0x3dda2344	0.10651258
150	0x3df9a65e	0.12189935
151	0xbcb5858a	-0.022158403
152	0x3dd2f2e0	0.10300231
153	0xbc9e4aee	-0.019322839
154	0x3d49e5fc	0.049291596
155	0x3de5b715	0.11216561
156	0x3de1e52e	0.11030041
157	0xbdeab6ea	-0.11460669
158	0x3dc61bde	0.09673284
159	0xbd94f101	-0.0727253
160	0xbdf935d7	-0.12168472
161	0xbdcee541	-0.101023205
162	0xbdf8c0c1	-0.1214614
163	0x3da284b5	0.07935468
164	0x3d993c68	0.07482225
165	0xbca65d37	-0.02030812
166	0xbd66a6ac	-0.056311294
167	0x3df2fabf	0.11864232
168	0xbd244932	-0.040108867
169	0xbdeac8a1	-0.11464048
170	0x3d4fae96	0.050703607
171	0x3c3c6af7	0.011500112
172	0x3be07039	0.0068493155
173	0xbd89d512	-0.06730093
174	0x3c01d566	0.007924413
175	0xbd04dc9e	-0.03243696
176	0x3dc98630	0.09840047
177	0x3d197f01	0.037474636
178	0x3def16ba	0.116742566
179	0x3d244bab	0.040111225
180	0xbd9d8ffa	-0.07693477
181	0x3d6180ec	0.05505459
182	0x3dbd5811	0.09245313
183	0xbd68df7f	-0.056853767
184	0xbdacf27b	-0.08444687
185	0xbd6b3d59	-0.057431553
186	0x3d8f0901	0.06984139
187	0x3d02503b	0.031814795
188	0x3dbc36ad	0.09190116
189	0x3db25709	0.08708007
190	0x3dfe8de0	0.12429404
191	0x3d8ad546	0.0677896
192	0x3dc62893	0.09675708
193	0xbda9bac2	-0.08287574
194	0xbc2c6660	-0.010522455
195	0xbdafadbd	-0.0857806
196	0xbc8fc91d	-0.017551953
197	0x3dc932b1	0.09824122
198	0x3dcc8ba8	0.09987575
199	0xbdb58c79	-0.08864684
200	0xbd44f3ea	-0.048084177
201	0x3c2f85e3	0.010713073
202	0xbd1f3dae	-0.03887718
203	0x3d2827b9	0.041053507
204	0x3dc914cb	0.09818419
205	0x3ddee3f7	0.108833246
206	0x3dd6cb87	0.104880385
207	0x3d463d34	0.04839821
208	0x3dd049a1	0.101702936
209	0xbd04195a	-0.03225074
210	0x3d92bdb2	0.07165088
211	0x3cde5157	0.027138395
212	0xbdfa3cdd	-0.1221864
213	0xbde11345	-0.109900035
214	0xbbc54f01	-0.006021381
215	0x3d484a17	0.048898783
216	0xbd9a81c1	-0.0754428
217	0xbd959e41	-0.07305575
218	0x3cb15cbb	0.021650663
219	0xbce1c0f5	-0.02755783
220	0x3d91673a	0.07099767
221	0xbddbb21f	-0.10727333
222	0x3d9bdca7	0.076104455
223	0xbde2ee1d	-0.11080573
224	0xbd9b466f	-0.075817935
225	0xbccfd729	-0.025371151
226	0x3dcc001f	0.099609606
227	0xbc0683c3	-0.008210125
228	0xbd6e0fd3	-0.05812056
229	0xbd20f6d3	-0.03929789
230	0xbde5e2b8	-0.11224884
231	0x3ce05671	0.027384968
232	0xbdbfa2ef	-0.09357249
233	0x3d96db7d	0.07366083
234	0x3d0c12c4	0.034197584
235	0xbdb5e84c	-0.08882198
236	0xbdf166cd	-0.11787186
237	0xbcad0d72	-0.021124575
238	0xbc2674c1	-0.010159672
239	0x3d646533	0.055760574
240	0x3de6fef5	0.11279098
241	0xbca0c96a	-0.019627292
242	0x3dd7b055	0.105316795
243	0xbd5ef57a	-0.054433323
244	0x3dc9a824	0.098465234
245	0xbd3ddd8f	-0.046353873
246	0x3d8a553e	0.0675454
247	0xbde2c84d	-0.110733606
248	0xbde4c65f	-0.11170649
249	0xbd6b1328	-0.057391316
250	0xbddf4d3c	-0.10903403
251	0xbdcad81d	-0.099045016
252	0x3d994064	0.07482985
253	0xbde92675	-0.11384288
254	0x3de11c43	0.109917186
255	0x3d79f8dc	0.061028346

lstm.bias_ih_l1 f4 [256]
0	0x3c659b6e	0.014014108
1	0x3d79b67f	0.060965057
2	0xbdcb78e3	-0.09935167
3	0xbd83ab6f	-0.06429183
4	0xbd74efd6	-0.059799038
5	0xbde2239b	-0.110419475
6	0x3b055597	0.0020345205
7	0x3df27937	0.11839526
8	0xbba55c73	-0.005046421
9	0xbd8cd060	-0.06875682
10	0xbdf5898f	-0.11989128
11	0xbd542fa4	-0.051803246
12	0x3d80ebf0	0.062950015
13	0xbd733d7d	-0.05938481
14	0xbdb157c6	-0.086593196
15	0x3c1ae7cc	0.009454679
16	0x3d024c36	0.03181096
17	0x3d91bcff	0.07116126
18	0x3da95834	0.082687765
19	0x3d8f3a37	0.069935255
20	0xbdab010a	-0.083498076
21	0x3dda5b5e	0.10661958
22	0xbdee99f4	-0.11650458
23	0x3d972521	0.07380129
24	0xbdbffb79	-0.093741365
25	0xbcdf22a9	-0.027238207
26	0xbd8aab62	-0.0677097
27	0x3dc1c993	0.09462275
28	0xbd77dfab	-0.06051604
29	0x3d82a2d5	0.06378714
30	0x3d878222	0.06616618
31	0xbd80c94e	-0.06288396
32	0x3c8584a6	0.016298603
33	0x3ceda56f	0.029009549
34	0xbd0a4122	-0.03375352
35	0x3d3ff349	0.046862874
36	0xbdf8a054	-0.12139955
37	0xbdebcbe3	-0.11513498
38	0x3d37e77f	0.044898506
39	0x3d90c11a	0.07068081
40	0xbc85567a	-0.016276587
41	0x3e0045f5	0.12526686
42	0x3ce9d567	0.028544141
43	0xbdc31e5d	-0.09527276
44	0x396931d8	0.0002223918
45	0xbdd6a363	-0.10480382
46	0x3d1878b3	0.037224483
47	0x3db2f1a5	0.08737496
48	0x3d085319	0.033282373
49	0x3cad272e	0.021136846
50	0x3da143d4	0.07874265
51	0x3de966d5	0.11396567
52	0xbc5eaac1	-0.013590516
53	0x3dc7bf96	0.09753339
54	0xbdd84d0d	-0.10561571
55	0xbc2d7096	-0.010585925
56	0x3ddcdf4f	0.1078478
57	0x3ce24a79	0.027623402
58	0xbdca7115	-0.0988485
59	0xbc2c2cd3	-0.010508734
60	0xbdaf7391	-0.085669644
61	0xbdb5b057	-0.08871525
62	0x3d00ab66	0.03141346
63	0x3debb6b8	0.1150946
64	0x3cdc73f0	0.026910752
65	0x3de7c08e	0.11316024
66	0xbd94996d	-0.07255826
67	0xbddd4f92	-0.108061925
68	0xbd7192d3	-0.058977913
69	0xbd163863	-0.03667487
70	0x3d16b6cc	0.036795422
71	0x3dc81772	0.09770097
72	0x3d2893ba	0.041156508
73	0x3d930f10	0.07180607
74	0xbdeeaa09	-0.116535254
75	0x3dc90780	0.09815884
76	0x3b2d1f12	0.0026416224
77	0xbd783776	-0.060599767
78	0x3dbac334	0.09119263
79	0xbd245b5b	-0.040126186
80	0xbdf558fe	-0.119798645
81	0xbde74694	-0.112927586
82	0xbddd1bad	-0.10796294
83	0x3dc96513	0.098337315
84	0xbcb3eed3	-0.021964466
85	0xbd7af06d	-0.061264444
86	0xbdb9b3ab	-0.09067472
87	0xbd42a4b9	-0.047520373
88	0x3d2b8310	0.041873038
89	0xbdabae59	-0.083828636
90	0xbcbdf780	-0.023189306
91	0xbe000a39	-0.125039
92	0xbd6cfbc7	-0.0578573
93	0x3dbf6981	0.09346295
94	0xbd33c59f	-0.043889638
95	0xbdf82cb1	-0.12117899
96	0xbd7e2846	-0.062050126
97	0x3dee89d6	0.11647384
98	0x3c88a6d0	0.016681105
99	0x3c8bb478	0.017053828
100	0x3cb606d1	0.022220047
101	0x3dad8ec8	0.08474499
102	0x3db7f4a6	0.0898221
103	0x3d830d7b	0.063990556
104	0xbd720807	-0.059089687
105	0xbdd0f075	-0.102021135
106	0xbd37c625	-0.0448667
107	0x3bcdbb1d	0.006278409
108	0xbd630f0e	-0.05543428
109	0x3d913131	0.07089461
110	0xbdb3f239	-0.08786435
111	0x3cc683db	0.024232795
112	0xbda18c80	-0.078881264
113	0xbdade36c	-0.08490643
114	0x3debef54	0.115202576
115	0xbd9f2dac	-0.07772383
116	0xbdaaa630	-0.08332479
117	0x3d74c606	0.059759162
118	0xbd23fa3a	-0.040033557
119	0xbc823019	-0.015892075
120	0xbdb41caa	-0.0879453
121	0xbc4c8bf9	-0.012484544
122	0xbd6276dd	-0.055289138
123	0x3d8e51ff	0.06949233
124	0xbd76e58c	-0.060277507
125	0x3ddbfb0d	0.107412435
126	0xbb9a2a4a	-0.0047047483
127	0x3dce9e2f	0.10088765
128	0xbd491408	-0.04909137
129	0x3cc1b90d	0.02364781
130	0xbd4897cf	-0.0489729
131	0x3de43ed8	0.11144799
132	0x3da178c3	0.078843616
133	0x3ce5bae5	0.02804322
134	0x3dfc10b9	0.12307877
135	0x3bb0eb45	0.00539914
136	0xbd9f9cfa	-0.07793613
137	0x3c32c9fd	0.010912416
138	0xbd37a688	-0.04483655
139	0x3de9d896	0.114182636
140	0xbdf6f516	-0.12058465
141	0xbc808ebd	-0.015693063
142	0x3de4c821	0.11170984
143	0x3d514788	0.05109361
144	0xbd91278b	-0.0708762
145	0xbd9d296d	-0.07673917
146	0x3cec2aad	0.028828943
147	0x3d9f7d23	0.0778754
148	0x3dc7041b	0.0971758
149	0xbdfe1f9b	-0.12408372
150	0xbd238a6c	-0.03992693
151	0xbdd42e91	-0.10360444
152	0x3c9e1173	0.01929543
153	0x3d266927	0.040627625
154	0xbda83f1c	-0.08215162
155	0xbdad9695	-0.08475987
156	0xbddf0e34	-0.10891381
157	0x3c3f30af	0.011669322
158	0xbcb8d38f	-0.022561816
159	0xbca506a6	-0.020144772
160	0xbcacc64f	-0.021090655
161	0x3dcf2582	0.10114576
162	0xbd8786eb	-0.066175304
163	0x3dafdae4	0.08586672
164	0xbd808643	-0.062756084
165	0x3bf7e70b	0.0075653843
166	0xbdcb564c	-0.09928569
167	0xbd853f29	-0.065061875
168	0x3d00e562	0.031468756
169	0x3d504545	0.05084731
170	0xbdefd5aa	-0.11710675
171	0xbd6d5beb	-0.057948988
172	0xbbc581b3	-0.0060274242
173	0xbdf02e88	-0.11727625
174	0x3d9945e5	0.074840344
175	0xbdc206dc	-0.094739646
176	0xbc2e6aa3	-0.010645541
177	0x3da971f8	0.08273691
178	0x3dde20dc	0.10846111
179	0x3de72555	0.112864174
180	0xbdf8b0d8	-0.12143105
181	0x3dae9bd0	0.085258126
182	0xbda89a17	-0.08232515
183	0xbd060d6d	-0.032727648
184	0x3c4e830f	0.012604489
185	0xbd1ee0b7	-0.038788524
186	0xbdfae2b2	-0.1225027
187	0x3dee1c16	0.11626451
188	0x3d8403d0	0.0644604
189	0x3d23bc17	0.0399743
190	0xbdef634f	-0.116888635
191	0x3d8c2782	0.06843473
192	0x3c9ebc80	0.019376993
193	0x3dc29222	0.09500529
194	0xbd42647b	-0.047459107
195	0x3af725ef	0.001885591
196	0x3c801cb1	0.015638681
197	0xbd71ef0a	-0.059065856
198	0x3d058746	0.03259971
199	0x3c16c80f	0.009202971
200	0x3d9a87c7	0.07545429
201	0x3db7b17f	0.089694016
202	0xbdcb90c9	-0.09939725
203	0xbd849832	-0.064743415
204	0xbd84f462	-0.06491925
205	0x3dbab099	0.091157146
206	0xbcbe01a7	-0.023194147
207	0xbde2f050	-0.11080992
208	0x3d3e9e92	0.046537943
209	0xbdbf450e	-0.09339343
210	0xbdfb247b	-0.122628175
211	0x3dc022e5	0.093816556
212	0x3d704b68	0.058665663
213	0xbdb2dfda	-0.087341025
214	0x3d4be9d4	0.049783543
215	0xbda002fc	-0.07813069
216	0x3dfc3eec	0.12316689
217	0x3d1c143e	0.038105242
218	0x3c93e3cb	0.018052956
219	0x3daad0a4	0.08340576
220	0x3de78a0c	0.11305627
221	0xbd071bc4	-0.032985464
222	0x3dd2d71c	0.10294935
223	0xbde07a6c	-0.1096085
224	0xbdde67c2	-0.10859634
225	0x3cc18716	0.023623984
226	0x3ce01d5b	0.027357748
227	0xbb78e4f9	-0.0037978275
228	0xbde410cc	-0.11136016
229	0xbda16e63	-0.07882383
230	0x3dbaf0d1	0.09127963
231	0xbdc29f00	-0.09502983
232	0xbdedffc1	-0.11621047
233	0x3dd7bd32	0.10534133
234	0xbdd7d886	-0.105393454
235	0x3daea594	0.08527675
236	0x3d344c75	0.044018228
237	0x3d4e1f75	0.05032297
238	0x3de42a80	0.11140919
239	0xbdbd5354	-0.09244409
240	0x3cea8e4d	0.028632307
241	0xbd8cb019	-0.068695255
242	0x3d0c1abc	0.034205183
243	0x3de79401	0.113075264
244	0xbcf419be	-0.029797431
245	0xbdb0cec8	-0.086331904
246	0x3d0b5c7c	0.034023747
247	0x3d905a17	0.07048433
248	0xbb0fbd14	-0.0021932768
249	0x3d32986e	0.0436024
250	0xbdc0ad3f	-0.09408044
251	0x3dc3d05f	0.09561228
252	0x3d85d80d	0.06535349
253	0x3d89eaad	0.06734214
254	0xbd8fd98e	-0.07023917
255	0x3cb23448	0.021753445
