Personal/DACON/데이터·AI를 활용한 물가 예측 경진대회  농산물 가격을 중심으로/models/best_model_깐마늘(국산).pth (torch, 243448 bytes, 10 tensors)

lstm.weight_ih_l0 f4 [256, 38]
000000 80 4c 8b 3c 57 9d 0e bd 34 2f ff bd ca 97 c2 bd
       0.017004251 -0.03481802 -0.12460175 -0.09501608
000010 b7 2d 92 bd 85 8c df bd d8 29 aa bc 1d 14 b9 bd
       -0.07137626 -0.10915474 -0.020771906 -0.090370394
000020 36 51 24 3d 00 7a bf bc 6a a4 3d 3d 21 02 b0 bd
       0.04011651 -0.023373604 0.046299376 -0.08594156
000030 7e a5 6a bd 80 0e 90 3d be 2c f7 bd d6 3d d1 bd
       -0.057286732 0.07034016 -0.12069081 -0.102168724
000040 4f 62 59 bd c7 11 c5 bc 1e 28 b4 bc 3c f8 ac bd
       -0.05307227 -0.024056328 -0.021991786 -0.084457844
000050 e6 4d be bd ba fb f2 3d 5c f7 d0 3d 87 59 bc bd
       -0.09292202 0.11864419 0.1020343 -0.091967635
000060 5d 84 8a 3d 80 8d 78 3d e2 9f bf bb 8c 14 ef bd
       0.067635275 0.06068182 -0.005847917 -0.11673841
000070 49 b4 b8 3d c6 4a 0a bd d4 b9 c4 bd 3c bd b1 3d
       0.09018762 -0.033762716 -0.096057564 0.08678672
000080 ed a6 8a 3d 2f 94 54 3d e8 41 69 bd 9f f6 af bd
       0.0677012 0.05189913 -0.05694762 -0.08591961
000090 cc bf 91 bd 6d e0 23 3c d0 9b 6c bc 59 cf b4 3d
       -0.071166605 0.010002238 -0.0144414455 0.08828611
0000a0 08 ca bc bc c0 9a e2 bd 38 15 11 3d 54 16 6c 3d
       -0.023045555 -0.110646725 0.035420626 0.05763848
0000b0 08 9a 4b 3d c4 5b 7a bd 30 fd 5a 3d 8c d9 b0 bd
       0.049707443 -0.06112267 0.053464115 -0.08635244
0000c0 c7 bf cd bd 14 88 62 3d a1 2f ec 3c 15 b1 c9 3c
       -0.10046344 0.055305555 0.028831305 0.024620572
0000d0 84 59 96 3c 47 31 41 bd a4 fc 26 bd 03 c4 f1 bd
       0.018353231 -0.047166135 -0.04076828 -0.118049644
0000e0 1f bb b4 3d ce f8 a8 3d e0 54 c8 bb ec 09 34 3d
       0.08824753 0.08250581 -0.0061136335 0.043954775
0000f0 02 32 9d 3d b1 3e da bb 5b d9 9d 3d 8c 14 9a bd
       0.07675554 -0.0066603054 0.07707473 -0.0752345
000100 a9 36 3e bb f7 85 4a 3c fe 26 ef bd 9b db 4d 3d
       -0.002902428 0.012361041 -0.11677359 0.05025826
000110 d1 fc 96 3d 83 49 b6 bd f5 49 0b bd 12 2b 0a bb
       0.0737244 -0.0890074 -0.034006078 -0.00210828
000120 43 c3 80 3d 0f 10 75 3d c0 88 b2 bd 2e 67 73 bd
       0.06287243 0.059829768 -0.08717489 -0.05942457
000130 16 16 f2 3d f6 69 a2 bd 96 cd da 3d 1c 65 56 3d
       0.11820619 -0.07930367 0.10683744 0.05234252
000140 6c 48 0e 3b f3 60 9d 3b c2 46 f3 3d e0 79 f4 3d
       0.0021710647 0.004802817 0.1187873 0.11937308
000150 e6 35 d6 bd 7e 51 14 3d 68 3b 65 bd d6 d6 94 3d
       -0.10459499 0.03621053 -0.055964857 0.07267539
000160 50 f9 94 3c 66 14 40 bd 25 d7 bf 3d e6 57 8d 3d
       0.018185288 -0.046894453 0.093672074 0.06901531
000170 71 5a b7 bd e9 c2 87 3d f7 0a b7 bc a1 3e e6 3c
       -0.08952797 0.06628973 -0.022344096 0.028106036
000180 20 2b ee 3d 54 6f e9 3d 74 d3 67 bd 13 d7 57 3d
       0.11629319 0.11398187 -0.05659814 0.052695345
000190 c1 63 f7 3d 26 d3 8b 3d 7b 59 11 3d db a9 48 3d
       0.120795734 0.06827383 0.035485726 0.04899011
0001a0 0d b0 6c bc c8 05 e0 bd 81 a2 aa 3d d2 b4 d1 bc
       -0.014446271 -0.10938603 0.083317764 -0.025598917
0001b0 24 ca aa bd 32 11 10 3d d9 1d 7d 3d 4c a4 3c ba
       -0.083393365 0.03517265 0.061796043 -0.0007196113
0001c0 ad c5 7a 3d 53 cb db bb 00 10 54 3b 4e 0d 1f bd
       0.061223675 -0.0067075877 0.003235817 -0.038831048
0001d0 a8 dd c4 bd 56 07 e8 bd 08 2b ab bd 40 ea 8f bd
       -0.0961259 -0.11329524 -0.08357817 -0.070271015
0001e0 12 0d d2 3d dc 4c b3 bd b2 a5 14 bd 04 9b 3a 3d
       0.10256399 -0.08754894 -0.036290832 0.04555799
0001f0 0e 76 71 3d 73 00 b6 bc c2 54 90 bd 71 c3 f1 3c
       0.058950476 -0.022217011 -0.07047416 0.029512139
000200 2c f1 bc bd b3 9e c0 3d 6a 5b fa ba b6 8e c2 3c
       -0.092256874 0.094052695 -0.001910073 0.02374969
000210 05 19 f2 bd 37 de 37 bd da 8b fb 3d 50 59 b6 bc
       -0.11821178 -0.044889655 0.12282534 -0.022259384
000220 a2 34 d9 3d 2a 1f 10 bc b3 3e b1 3d 83 bc 22 3d
       0.10605742 -0.008796493 0.08654537 0.03973056
000230 84 af f7 bd 60 e1 05 3d 7e dc 18 3d d6 9c 56 bd
       -0.12094024 0.032685637 0.037319653 -0.052395664
000240 b8 d6 aa 3c d0 da b8 3d a3 a2 8c bd 66 f2 3c bd
       0.020854339 0.0902611 -0.06866958 -0.046129607
000250 85 ae b2 3d 4b 5a 8f 3c 9f b8 90 3d b8 b5 8a 3d
       0.08724693 0.01749911 0.07066464 0.06772941
000260 88 de 97 3d 92 4b a7 3d 38 e8 50 3d 2f 78 10 bd
       0.07415491 0.08168711 0.05100271 -0.035270866
000270 31 db fe bc 5f 53 1b bd 07 54 a4 bd 25 69 90 3c
       -0.031110378 -0.037921306 -0.080238394 0.017628262
000280 43 ae 4b bc 61 be e9 bd eb f9 82 3d cd c0 3d 3d
       -0.012431684 -0.11413265 0.06395324 0.046326447
000290 62 dd 8a 3d 24 b6 e8 bd 3c bc d5 bd 5a 3a db 3a
       0.06780507 -0.113628656 -0.104362935 0.0016725764
0002a0 2d 63 90 bc 62 5f 63 3c 40 72 2d 3d 95 15 d8 bd
       -0.017625416 0.0138777215 0.042345285 -0.105509914
0002b0 80 1c 57 3b 18 0c e4 3c 4c 53 c9 bd f5 f2 f2 3d
       0.0032823384 0.027837798 -0.09830341 0.118627466
0002c0 d4 6e f3 bb ef bf f3 bd 66 78 52 bd b8 a9 89 bd
       -0.007428983 -0.11901843 -0.051384352 -0.067218244
0002d0 a4 43 dd 3d 72 12 36 3c b2 e0 3b bd c0 9f ee 3d
       0.10803917 0.011112796 -0.045868583 0.11651564
0002e0 b9 6d e3 bd e4 44 69 3d 54 ab 33 3d fb 8e 1b 3d
       -0.11104912 0.056950465 0.043864563 0.037978154
0002f0 f0 42 f6 bd 1a df b6 3b b2 ee a7 3d 3a 7b a4 bc
       -0.12024486 0.005580795 0.081998244 -0.02007829
000300 e8 db b8 bd eb 6c cc 3d 48 4c fe 3c c9 4c 99 bd
       -0.09026319 0.09981712 0.031042233 -0.07485349
000310 4b c2 af bd e0 52 22 3c e6 fa 5e 3d 05 62 6c bd
       -0.0858198 0.009907454 0.054438494 -0.057710666
000320 af b8 73 bd 6b 33 66 3d 2a f4 e4 bd 50 d6 8c 3d
       -0.0595023 0.05620138 -0.11179383 0.06876814
000330 10 11 5b bd 4d 26 d5 3d f3 07 b5 bd 79 1f ef bd
       -0.05348307 0.10407696 -0.08839407 -0.11675925
000340 33 57 e0 bd 3e e6 70 3d 5e 90 9d 3d 14 73 57 bd
       -0.10954132 0.058813326 0.076935515 -0.05259998
000350 d2 b1 a5 bd 19 08 9e bd ba 34 a9 bd 08 15 c3 bd
       -0.08090557 -0.07716388 -0.0826201 -0.09525496
000360 2d 87 df bc aa a5 97 bc 94 35 aa bd e0 4d ad bd
       -0.027286137 -0.018511612 -0.083110005 -0.08462119
000370 c6 1c a5 bd af 73 62 3d 18 8c 49 3c 21 42 b5 bd
       -0.08062129 0.055286106 0.012301467 -0.08850504
000380 6e 2a 38 3c 75 1b 75 3d cf 76 42 bd a1 92 98 bd
       0.011240585 0.05984064 -0.047476586 -0.07449842
000390 86 7f a7 3d ae 35 36 bd ea 29 a1 bd 4e 8f d4 bb
       0.0817862 -0.044484787 -0.078693226 -0.00648681
0003a0 7e ac e2 bd fb 58 27 bc 85 22 1d 3c 5c 32 db 3d
       -0.110680565 -0.010214086 0.00959075 0.10702965
0003b0 f5 ce 17 bd 2a 6e 59 3d 1e 57 f0 3d 0c fe 1a bd
       -0.037062604 0.053083576 0.11735366 -0.037839934
0003c0 a6 5c f1 3b c4 b6 9b 3d 30 9c ce 3b 36 2c f7 bd
       0.007365781 0.07603219 0.00630524 -0.120689794
0003d0 6d 0d 45 3c cb 01 50 3d 1a 7f 1c 3c bd 98 88 bd
       0.012027127 0.05078296 0.009551788 -0.066697575
0003e0 d0 b3 5f 3c bc 9d 10 3d e8 90 e2 3d 5b 1f 94 3d
       0.0136537105 0.035306677 0.11062795 0.07232543
0003f0 58 51 5f 3d 40 e3 e8 bd 1d 1e ff bd 22 46 ae 3d
       0.054520935 -0.113714695 -0.124569155 0.085094705

lstm.weight_hh_l0 f4 [256, 64]
000000 d1 a3 87 3d 15 a0 93 3d 55 6f dd bc c7 87 fa bd
       0.066230424 0.072082676 -0.027030626 -0.12232929
000010 1a a7 9d 3d a2 01 08 3d ae 55 f7 3d 3a 22 e7 3d
       0.07697888 0.033204682 0.12076889 0.11285825
000020 cc 18 23 3d 38 e1 cc ba e9 40 ab bd 64 5f 85 3c
       0.03981857 -0.0015631085 -0.0836199 0.016280837
000030 48 8d 8c bd 59 c6 3a ba 31 ad 6d bd bb eb f6 3d
       -0.06862885 -0.0007124893 -0.058026496 0.12056681
000040 43 9a d8 3d 84 9e c6 bc 3c 30 9a bd fa 98 23 3d
       0.10576298 -0.024245508 -0.07528731 0.03994081
000050 4c 64 5a bd 72 80 82 3d 50 ee 4b 3c 69 b8 c2 3d
       -0.053318307 0.06372155 0.012446955 0.0950783
000060 03 e2 68 bd a0 4a ff bd d9 2c ff bd c1 7f 89 bd
       -0.056856167 -0.124654055 -0.12459726 -0.0671382
000070 ed c2 dd 3d bf 53 1f bd 96 6c f2 bd 24 de 95 3d
       0.10828195 -0.038898226 -0.118371174 0.073177606
000080 39 2b fc bd 3e b9 cf bd 0d 83 ff bd 22 22 6c 3b
       -0.123129316 -0.10142754 -0.12476168 0.0036031087
000090 ab 97 a9 3c 02 b7 ad bd 38 b5 d5 bd 70 0a e3 bd
       0.020702204 -0.084821716 -0.10434955 -0.11085975
0000a0 88 1d 56 3d 3c 8f b1 3d 29 ea 04 3c f6 a8 a9 bd
       0.052274257 0.08669898 0.008112469 -0.0828418
0000b0 38 60 c9 bb 14 c5 03 bd f6 56 96 bd 35 40 50 3d
       -0.0061455034 -0.03217037 -0.07340805 0.050842483
0000c0 c0 c9 f2 3b 79 74 44 bd 49 2f e2 bc b3 40 eb bd
       0.0074093044 -0.04796264 -0.027610438 -0.1148695
0000d0 53 af a0 3d 47 81 88 bd 99 f6 ce bd e8 5c d4 bd
       0.078459404 -0.06665283 -0.101056285 -0.10369283
0000e0 74 d3 97 bd 22 6b c6 bd 1d 00 b0 bd 6a 7a 4b bd
       -0.07413378 -0.09688403 -0.085937716 -0.04967729
0000f0 2a 4c 44 bb c0 cb af bd 70 93 9d 3d f6 22 88 3d
       -0.0029952624 -0.08583784 0.07694137 0.06647293
000100 0e a9 fe bd 4c 3c cb 3d 7b 8f c7 bd 79 02 5e 3d
       -0.124345884 0.0992361 -0.097441636 0.054201577
000110 9a b0 f5 3d 65 33 3d 3d 91 4e 98 bd d8 e4 a6 3d
       0.11996575 0.04619159 -0.0743686 0.08149117
000120 f1 aa d0 bb ec 7b e4 3c 20 1e a6 3d 54 79 b1 bd
       -0.006368034 0.027891122 0.08111215 -0.0866572
000130 58 b6 90 bd 01 f4 4e 3d b3 e1 b4 bc d8 27 a9 bd
       -0.07066029 0.05052567 -0.022080278 -0.08259553
000140 ee 21 e5 3d d4 99 02 bb 56 f6 13 3b 31 ad 9e bd
       0.11188112 -0.0019928114 0.0022577248 -0.077478774
000150 f5 92 19 3d 01 9b d6 bd e5 f7 d1 3d 2a 63 dc bd
       0.037493665 -0.104787834 0.1025236 -0.107611015
000160 cd 19 c8 3d 0b e9 cc 3d 94 44 bb 3c 05 fb 7d 3b
       0.09770546 0.10005387 0.022859849 0.0038754356
000170 d3 05 41 bd 67 5e 19 3d 58 a0 af bd e7 4c c9 3d
       -0.047124695 0.037443545 -0.08575505 0.09829121
000180 6c f0 1d 3c 94 9d 29 3d 08 6b 87 3d cf 6e fb 3d
       0.009639841 0.041410044 0.066122115 0.122769944
000190 f9 38 e1 3c f7 dd fc 3d 33 7f 90 3d 5b b7 ce bb
       0.027492987 0.12347024 0.07055511 -0.006308479
0001a0 35 a0 2f 3d 94 6b 09 3d 73 e0 8c bd f5 2a cb 3d
       0.042877395 0.03354986 -0.06878748 0.09920303
0001b0 1f 30 b1 3c fe b7 bb bd bd a2 68 bd 02 95 ad 3d
       0.021629391 -0.09165953 -0.056795824 0.084756866
0001c0 bf ec df bd ac 1b ef bd b5 c1 16 bd 92 12 3e bc
       -0.109338276 -0.116752 -0.036805827 -0.011601107
0001d0 18 c1 c7 3d e4 29 d5 bc b7 3c b1 bc b5 af c3 bd
       0.097536266 -0.026020952 -0.021635396 -0.09554998
0001e0 5f 2f eb 3d 15 81 24 bd 75 91 8f 3d ea 42 c7 3d
       0.11483645 -0.040162165 0.070101656 0.0972956
0001f0 34 db ed bc 45 ce 19 bd c9 f8 39 3c 17 3d 51 bd
       -0.029035188 -0.03755023 0.011350819 -0.05108365
000200 30 13 9b 3d bd e1 59 bd 70 07 e0 bc 75 b7 3e bd
       0.07572019 -0.053193796 -0.027347296 -0.046561677
000210 c1 e7 f7 3c 95 06 da 3d 41 56 bc bc 22 1c 8c 3d
       0.030261876 0.10645787 -0.022990348 0.068413034
000220 c8 21 05 bd d3 5d 87 bd 34 29 41 3c 8d c2 bb 3d
       -0.03250292 -0.066096924 0.011789609 0.09167967
000230 46 14 e0 3c a4 1b b0 3d 19 e3 af bd 01 36 ca 3d
       0.027353417 0.08599022 -0.08588237 0.09873582
000240 f3 e6 52 3d 7b 12 81 bd 44 a8 00 3e dd 5b 9b 3d
       0.05148978 -0.06302353 0.12564188 0.07585881
000250 2f 0c fa 3d ff 0b af bd ef ba ae bd ab d2 76 bc
       0.12209355 -0.0854721 -0.085317485 -0.015064876
000260 13 95 e1 3d cb 7b 72 3d 35 c2 e6 bc cb 6c e2 bb
       0.11014762 0.05920009 -0.028168777 -0.006909942
000270 1f 3c 78 bd 35 d4 f3 3d ab 4f 3b bd a9 6d 3a 3d
       -0.06060421 0.1190571 -0.045730274 0.045514736
000280 92 6a fc bc d0 6b 40 3a cb 00 6d 3d 2d 16 3f 3d
       -0.030812535 0.0007340284 0.057862084 0.046652008
000290 8d a2 5c bd d4 af 7c 3b fa 98 d6 bd 32 06 bd 3d
       -0.053865958 0.003855695 -0.10478397 0.09229697
0002a0 82 c4 88 bd c6 16 ea bd 94 b2 40 3d 6d c3 d3 3d
       -0.06678106 -0.11430125 0.047045305 0.10340009
0002b0 f5 46 2a bd 9f 3c 19 3d fd b4 9a bd a8 04 fa bd
       -0.041571576 0.03741133 -0.07554052 -0.12207919
0002c0 d5 e6 e7 3d 82 b1 b3 bc 61 29 82 bd 68 cc d7 3d
       0.113233246 -0.021935228 -0.06355549 0.10537034
0002d0 02 4b fa bc 41 ce 71 bd 15 a5 4f bd 13 63 1d 3d
       -0.030553345 -0.05903459 -0.050694544 0.038424563
0002e0 ba 63 1d bc 7d 3c 89 bd 12 85 c9 3b 8c 4b 86 bd
       -0.009606296 -0.0670099 0.0061498964 -0.06557378
0002f0 1d ed b8 3d a7 97 cd bd 2f d6 80 3d e7 48 bf bd
       0.09029601 -0.10038691 0.06290852 -0.09340077
000300 fe 48 b0 3d 46 39 9d 3d f5 45 b9 3d 1e a7 80 bd
       0.08607672 0.0767694 0.09046546 -0.06281875
000310 40 43 dd bd 80 43 f7 3d 8d 8f a6 bd 8f 93 88 bd
       -0.108038425 0.120734215 -0.08132849 -0.066687696
000320 d5 33 2c 3a f9 c9 53 bc 7f 94 43 bd 46 76 f7 bc
       0.0006569003 -0.012926572 -0.04774904 -0.030207764
000330 d4 08 ca bd b7 de 8f bc 45 d6 17 bd da b1 51 3d
       -0.09864965 -0.017562253 -0.037069578 0.051195003
000340 db 96 ce bd 1d 40 f2 bd 96 76 bd 3d 9e 2d d7 ba
       -0.10087367 -0.11828635 0.09251134 -0.0016416793
000350 c0 42 ae 3d a9 39 8b 3c 9c 44 1b 3d 4e 89 77 bd
       0.08508825 0.016995268 0.037907228 -0.06043368
000360 f1 ae fc bd 1f bc ac 3d 2e 1a f4 bd ba 3c f8 3d
       -0.12338055 0.08434319 -0.11919056 0.12120958
000370 da c2 16 bd d0 6d bc 3d 66 ff e4 3d 9b 70 ff bc
       -0.03680692 0.092006326 0.11181526 -0.031181624
000380 51 f0 22 3d ea 6c d1 bc 04 12 d5 bd 10 e8 79 bd
       0.039779965 -0.02556463 -0.10403827 -0.061012328
000390 2a 88 81 bd 63 fe dc 3c 3a 91 ef bd 46 52 bf bd
       -0.06324799 0.02697677 -0.11697622 -0.09341864
0003a0 88 40 a7 3d 7f ad 05 3d 50 a1 9e 3d f4 55 ad 3c
       0.08166605 0.032636162 0.07745612 0.02115915
0003b0 c2 33 3e bb 3b f9 4a bd 81 a8 c7 3d 04 b4 9a 3d
       -0.002902255 -0.04955409 0.097489364 0.075538665
0003c0 c2 06 bb bb fc 13 bc 3d 82 7b c1 3d 90 85 de 3d
       -0.0057075927 0.09183499 0.09447385 0.10865319
0003d0 b0 5c be 3d a6 0e 3b 3c f4 70 8b bb 00 7d e0 3d
       0.092950225 0.011417067 -0.0042554084 0.10961342
0003e0 9e a3 7a bb 70 f3 38 3d 28 99 97 bd 2d a3 48 3c
       -0.0038244496 0.045154035 -0.07402259 0.012245935
0003f0 66 38 d8 3d 0c d0 d6 3d cf 3b e0 3d a0 56 94 bd
       0.10557632 0.104889005 0.109489076 -0.07243085

lstm.bias_ih_l0 f4 [256]
000000 f9 71 91 3d 3b 78 c6 bd c0 3d d8 3d ac f3 00 3d
       0.07101817 -0.09690901 0.10558653 0.031482384
000010 28 b2 85 3d 64 9a d1 bd c7 b8 5b 3c 6c 32 f3 3d
       0.06528121 -0.10234526 0.013410754 0.118748516
000020 e8 7c bc bd 8c 51 59 bd 3a 16 0e 3d 7a a7 76 3d
       -0.092035115 -0.053056285 0.034689166 0.06021831
000030 51 8f e5 3c 00 0e 95 3d f2 c0 d3 bd 6a a0 13 3d
       0.02802244 0.07278061 -0.10339536 0.036041655
000040 17 c0 21 3d 58 30 14 3c d3 26 99 3c 74 57 19 3d
       0.03948983 0.009044729 0.01869527 0.037436917
000050 d6 1c cd 3c 90 f3 90 bc 9a b9 de 3d 56 84 00 3c
       0.025038164 -0.017694265 0.108752444 0.007844051
000060 56 40 82 3d e2 31 a0 3d a5 0c 50 3c 80 d0 a7 3c
       0.06359927 0.078220144 0.012698327 0.020485163
000070 87 64 9d 3d 26 fa 62 bd 99 86 c2 3d c9 ee da 3c
       0.0768519 -0.05541434 0.09498329 0.02672519
000080 bc 7d af bd ac 68 ba 3c 34 de 90 bd 44 12 e7 bd
       -0.08568904 0.02275499 -0.07073632 -0.11282781
000090 13 3a 2c 3d 94 2a ea 3d 69 dd 2a 3d f4 3d c5 bc
       0.04204757 0.114339024 0.04171506 -0.024077393
0000a0 1a 09 97 bd 3c 88 24 3d 69 f8 9a 3d 80 a6 f1 bd
       -0.07374783 0.040168986 0.07566912 -0.117993355
0000b0 54 37 81 bd b6 d1 03 3d 7c 69 3a bc 45 dd a0 bd
       -0.06309381 0.032182418 -0.0113776885 -0.07854704
0000c0 64 9e 69 3d 26 24 a9 3a 56 4d 07 3d b2 bf fb 3c
       0.05703582 0.001290445 0.033032738 0.030731056
0000d0 cd 0d 05 3d de 65 95 bc 51 6e 5e 3d 11 5c 92 bc
       0.032483865 -0.01823705 0.054304425 -0.017866166
0000e0 2a 86 a1 bd f7 3c 80 3d 37 bc ff 3a d9 3b f4 bd
       -0.07886918 0.06261628 0.0019511048 -0.119254775
0000f0 17 99 ad bd d7 88 e3 bd 51 e9 24 bd 2b 11 4d bc
       -0.08476465 -0.111100845 -0.04026157 -0.0125163
000100 14 03 da bd 40 3c f3 bd 40 eb ce 3d be 37 dd bd
       -0.10645118 -0.11876726 0.10103464 -0.108016476
000110 c8 72 f6 bd ff 2e e6 bd 6e 66 a5 bc 5f 7e e9 3d
       -0.120336115 -0.112394325 -0.020190444 0.114010565
000120 5f 1f 69 3d 95 b0 f5 bd 7d f2 8c 3d ef f3 43 3d
       0.056914683 -0.11996571 0.068821885 0.047840055
000130 5c 6b 8c bc e8 c7 a0 3c 70 78 b2 bd 92 f4 d0 bc
       -0.017141037 0.019626573 -0.08714378 -0.025507245
000140 ed cb b7 3b 5f 2e ae bc 96 67 9f bd e8 a1 ab bb
       0.0056090266 -0.021262346 -0.07783429 -0.0052378066
000150 26 73 9d bd e2 dc 90 3d 43 84 ca bd 23 ed cc bd
       -0.076879784 0.0707338 -0.09888508 -0.10006168
000160 87 4d d8 bd 77 55 ad bd 42 4c 50 bd ac 19 d7 3d
       -0.10561662 -0.08463567 -0.050853975 0.105029434
000170 53 c4 c4 bd 58 45 5e 3d 71 0f 2c bc bb c7 40 bd
       -0.096077584 0.05426535 -0.010501728 -0.047065478
000180 1e 14 03 3d 32 ab 92 bd 0b 70 cb 3d c5 b8 38 3d
       0.032001607 -0.07161559 0.0993348 0.045098085
000190 f2 30 d1 3c 17 2f ab bd 42 f2 a8 bd e0 17 4c bd
       0.025536034 -0.08358591 -0.08249332 -0.049827456
0001a0 5d 2f 83 3d 93 7e 30 3d 65 72 bd 3b 14 f3 e6 bd
       0.06405518 0.04308946 0.005781459 -0.11276832
0001b0 de 93 6a 3d c9 6a f8 bd 4e 58 64 bd 7a 31 8f bd
       0.057269923 -0.12129743 -0.055748276 -0.06991859
0001c0 80 08 8d bd fc 3c 41 bd 40 f3 8c 3b de 00 43 3d
       -0.06886387 -0.0471773 0.0043014586 0.04760825
0001d0 92 c6 fe bd f1 cd d2 3d 28 11 e9 bd 43 f0 f7 3d
       -0.12440218 0.102931865 -0.113802254 0.12106373
0001e0 37 e5 73 bd 82 62 58 bc 7c c4 b6 bd 4b f6 d2 3d
       -0.05954477 -0.01320708 -0.08924195 0.10300883
0001f0 0a b1 71 3d b0 15 dc 3d 57 fc b1 3d d8 b0 84 3d
       0.05900673 0.10746324 0.08690708 0.06479043
000200 d5 65 f6 bd 4e 9c 88 3d 2e 2e 43 bd 9e 1f f9 bd
       -0.12031142 0.06670438 -0.047651462 -0.121642336
000210 30 36 a0 bd d7 cc de bd 60 51 cd 3d af d3 29 3d
       -0.078228354 -0.10878914 0.10025287 0.041461643
000220 5b 38 66 bd 67 26 86 bd ca 07 12 bd 2a 27 f5 3c
       -0.05620609 -0.065502934 -0.03565196 0.029925901
000230 9a b8 55 bc f2 f7 54 bd f4 6d bc 3c e7 bc 4d ba
       -0.013044501 -0.05199427 0.023001648 -0.0007848278
000240 9b 88 2b bb d6 4f f6 bb d0 73 f5 bd 91 e6 be 3d
       -0.0026173953 -0.0075168414 -0.1198498 0.09321321
000250 5a 92 48 3b 8d 30 c2 bd 92 9e 00 bc 49 71 0b bc
       0.003060481 -0.094819166 -0.007850306 -0.008510896
000260 f0 ce cf bd ab 46 85 3d a0 9b d3 3d 06 f7 cc bd
       -0.10146892 0.065076195 0.103324175 -0.100080535
000270 43 23 77 3d db 6a 64 bc a5 d9 31 bd 6e dc 24 bd
       0.060336363 -0.013941492 -0.043420453 -0.04024928
000280 6e c5 70 3d 03 e3 8b bd 97 8a 3c 3d 9f f3 c9 3d
       0.058782034 -0.068304084 0.046030607 0.0986092
000290 a3 6e cf bd db 16 b2 3d 91 d5 60 bd e9 53 5b bd
       -0.10128524 0.086957656 -0.054891173 -0.05354682
0002a0 eb 78 d9 bd 05 06 9a bd cb 49 c6 3d 72 ac f5 bd
       -0.106187664 -0.075206794 0.09682044 -0.11995782
0002b0 79 9b b6 bd 75 61 74 bd f2 e7 c2 3d ee b6 87 3d
       -0.08916373 -0.059663255 0.09516896 0.06626688
0002c0 61 7b 0a 3d 1f 37 bd bd 14 4f 40 3d fc 68 76 bd
       0.03380907 -0.09239029 0.046950415 -0.060158715
0002d0 fd 73 12 bd ee 5e 96 3d d5 0f 5d 3b 8b 04 f4 bd
       -0.035755146 0.07342325 0.003373136 -0.11914929
0002e0 36 fd 24 3d c1 64 45 3d 21 92 93 bd 3e 52 e9 ba
       0.040280543 0.04819179 -0.07205606 -0.0017800999
0002f0 32 ba b1 3d 90 ff 8f 3c f6 b3 80 bb 88 44 a1 3d
       0.08678092 0.017577916 -0.003927703 0.078743994
000300 20 ed 15 3d 3a eb 99 bd aa ab a9 3d ff 6f dc bc
       0.036603093 -0.07515569 0.082846954 -0.026908873
000310 15 88 07 3d 73 84 ab bc 18 51 14 3d 69 79 50 bd
       0.033088762 -0.02093718 0.03621015 -0.050897036
000320 72 4a fd 3d bf d6 ec bc 4c 73 20 bd db 35 f1 3d
       0.12367715 -0.028910993 -0.039172456 0.1177785
000330 2d 9e e1 3d 8a e5 a7 3d 74 ce 14 bd af 23 12 3d
       0.11016498 0.08198078 -0.0363297 0.03567856
000340 86 33 77 bd f3 4c 89 3d 94 46 c4 3d 4c 0d 82 bd
       -0.06035187 0.0670413 0.09583774 -0.063501924
000350 d5 36 d2 bd 7f c6 fc bd bc d1 6c bd 8b de 15 bc
       -0.10264365 -0.123425476 -0.057817206 -0.009147297
000360 61 ee ac bd c0 3c e6 3c 60 71 7c bd 38 94 a3 bd
       -0.08443905 0.02810514 -0.06163156 -0.07987255
000370 9d d7 66 ba db 39 1e 3c e3 c0 b0 3d f8 a4 85 3d
       -0.00088059326 0.0096573485 0.0863054 0.06525606
000380 c2 99 da bd e6 e9 ea 3d a0 5d 46 3d 72 db c7 3d
       -0.10673858 0.11470394 0.04842913 0.09758653
000390 70 aa d6 bd 9d 61 83 3c b9 22 a6 3d be fc 18 3d
       -0.10481727 0.016037757 0.081120916 0.03735041
0003a0 13 a8 27 bd c7 b3 7e bd b1 96 5b 3d 8e ea d2 3d
       -0.040931772 -0.062183168 0.053610507 0.10298644
0003b0 2c 7a 99 3c 72 ee cd 3d f1 c7 c7 3d fe 27 b3 3d
       0.018735014 0.100552455 0.09754933 0.08747862
0003c0 12 da 5b bd 6b a3 82 bd 87 27 e9 bd ce 2f 67 3c
       -0.053674765 -0.06378826 -0.11384492 0.014110519
0003d0 0a cc fb 3c dc a0 b9 bd 12 d7 de bd d2 b0 be bd
       0.030736942 -0.090638846 -0.10880865 -0.093110695
0003e0 2c 95 d4 3c 0d f2 8f bd db 15 57 bd 33 15 b0 3d
       0.025950037 -0.070285894 -0.052511077 0.085977934
0003f0 9a 8d 1c 3a a1 f3 0c 3d 95 79 68 bd bd 09 86 3d
       0.0005972028 0.03441203 -0.056756575 0.06544826

lstm.bias_hh_l0 f4 [256]
000000 75 83 aa 3d 9d bc 39 bc b2 63 a9 bd df 50 ff bb
       0.08325855 -0.011336473 -0.082709685 -0.007791623
000010 3e 8f 54 3d 5c d2 8b bd 0e d5 f9 bc a5 43 60 bd
       0.05189442 -0.06827232 -0.0304971 -0.05475201
000020 b5 3d 02 bd fb 45 ae bd 5a a0 ce 3c 05 2d 32 3c
       -0.03179713 -0.085094415 0.025222946 0.010874991
000030 15 89 b3 bd 54 31 ab bd a6 f4 9d 3d 34 4d 48 3c
       -0.08766381 -0.08359018 0.077126786 0.012225438
000040 89 df 16 bd 4c c0 d8 bd 3e e2 b4 3d 09 42 de bd
       -0.036834273 -0.10583553 0.08832215 -0.10852439
000050 2c 8b a5 3d bd 7d 1a 3d 3f c2 72 bd 89 f7 d8 bd
       0.080831856 0.03771757 -0.05926728 -0.105940886
000060 c3 43 bd bc 84 59 83 bd 29 98 c5 bd 7e 48 fa 3d
       -0.0231036 -0.06413558 -0.09648163 0.12220858
000070 a1 80 e9 bd 77 2a dd 3d 97 6e 8e bd 69 6a f2 bd
       -0.11401487 0.10799115 -0.06954687 -0.118367024
000080 0a a9 f3 3d f3 eb 94 bd 5e c8 e5 bd 34 5c d6 3d
       0.11897476 -0.07271566 -0.11219858 0.10466805
000090 83 e6 d4 bd 50 67 b3 bd d9 33 1b 3d 0c 48 a7 bc
       -0.10395529 -0.0875994 0.037891243 -0.020420097
0000a0 20 ac 91 bc 7b 7b e1 bd 47 76 cc 3d e5 98 41 bd
       -0.01778227 -0.1100988 0.09983497 -0.047264952
0000b0 cd b7 44 bd 0b 9d d4 bd b6 e5 8e bd 27 3b 31 bd
       -0.04802685 -0.10381516 -0.06977408 -0.043269303
0000c0 3a ad 9c bd e6 f4 98 bd 5f 25 ba 3d 13 16 69 bd
       -0.07650228 -0.07468586 0.09089159 -0.056905817
0000d0 98 00 d2 3d bc d9 1a 3d 11 b5 8d bd 55 ac eb 3d
       0.102540195 0.037805304 -0.06919301 0.11507479
0000e0 f4 0e d3 bd f6 8b 0c 3d db 75 c7 bc b3 e6 e4 bd
       -0.103055865 0.034313165 -0.02434819 -0.11176815
0000f0 33 52 2d bd a9 93 92 3d 8d 2f e3 bd 65 3e 03 3d
       -0.04231472 0.0715707 -0.11093054 0.032041926
000100 9c 4c b6 bd f4 77 89 bd cc 72 f0 bd da fd 1c 3d
       -0.08901331 -0.06712332 -0.11740646 0.03832803
000110 02 0d cc 3d fd 2f 96 3d 55 cb d3 3d 9b e6 e9 3d
       0.099634185 0.07333372 0.10341517 0.11420938
000120 9a 9f d7 3d 28 ac cd 3c d3 fc 80 3d 03 d1 a4 3d
       0.105284885 0.025106505 0.062982224 0.08047678
000130 40 8d 6a bd 7c 9a a5 3d 3d f2 1c 3d f5 c7 81 bc
       -0.057263613 0.08086106 0.038316954 -0.015842417
000140 bc 7f 32 3d 64 ca a4 3d d6 83 f6 3c 5e 19 9a 3d
       0.04357885 0.080464154 0.030092161 0.0752437
000150 7b 3f 50 3d 62 2a bb 3d 5b 9a 9d 3d a5 3d cf bd
       0.05084179 0.09138943 0.076954566 -0.1011918
000160 ef e5 ad bc 0f 9b 7f 3c 79 7e 8c 3d b3 ae 2d bd
       -0.021227805 0.015600934 0.0686006 -0.042402934
000170 0d 80 f4 bd 54 98 e0 3d d2 12 78 bd 3c e8 b1 bc
       -0.11938486 0.10966554 -0.060564823 -0.021717183
000180 15 84 55 bd ba a0 31 3d 91 03 92 3d fa 30 a3 3d
       -0.052127916 0.04336617 0.071295865 0.07968326
000190 83 d7 99 bd 7b cd a2 bd 9c 7e f1 3c 8a ce e5 3d
       -0.07511809 -0.079493485 0.029479317 0.11221035
0001a0 19 14 ea 3d 5b d7 cc 3c 9e 52 31 bc 94 c5 a3 3d
       0.114296146 0.025005033 -0.01082292 0.079966694
0001b0 a7 b2 d0 3d 4e f1 c0 bc a5 96 20 bb 76 7a a9 bd
       0.10190325 -0.023552563 -0.0024503854 -0.08275311
0001c0 1a 0c c0 3d ab cd d0 bd 05 b9 1a bd f8 12 d0 3d
       0.09377308 -0.10195478 -0.037774105 0.10159868
0001d0 34 b8 5d 3d 1a 1a cd 3b f4 d7 83 3d ff 7c 47 bd
       0.054130748 0.006259215 0.06437674 -0.04870319
0001e0 0f 77 51 bd fa f1 4a bd e6 38 c4 3d 31 91 97 3b
       -0.051138934 -0.049547173 0.09581165 0.0046254625
0001f0 5a 6f 4a bd bc bd c9 3d 41 2d bd 3d 38 e5 be bb
       -0.0494226 0.09850642 0.09237147 -0.005825665
000200 bd ff d6 bd 18 77 a1 3d fc 64 9b 3b e4 45 d0 bd
       -0.10497997 0.078840435 0.004742263 -0.101695806
000210 81 ad 48 bc 91 98 cd 3d 94 2e 94 3d 81 bc 80 bc
       -0.012248398 0.10038865 0.072354466 -0.015714886
000220 98 02 84 bd 0a 15 55 bd ba 87 84 bd 32 96 9d 3c
       -0.06445807 -0.052022018 -0.064712 0.019236658
000230 a5 0b f6 3b 1e 29 61 3d 30 fc ce 3d 7f 1e 8e bd
       0.0075087124 0.054970853 0.10106695 -0.069394104
000240 57 c4 5e bb 8b 3a e3 3b 52 b8 11 3d c3 df bb 3d
       -0.003399154 0.006934469 0.035576172 0.091735385
000250 d0 99 9b ba 44 ba 32 3b f0 10 30 3d 64 87 e1 3d
       -0.0011871401 0.0027271667 0.042984903 0.11012152
000260 4e eb 64 bd 35 f4 f9 bc ae da e4 3d 06 65 97 bd
       -0.055888467 -0.030511955 0.11174522 -0.073923156
000270 e0 8e 8e bc 81 89 06 3d 71 60 86 bd cb 10 c6 bd
       -0.017402112 0.032845978 -0.065613635 -0.09671172
000280 59 2d ca 3d 96 0e 30 3d f1 a4 e5 bd f1 a4 b0 bd
       0.09871931 0.04298266 -0.11213101 -0.0862521
000290 21 2d fc bd 1a 4a 57 3d d4 d3 9a 3c a3 15 bf bd
       -0.12313295 0.052560903 0.018899836 -0.09330299
0002a0 2d 5d a9 bd 79 b4 b0 3d b7 5b da 3d 19 04 1b bc
       -0.08269725 0.086281724 0.106620245 -0.009461426
0002b0 dd b1 9b bd f5 8e e9 3d b5 f5 9a bc a2 4c ad 3d
       -0.07602284 0.1140422 -0.01891599 0.08461882
0002c0 07 13 33 bd 48 0b 23 3c de 6f b0 3d bc 6e f0 bc
       -0.043719318 0.00995142 0.08615087 -0.029349677
0002d0 83 5e 5e 3d 13 38 13 bd 13 e3 8f 3d 17 ce e9 3d
       0.054289352 -0.03594215 0.07025733 0.11416262
0002e0 7f 78 6a 39 b2 6b dc bc d1 b1 84 3d 15 ef a1 3c
       0.00022360867 -0.026906822 0.06479228 0.019767324
0002f0 ce ca 62 bd 28 0d ee bc 13 05 7e bd e5 4c 8f bc
       -0.05536919 -0.029059008 -0.062016558 -0.01749272
000300 cc bc 68 bd 58 af fc 3d 40 f6 9d bd ff 56 85 bd
       -0.056820676 0.12338132 -0.07712984 -0.06510734
000310 b2 e2 8b 3d d2 ef eb bd 82 49 84 bc de 6b f5 3d
       0.06830348 -0.115203515 -0.016148333 0.11983465
000320 94 a0 b2 3d d6 1f c4 3d b5 ad c9 3d 94 ec b3 3c
       0.08722034 0.09576385 0.09847585 0.021963395
000330 7d 9d fe bd 2b bf ef 3c ce 8b c0 ba 98 f3 bf bc
       -0.12432382 0.02926596 -0.0014690103 -0.023431584
000340 4a 19 23 3d f8 d1 9e 3b c8 9e c7 bd 6a a9 98 bd
       0.03981904 0.0048468076 -0.09747082 -0.07454188
000350 67 76 bb bd 05 a0 e7 3b 3f 30 99 bb f3 0d f7 3d
       -0.09153443 0.0070686364 -0.004674941 0.120632075
000360 a9 de eb 3d 75 7d 17 3d 0e aa bd bc 2a b9 a4 3d
       0.115170784 0.03698488 -0.023152377 0.0804313
000370 06 ca 8d 3c 5c b5 c1 bc 12 56 01 3b 72 82 ef bd
       0.017308246 -0.02364605 0.001973514 -0.11694802
000380 b5 19 50 bc b8 18 af 3d 7c 8f 13 3d 86 8f a1 bd
       -0.0127014415 0.085496366 0.03602551 -0.07888703
000390 32 1a 72 bd c9 01 92 bd 2f 3b f5 bd 1e 56 11 3d
       -0.059107013 -0.07129247 -0.11974179 0.03548252
0003a0 2e 52 3e 3c 8b fb 9a 3d d2 70 f5 3d eb 50 29 bd
       0.011616273 0.07567509 0.119844094 -0.041336935
0003b0 b2 50 d4 bd cf 2d c2 bc 23 35 92 3d 62 f7 9a 3d
       -0.10366954 -0.023703484 0.07139041 0.07566716
0003c0 ae 8f 91 bd 9f 76 f8 bd f2 07 2d 3d a8 fc a1 bd
       -0.07107483 -0.12132 0.042243905 -0.079095185
0003d0 3e a6 e2 bc b8 04 eb bd 1c d6 aa bd cc 76 7b 3d
       -0.027667161 -0.114755094 -0.08341619 0.06139259
0003e0 d8 24 e9 bd 79 5a 9f 3d 77 03 7e bd 43 75 c0 bd
       -0.113839805 0.07780928 -0.062015023 -0.09397366
0003f0 c5 fd 63 3d 32 5e 00 bc cd 1e ad bd d0 f3 21 bd
       0.055661935 -0.007834958 -0.084531404 -0.03953916

lstm.weight_ih_l1 f4 [256, 64]
000000 ac f9 2b 3d 46 da 95 bc e7 5a cb bd fd a2 df 3d
       0.041986153 -0.018292557 -0.099294476 0.109197594
000010 be 26 3c bd 5d 56 05 bc 4f 62 3d bc 8f bb 4a bd
       -0.045935385 -0.008138266 -0.011559083 -0.049495276
000020 5a 83 da 3c 30 1a f9 3c 4e 61 94 3c 60 8f a0 3c
       0.026673961 0.030407995 0.018112805 0.019599617
000030 86 35 ac 3b dc d3 f2 bd 40 ba 4f bd 04 21 b6 3d
       0.005255404 -0.11856815 -0.05071473 0.08893016
000040 c5 00 8d 3d 00 f9 9e 3d de 96 e6 3c 84 05 02 3c
       0.068849124 0.07762337 0.028148111 0.007935885
000050 17 0e 93 bd 4e 32 c3 bd 68 40 43 ba a0 bb 5c bd
       -0.07180422 -0.09531079 -0.0007448257 -0.05388987
000060 5f 0a 7a bd 02 ce 01 bd 06 6b eb 3d a5 d7 9f bd
       -0.061045047 -0.031690605 0.114950225 -0.07804803
000070 e3 7e bc bd 8a 44 cc 3c 37 5d bf 3d c7 d8 1c bd
       -0.09203889 0.024935026 0.09343951 -0.038292672
000080 ed 99 fe bc 38 f6 54 bd 75 ad d2 bd 1a a8 db 3d
       -0.031079257 -0.051992625 -0.102869906 0.10725422
000090 86 2a 96 bd a1 bd db bd 3f e4 40 bd 11 b1 72 bc
       -0.073323295 -0.10729528 -0.047092672 -0.014812724
0000a0 7a 02 0b bd 63 a9 d9 3d b1 59 8d bd 06 ed 43 bd
       -0.03393791 0.10628011 -0.06901873 -0.047833465
0000b0 d2 73 c2 3d ef 2f 74 3c fc 62 f1 3c 54 19 bd bd
       0.09494747 0.014904006 0.029466145 -0.092333466
0000c0 66 c2 cf bd 69 25 9a 3c 58 d5 f8 bd d0 38 8d bd
       -0.101445004 0.018816667 -0.12150067 -0.06895602
0000d0 5e da e2 bc 0e bd 1e 3d 5c cf af bc c9 66 01 3d
       -0.027692016 0.038754515 -0.021461181 0.031592164
0000e0 0a 54 ed 3d 09 24 85 3d 0e c2 87 bd 89 27 75 bd
       0.11588295 0.06501014 -0.0662881 -0.059852157
0000f0 d0 0e 9f bd 55 49 95 bd 0f a3 d8 bb a9 de ef bd
       -0.07766497 -0.072893776 -0.006611235 -0.11712391
000100 2f 97 90 3d b2 77 88 3d ea d3 66 3d 07 e3 e2 3b
       0.07060086 0.06663455 0.05635444 0.0069240364
000110 55 2e b6 bd 68 01 e2 3d 49 9a fa ba 61 a8 af 3d
       -0.08895556 0.110354245 -0.0019119467 0.085770376
000120 10 21 cb bd 8d 83 5f 3d 2c 2e 57 3d 3d f3 c6 bd
       -0.099184155 0.054568816 0.052534267 -0.09714363
000130 05 24 91 bd 41 58 05 bc f0 00 cb bd 3a e2 ae bd
       -0.07086948 -0.008138717 -0.09912288 -0.08539243
000140 ba 87 80 3d f1 f6 4f ba b3 a6 25 bd f3 0a f6 3d
       0.06275888 -0.00079332205 -0.04044218 0.12013807
000150 7e 0b 86 bc dd 57 e0 3d 39 a4 91 bc 64 e8 a6 3d
       -0.016362902 0.109542586 -0.017778503 0.08149794
000160 8c 6b f8 3c bd ea 2d bd 5a 66 e0 3d d9 65 9c 3d
       0.03032472 -0.042460192 0.10957022 0.076366134
000170 f3 0c 8a 3d ae a6 8d bd 85 cc 91 3d d3 04 c2 3d
       0.06740751 -0.06916557 0.07119087 0.094735764
000180 19 dd 21 3d 4f 16 78 3d 9a 87 98 bd 75 24 2d 3c
       0.039517496 0.06056815 -0.07447739 0.010567774
000190 4a e2 90 3d 85 72 d1 3d 34 d9 aa bc ea 5c 95 bd
       0.07074411 0.10226921 -0.020855524 -0.072931126
0001a0 80 09 c1 3d c6 1a b3 bd 05 cf 0a bd d4 58 68 3d
       0.0942564 -0.08745341 -0.033888835 0.056725338
0001b0 bf eb 1e bd f7 38 a7 bd 5a 58 f0 3c fe 92 7d 3b
       -0.038799044 -0.08165162 0.029339004 0.003869235
0001c0 ff 71 21 bd 05 5c 7d bb dd d0 b1 bd fb 79 f7 bc
       -0.039415356 -0.0038659584 -0.08682416 -0.030209532
0001d0 b0 7d 2c bc bf 27 0d 3d 10 fc 15 bd c1 db 9f 3d
       -0.010528013 0.034461733 -0.03661734 0.078055866
0001e0 47 80 d8 bc 14 e8 be 3b 85 35 c3 3d 07 98 d6 bd
       -0.026428355 0.0058260057 0.095316924 -0.10478216
0001f0 61 22 ca bd 95 f0 77 bd 53 90 60 3d ff 99 6d 3d
       -0.098698385 -0.06053217 0.05482514 0.05800819
000200 93 50 df bc 8d a0 fa bd fc 0b 22 3c 0a f2 26 3b
       -0.0272601 -0.12237654 0.009890553 0.0025473856
000210 a5 8b 44 bd 65 48 81 3b 03 dd 46 bd f5 ff f3 bd
       -0.047984738 0.0039453977 -0.048550617 -0.11914054
000220 4f b1 69 3d e1 2a d1 bd e6 f3 4b bd 64 4d 5e 3d
       0.05705386 -0.102132566 -0.049793147 0.054273024
000230 ff fe fb 3d 37 b8 9d bc 7e 0b d9 3c c2 36 03 3d
       0.12304496 -0.01925288 0.026494738 0.032034643
000240 82 4c 0d 3d 5a 9a bd bc e8 5f c2 3d 9c 46 eb bd
       0.03449679 -0.02314489 0.09490949 -0.11488077
000250 4d 2c c7 bd 69 fd e8 3d 91 1a ef bd 62 7f 9e bd
       -0.097252466 0.11376459 -0.11674989 -0.0773914
000260 3a 95 b6 bd 21 b3 dc 3c b8 f0 c1 bd 9f 2b 98 3c
       -0.089151815 0.026940884 -0.094697416 0.018575488
000270 88 b9 f4 bd 7d c9 0e bd 96 6c 8f bc 9f 4d 90 3c
       -0.1194945 -0.034860123 -0.017507832 0.017615138
000280 a9 2e f3 3c b9 da ed bd be c6 de 3d ab 03 20 3c
       0.029685335 -0.11613984 0.10877751 0.0097664995
000290 19 af 9a bd df aa c7 bd 29 34 e5 bd cb 0d de 3d
       -0.075529285 -0.09749388 -0.111915894 0.108424746
0002a0 4e 74 9a 3b 50 a4 c6 bd ef d7 ea 3d c8 2b 8d bd
       0.0047135716 -0.09699309 0.11466967 -0.06893116
0002b0 ca fc 11 3c 91 aa c5 bb d4 7d 12 bd 22 5e 92 bd
       0.008910367 -0.006032296 -0.03576453 -0.07146861
0002c0 50 5e 4e 3d e2 f1 3c bb 03 26 ee bd c1 b2 a8 bd
       0.050382912 -0.0028830697 -0.11628344 -0.082372196
0002d0 30 a7 fa 3d 77 b3 60 3d b6 26 c1 bd fb 9c 7d 3a
       0.1223892 0.05485865 -0.09431212 0.0009674576
0002e0 24 61 8b bd 71 15 c1 bd 27 6c c5 bc e6 f1 d8 3d
       -0.068056375 -0.09427918 -0.024099423 0.105930135
0002f0 dd 28 82 3d f8 fd 81 bd ea ec a1 3d c7 57 76 bc
       0.0635545 -0.06347269 0.07906516 -0.015035576
000300 34 9f 06 bd 05 2e 9a bd cc a9 a2 3d 9e 53 fa 3d
       -0.03286667 -0.07528309 0.079425424 0.1222298
000310 a0 78 e5 bd 1c 81 3c 3c 5f ce bd bd 39 f5 9d 3d
       -0.11204648 0.011505391 -0.09267878 0.07712788
000320 33 c8 af bd d2 5a 8e 3d c4 d6 b0 bd 6f f9 71 bd
       -0.08583107 0.06950916 -0.08634713 -0.05907577
000330 26 01 7d 3d c3 3f 8f bd b0 5c c0 3c b6 55 ef bd
       0.061768673 -0.069945835 0.023481697 -0.1168627
000340 13 87 6e bc 82 d8 8d 3d 77 5b c7 bc 30 19 00 3d
       -0.014558571 0.06926061 -0.024335606 0.03127402
000350 0a 5c d3 3d 01 1f 4f bd d7 23 ab bd ce 37 38 3c
       0.103202894 -0.050566677 -0.08356445 0.011243774
000360 be 98 1c bd 92 ed d3 bd e7 6f af 3d 74 03 7e bc
       -0.038231604 -0.10348047 0.085662656 -0.015503753
000370 62 8a f7 bd 07 eb f3 bd 49 62 8a 3d e8 92 d1 bd
       -0.12086941 -0.11910062 0.06757028 -0.10233098
000380 e8 fa dd bb 2b 67 a0 3c 63 a4 af 3d 98 01 d1 3c
       -0.006774295 0.019580444 0.08576276 0.025513455
000390 9a 93 db bd 14 fe 87 3d 8e 95 a0 3d 62 88 a4 bd
       -0.10721512 0.066402584 0.07841025 -0.080338255
0003a0 02 7f 96 bd dd e2 a6 3d 77 90 93 bd fb 97 b6 bd
       -0.073484436 0.081487395 -0.07205289 -0.08915707
0003b0 59 8e df bc aa b8 c0 bd 55 90 96 3d e4 cd a3 3d
       -0.027289556 -0.09410222 0.07351748 0.07998255
0003c0 43 11 e5 bd 39 8c 1b 3b af 65 40 bd 50 d9 26 3d
       -0.11184933 0.0023734702 -0.046971973 0.04073459
0003d0 e4 c9 69 bc 54 2e 51 bc d8 4a 73 3b 51 65 b5 bd
       -0.014269326 -0.012767393 0.0037123468 -0.08857215
0003e0 8a eb b8 3d 11 81 03 3d bd c4 19 3c 73 cc 16 3d
       0.090293005 0.03210551 0.009385285 0.03681607
0003f0 78 d3 e4 bd a9 0a 00 be 01 7d 51 3d b8 e8 74 bd
       -0.11173147 -0.12504067 0.051144604 -0.05979225

lstm.weight_hh_l1 f4 [256, 64]
000000 1a 00 3b 3d 75 5b d9 bc a1 8c e7 3d 09 16 93 3d
       0.045654394 -0.026532868 0.1130612 0.07181937
000010 0e 35 91 bd aa 16 97 3d 5f f2 24 bd b2 d8 59 3d
       -0.070901975 0.0737737 -0.040270206 0.053185172
000020 32 fe d7 bd 81 5c 07 bd 41 95 93 3d 39 7e ac 3c
       -0.10546531 -0.033047203 0.07206202 0.021056281
000030 5f 6e 0f bd 30 2b 26 3d b0 34 40 bd f7 ae ba bd
       -0.035017367 0.04056853 -0.046925247 -0.09115403
000040 5f 09 17 3c 4d a2 d4 3d f9 9f e6 bd 3a e4 be 3d
       0.009218543 0.10382519 -0.11260981 0.093208745
000050 35 de eb bd b9 d9 69 bd 4e b6 06 bd f1 04 89 bc
       -0.11516992 -0.057092402 -0.032888703 -0.016725989
000060 88 8f bb bd 2d 0e 87 3d c7 14 69 3d f8 68 df 3d
       -0.09158236 0.06594501 0.05690458 0.10908693
000070 93 96 3a 3d 2d bc 33 bc f5 e3 8d bd 00 30 08 bc
       0.045553755 -0.010970158 -0.06928245 -0.008312225
000080 b0 83 d0 b9 de bd ba bd 62 b8 c5 bc ed 7a f9 bd
       -0.00039770966 -0.091182455 -0.024135772 -0.12181649
000090 8c 79 c2 bd 0d b2 c8 3d b6 0b 4a bb 37 90 f2 3d
       -0.094958395 0.097995855 -0.0030829734 0.11843913
0000a0 26 9e 1d 3d 43 db 29 3d 3b 2d 49 3d 53 f7 b7 3c
       0.0384809 0.04146887 0.0491154 0.0224568
0000b0 a7 bd f3 3d a1 55 03 3d 40 51 3e 3d bb 5c 94 bd
       0.11901408 0.032064084 0.046464205 -0.072442494
0000c0 7d 09 e6 3c 7d c5 a8 3d 83 69 ea bd c2 31 ca 3d
       0.028080696 0.08240793 -0.11445906 0.09872772
0000d0 15 66 6f bd 58 63 83 bc de 06 40 3d e0 79 fb bd
       -0.058446962 -0.016038582 0.04688155 -0.12279105
0000e0 33 ee 99 3d 99 2b 8f bb f2 38 5a 3b de 01 9b 3d
       0.07516136 -0.004369211 0.0033298102 0.075687155
0000f0 9c ec c3 bd 16 98 f1 3d 30 60 07 3d d2 2f 07 bc
       -0.09566614 0.11796586 0.033050716 -0.008251147
000100 d0 ff db bd aa 9d 85 bd 4b e0 d0 bd 7c 8e 19 3d
       -0.10742152 -0.06524213 -0.101990305 0.0374894
000110 d3 76 f9 bd 7c 10 08 bc fa 94 e4 3d e1 c7 dc bd
       -0.12180867 -0.008304711 0.111612275 -0.107803114
000120 6f 50 b8 3c d9 c7 91 bd a8 49 87 bd 2e 84 d3 bd
       0.022499291 -0.07118196 -0.06605846 -0.10327946
000130 a0 fc 56 3d 1e 84 8d 3d 9b 92 84 3d 50 7d f6 bd
       0.052487016 0.06909965 0.06473275 -0.1203562
000140 e0 57 ce bc 91 fc e1 3d fd e3 3c bd b4 93 c1 3d
       -0.025188386 0.11034501 -0.046115864 0.09452
000150 dd 8e c7 3d 2c dc ea bc f5 03 fb bd 28 2e e6 3d
       0.09744046 -0.02866944 -0.12256614 0.11239272
000160 9c f1 06 3d 2d a2 28 bd e8 74 e3 bb 93 bf 36 bd
       0.03294526 -0.041170288 -0.0069414265 -0.044616293
000170 63 52 f9 bd 4c 66 a4 bc da 11 94 3d d7 fa aa bd
       -0.12173917 -0.02006831 0.072299674 -0.08348625
000180 69 19 dd bd 65 a9 18 bd 76 6b ef 3c 57 7d f9 bd
       -0.10795862 -0.037270922 0.029226046 -0.1218211
000190 59 b4 2b bc 70 c7 61 bd 38 7f ad bd 5f 65 83 3d
       -0.01048001 -0.05512184 -0.08471531 0.064158194
0001a0 71 6a 63 bd 7b 41 b4 3d 77 79 06 3d f6 26 ce bd
       -0.055521432 0.08801552 0.03283068 -0.10066025
0001b0 77 f8 a5 bd 79 bc 29 3d 0a be 41 bc c3 b0 e6 bd
       -0.081040315 0.041439507 -0.011825094 -0.11264183
0001c0 2a d4 d9 bd ae ab 9e 3d 91 1d fc bc bd bc fe 3b
       -0.1063617 0.07747589 -0.030775817 0.007773964
0001d0 00 1c 8c bd 3e a8 8d bd 94 5d 8b bc 0d 30 97 3c
       -0.06841278 -0.06916855 -0.017012395 0.01845553
0001e0 c9 34 6e 3c 6e 70 1d bc 60 f4 e0 bd f0 3b c3 3d
       0.014538952 -0.009609325 -0.10984111 0.095329165
0001f0 7d 6f a9 bd 4a 37 4d 3c 7a db 9a bc 58 3d e7 3d
       -0.08273218 0.012525389 -0.018903483 0.11290997
000200 ed 08 e6 bd ea 88 3d 3d 56 0b b7 bd 9e 35 f2 bd
       -0.11232171 0.04627315 -0.08937709 -0.11826633
000210 79 09 93 bd cb f6 9f bd ac c7 56 3d 4f 6c b2 bd
       -0.07179541 -0.07810744 0.052436516 -0.087120645
000220 aa 2e 93 3d ef aa 0b 3c fb ac b4 3d 0e f2 ea 3d
       0.07186635 0.00852464 0.08822056 0.114719495
000230 f0 de c4 3c 60 40 a9 3d e3 90 89 bd 46 81 44 3c
       0.024032086 0.08264232 -0.06717088 0.011993712
000240 32 3c fa 3c 67 51 9d 3d 21 3d 48 3d e3 0b bd bd
       0.030546281 0.07681542 0.048886422 -0.09230783
000250 b6 e9 0f bd 02 a2 44 3c 47 3d ab bd 67 7b 85 bd
       -0.035134993 0.012001516 -0.08361297 -0.06517678
000260 82 b8 8b bd fc b7 41 bd 1f 51 2b bd cc 9e 6e 3d
       -0.068223014 -0.0472946 -0.04182541 0.05825691
000270 1f 91 a5 3c 6d 47 52 bd 6e b1 3b bd e9 a9 8b bd
       0.0202108 -0.05133765 -0.045823507 -0.06819517
000280 04 60 16 3d 94 7a ad bd f1 28 d4 3c 8d 2f 36 3d
       0.03671266 -0.084706455 0.025898429 0.04447894
000290 ab 81 9a bd 80 4a ed bc 85 fc aa 3d 0b 56 f0 3d
       -0.075442635 -0.028966188 0.083489455 0.117351614
0002a0 21 1b 45 3d 01 5c b3 3d 42 67 bc bd 9c 7b d2 bd
       0.048121575 0.08757783 -0.09199382 -0.10277483
0002b0 12 d3 49 bd 48 40 07 bd 7e 04 0b bd 34 48 47 bd
       -0.049273558 -0.033020288 -0.03393983 -0.048652843
0002c0 cf 8a 6c bd 5f e0 eb 3d bc 0c 36 3d d2 9d 21 3d
       -0.057749566 0.11517405 0.04444574 0.03945715
0002d0 da 28 99 bd c0 19 9b bd 3a 7c 6d 3d db 00 87 bd
       -0.07478495 -0.07573271 0.0579798 -0.0659196
0002e0 3f 0e ce 3a 2f c9 2e 3d 7d a1 67 bd e8 c5 52 bc
       0.0015720798 0.042672332 -0.05655049 -0.012864567
0002f0 b8 f9 94 bd d1 9a a1 bd db 91 b0 bd be 68 58 bd
       -0.072741926 -0.07890857 -0.0862157 -0.052834265
000300 49 a7 56 3d ba a3 70 3d 34 98 5f bc 66 f3 dd bc
       0.05240563 0.05874989 -0.013647128 -0.0270936
000310 ea d3 aa 3d 7b 42 a6 3d 01 79 e0 bd 27 e1 15 bb
       0.08341201 0.08118149 -0.1096058 -0.0022869797
000320 ae 71 ea 3c 89 f7 eb bd b4 bb db bd 7d fb 92 bd
       0.02861866 -0.11521823 -0.10729161 -0.07176874
000330 4b 9a 89 3d 9a c6 ad 3d 80 ce 83 3d 6e 91 2f 3d
       0.06718882 0.08485146 0.06435871 0.042863302
000340 d2 b4 d0 bd 3f 91 a1 bd 02 82 20 3c 4a 03 b4 bd
       -0.10190739 -0.078890316 0.009796621 -0.0878969
000350 37 eb ad bd 48 75 03 3d f9 21 bf bd 68 c2 2f 3d
       -0.08492129 0.03209427 -0.09332652 0.04291001
000360 2a d3 38 bc e3 cd dc bc 39 6f a8 3d 49 e9 dc bd
       -0.011280814 -0.026953643 0.08224339 -0.10786683
000370 38 36 e8 3d 91 ce c2 bd e5 53 2b 3c 66 b2 94 bd
       0.113384664 -0.09512056 0.010457014 -0.07260589
000380 b1 42 95 bd 1f 29 e8 3b 71 38 db 3d 85 5c fa bd
       -0.07288111 0.00708498 0.10704125 -0.12224678
000390 d3 14 71 3d 1c 83 12 bd 9e e8 8f bb ec 5f ab 3b
       0.05885775 -0.035769567 -0.004391744 0.0052299406
0003a0 24 e3 f1 3d 4f 92 fb bd de a1 94 3d a5 63 f9 3d
       0.11810902 -0.122837655 0.07257436 0.12177209
0003b0 db 6f f8 3d ca 2f ef 3d f5 97 d4 3d 0c f5 1a 3d
       0.1213071 0.11679037 0.10380546 0.03783135
0003c0 43 78 f8 bd f1 84 dd 3d 8d 50 dc 3d 84 96 ba 3d
       -0.12132313 0.10816372 0.10757551 0.0911074
0003d0 1b b8 96 3d c5 45 77 3d 25 19 72 3d 55 7b da 3d
       0.07359334 0.06036927 0.05910601 0.10668055
0003e0 86 07 01 3d 5d f8 f8 3d 56 20 8c bc 39 98 dc bd
       0.031501316 0.121567465 -0.017105263 -0.10771222
0003f0 39 5f 9c 3d ca ab 11 3c bb a8 e6 3d b3 81 e6 3c
       0.0763535 0.008891055 0.112626515 0.028138017

lstm.bias_ih_l1 f4 [256]
000000 42 9a 57 ba 07 ae 7b 3d 11 87 51 bd b9 94 70 3d
       -0.00082245853 0.061445262 -0.0511542 0.058735583
000010 ee e2 33 bd 42 e6 19 3d 72 fc 0d bd 22 77 0a bd
       -0.04391759 0.037573107 -0.03466458 -0.03380502
000020 73 33 22 3d 11 55 ec bd b6 9f dd bd 16 58 49 3d
       0.039599847 -0.11539663 -0.10821478 0.04915627
000030 1f db e0 bd 91 f0 f0 bc 8f c1 1f 3d 2b bf 9c 3d
       -0.10979294 -0.029411586 0.03900295 0.0765365
000040 af fc 1f bd fb 71 82 bd b6 c3 33 bc 18 91 d5 3d
       -0.039059337 -0.06369396 -0.010971954 0.10428065
000050 03 e7 8d bd d1 4b 24 bc c3 e3 aa bd 66 f1 2d 3d
       -0.069288276 -0.010027842 -0.08344223 0.042466544
000060 fa f7 bc bd 21 ca 06 bc 9e 10 b6 3d 0d 89 fd 3c
       -0.09226985 -0.008226902 0.08889888 0.03094914
000070 80 23 82 bd 24 03 b0 bd 66 28 07 3b 23 e7 e5 bd
       -0.06354427 -0.08594349 0.0020623445 -0.112257265
000080 11 62 3e 3b 3c ed ce bd 07 40 73 bd 3d 3d 75 bd
       0.0029050151 -0.101038426 -0.059387233 -0.059872855
000090 1b 83 ab bc 8a 20 3f bd d0 be 9a bd 20 99 44 bd
       -0.02093654 -0.04666189 -0.07555926 -0.047997594
0000a0 b3 80 f1 bd ac d7 20 bc 5a 2e 76 bc 3d 4e d2 bc
       -0.117921256 -0.009817045 -0.0150256995 -0.025672073
0000b0 b2 3a 24 bc fb 33 a3 bd 99 36 e0 3a 2a 0d 2a bc
       -0.01002376 -0.07968899 0.0017106115 -0.010379115
0000c0 59 a1 d1 3d e2 5f 24 3d c9 aa 3f bd e7 57 74 3d
       0.10235853 0.040130503 -0.046793733 0.059654143
0000d0 7b af be bd 9f 03 d8 3d 06 ee c5 bd 93 45 a4 bd
       -0.09310814 0.10547566 -0.0966454 -0.08021083
0000e0 74 05 89 bb 23 8b 91 bd 52 8b bb 3d 29 c4 de bb
       -0.0041815583 -0.07106616 0.091574326 -0.0067982865
0000f0 e9 9c 9f bd 26 c0 00 3d ad 75 83 3d 2b 97 d4 bd
       -0.077936 0.031433247 0.06418929 -0.103803955
000100 f4 08 99 bd 32 46 84 bd 48 b2 a4 bd 84 e4 cd 3d
       -0.07472411 -0.06458701 -0.08041817 0.100533515
000110 e8 07 e0 bd 33 13 f2 bd 88 eb e6 bd 45 3a ce bd
       -0.10939008 -0.11820068 -0.11275393 -0.10069708
000120 43 36 d4 bd 67 74 e5 3b 44 ac be bb 5c 79 b1 3d
       -0.10361912 0.0070024016 -0.0058188755 0.086657256
000130 30 dc 5b 3d d3 05 2f 3d 43 e3 a5 3d 12 8b e5 bd
       0.053676784 0.042730164 0.08099987 -0.11208166
000140 66 2f b2 bd 84 0a c1 3d a2 3f 9b 3c 01 e2 9e 3d
       -0.08700447 0.09425834 0.01895124 0.077579506
000150 a5 d0 ac bd 08 2f ab 3c 54 03 83 bd ec 8a 8d bd
       -0.08438233 0.02089645 -0.06397119 -0.06911263
000160 91 2a f0 bd ef 41 56 3b 0d d6 4c 3c d9 5e b2 3d
       -0.11726869 0.0032693108 0.012502206 0.08709497
000170 f6 ad 12 3d db 46 12 3b df dc 8a bd 8e 21 96 3d
       0.035810433 0.0022320065 -0.06780409 0.07330619
000180 a0 e2 28 bd 3c 98 bc 3d ab e1 a6 3d 0f 08 41 bd
       -0.04123175 0.09208724 0.081485115 -0.047126826
000190 f4 5d 7c 3d 98 8f bc bc 31 80 e8 bd 49 48 9e bd
       0.06161304 -0.02301769 -0.113525756 -0.07728631
0001a0 43 85 87 3c 0a 58 c6 3c ea 87 d7 3d 69 b6 8f bd
       0.016543036 0.024211902 0.105239704 -0.07017214
0001b0 fe cd 0c bd 9a f8 26 3c e0 c5 9b bd 6a f3 9a 3d
       -0.034376137 0.010191107 -0.07606101 0.07565959
0001c0 04 4e eb 3d 92 2f 5c 3b f2 d6 f3 3d 81 28 8a 3c
       0.1148949 0.003359769 0.11906232 0.016865017
0001d0 43 ee 5b bc 0c 35 f7 bd 33 19 6a bd 33 2e 15 bd
       -0.013423505 -0.12070665 -0.057152938 -0.036421012
0001e0 78 4e 8e 3c a8 53 ee 3d 25 4c de 3b 7e 3a 0e bd
       0.017371401 0.1163705 0.0067839795 -0.03472375
0001f0 dd 8f ce 3d 89 50 e2 3b 5a 62 be bd 4e 8f ba 3c
       0.100860335 0.006906573 -0.09296103 0.022773411
000200 4d d3 9c bd 9a 1c c9 bd 45 73 bf bc e3 b1 09 bd
       -0.0765749 -0.098199084 -0.023370394 -0.03361691
000210 1e fe cb 3d 09 ee c2 3d bd 5f 8e 3d 3f 5a bc bd
       0.099605784 0.09518058 0.069518544 -0.091969006
000220 6c 64 de 3d be 9f 86 bb 84 54 50 bd ad 0a a2 3d
       0.10858998 -0.004108398 -0.05086185 0.079121925
000230 6e 6b 11 3d d8 f9 93 3d 46 4a 50 bb 00 02 0a 3d
       0.035502844 0.07225388 -0.0031782552 0.033693314
000240 b5 41 67 3d 14 a4 e4 bc 92 a1 e3 bd 57 69 a6 3d
       0.056459147 -0.02791027 -0.111148015 0.08125561
000250 33 66 de 3c 14 ae 81 3b 67 1e 2b 3d d4 9b a8 3d
       0.027148342 0.0039575193 0.04177704 0.08232847
000260 02 f4 96 bd 82 a0 98 bd 4f f4 7e bd 40 11 e5 bd
       -0.073707595 -0.074524894 -0.06224471 -0.11184931
000270 ca 91 87 3d 15 fa d0 bd 3e bc 57 bc f5 77 17 bd
       0.06619604 -0.10203949 -0.013167439 -0.036979634
000280 a4 08 98 3b 90 0f b6 bd cf 33 d0 bc d5 8f b9 3d
       0.004639702 -0.08889687 -0.02541533 0.09060637
000290 46 36 b8 bd 74 f4 d7 3d 2e 8a f9 bd 5b bc 69 bd
       -0.08994727 0.105446726 -0.12184559 -0.057064395
0002a0 9c 62 92 bd 52 43 83 bd 65 67 a9 3c 25 10 f7 3d
       -0.071477145 -0.06409325 0.020679185 0.12063626
0002b0 ca c3 22 bc 52 4d e7 3d 40 24 eb bd 05 fa fd bd
       -0.009934375 0.112940446 -0.114815235 -0.12401203
0002c0 41 a9 a3 3d 2f 41 50 bb 33 3c 00 3d 9c af dc bd
       0.07991267 -0.0031777134 0.03130741 -0.10775682
0002d0 09 c3 b2 bd 2d c2 50 bd fd 45 c7 3d 48 d8 29 bb
       -0.08728606 -0.05096643 0.09730146 -0.0025916267
0002e0 3e ab a4 bd 85 ed 38 3b 06 72 0f bd 08 98 d7 bd
       -0.08040474 0.0028217745 -0.03502085 -0.105270445
0002f0 37 f0 dc 3d 96 11 08 bc 9c 52 8c bd 23 2e a6 bd
       0.10788005 -0.008304974 -0.06851694 -0.08114269
000300 18 6a d3 bd b1 a8 db 3d 86 39 d5 3d e0 fb 21 3d
       -0.1032297 0.10725535 0.10411362 0.039546847
000310 0c ce b0 bd 9a 4c c9 bd d4 56 cf bd c2 ec b6 3c
       -0.0863305 -0.09829064 -0.10123983 0.022329692
000320 2e 5a 96 bd 73 20 23 3c 87 17 45 3d 32 50 e3 3c
       -0.07341419 0.009956467 0.04811814 0.027748201
000330 58 22 ba 3d 39 60 8d bd b9 c2 99 3d 1f d8 c5 bd
       0.09088582 -0.06903119 0.075078435 -0.096603625
000340 4b e7 b6 bd 40 36 a8 bd f3 d8 51 bd d6 cb e8 bd
       -0.089308344 -0.08213472 -0.05123229 -0.113670036
000350 a9 a0 e1 bb ca 98 92 bd 0c db 78 3d 41 0e d9 bc
       -0.0068856073 -0.071580485 0.060755774 -0.026496055
000360 47 d0 ca bd 73 15 06 3c fe bb c7 bc a2 4a d9 bd
       -0.09903007 0.008183825 -0.024381634 -0.10609938
000370 a6 97 00 bd cd a9 d2 3b ca 7f f1 3d 2a 16 1c 3c
       -0.031394623 0.0064289332 0.11791952 0.009526769
000380 9c 62 d8 3d 3f 21 e4 bd 1f 35 86 bd 7f 3d f6 bd
       0.10565683 -0.11139154 -0.06553101 -0.12023448
000390 42 2e 70 bd e7 2c 7e 3d b9 68 83 3b 26 ed af bc
       -0.058637865 0.06205454 0.0040102866 -0.021475386
0003a0 3e a4 e8 3d 61 e9 b8 bd 9b fe cd bb 27 a7 a3 3d
       0.11359452 -0.090288885 -0.006286455 0.07990866
0003b0 79 3e e1 bc ed 49 62 3d 1d 4b e1 bd b7 84 eb bd
       -0.02749561 0.055246282 -0.11000655 -0.11499923
0003c0 aa af ef 3d 24 ad c4 bd 43 e7 42 bd 8b 14 c1 3b
       0.11703427 -0.096033365 -0.04758383 0.0058923415
0003d0 0b aa 82 bc 39 cb e6 bd 51 04 c8 bd 50 cb dd bd
       -0.015950223 -0.112692304 -0.09766448 -0.108297944
0003e0 ce 5f a4 3d 0f 9f c4 3d f9 6e dd bc 89 ce 4a 3d
       0.08026086 0.096006505 -0.027030455 0.049513374
0003f0 4f 06 5d 3d 7c 61 f1 3d ae 41 ca bd e2 40 4d 3c
       0.053961094 0.11786172 -0.09875809 0.012527676
